nnql/scripts/data/r9t12/model347_312_e50.pth (torch, 697623 bytes, 6 tensors)

layers.0.apply_mod.linear.weight f4 [256, 108]
0	0x3def90e4	0.116975576
1	0xbdcf0dd6	-0.10110061
2	0xbe12e64c	-0.14345664
3	0x3dfa7c02	0.12230684
4	0x3debb643	0.11509373
5	0x3e103356	0.14082083
6	0xbeb8954a	-0.360514
7	0x3d517739	0.05113909
8	0xbe0ca1b4	-0.1373356
9	0xbf11f80e	-0.57019126
10	0x3df33499	0.118752666
11	0xbef90e92	-0.4864393
12	0x3c427f0b	0.01187111
13	0x3da22652	0.07917465
14	0x3cc91322	0.024545256
15	0x3bc6c182	0.0060655484
16	0xbe21dfde	-0.15808055
17	0xbe12305c	-0.1427626
18	0xbda0df27	-0.07855063
19	0xbf2e00fd	-0.6797026
20	0x3d214325	0.039370675
21	0xbd9fdc08	-0.078056395
22	0x3e33e9c7	0.17569648
23	0xbe4d2d9c	-0.2003693
24	0x3df109ba	0.11769433
25	0x3dc902dc	0.098149985
26	0x3d8e8927	0.069597535
27	0xbf4c33b4	-0.7976639
28	0xbd9a882b	-0.07545503
29	0x3e638504	0.2221871
30	0xbf32f89f	-0.69910616
31	0xbf101ea0	-0.5629673
32	0x3efc7c56	0.4931361
33	0x3e9a6aa5	0.30159488
34	0x3c35cc87	0.011096126
35	0x3d155882	0.03646136
36	0xbdda6c73	-0.10665216
37	0xbe323a8b	-0.17405145
38	0x3da9e1ed	0.08295045
39	0x3f0c5542	0.54817593
40	0xbe556476	-0.20839104
41	0xbe0a1067	-0.1348282
42	0xbeabe92f	-0.33576342
43	0xbe311023	-0.17291312
44	0xbcb4c9bf	-0.022068856
45	0xbd60fbe3	-0.054927718
46	0xbd3d3109	-0.04618934
47	0xbe39a189	-0.18128027
48	0xbe825dcf	-0.25462195
49	0xbe57c405	-0.2107087
50	0xbd3f6f0a	-0.046736754
51	0xbc001099	-0.007816457
52	0xbda07f24	-0.0783675
53	0xbb0f9ed2	-0.0021914733
54	0xbe80a103	-0.25122842
55	0xbc12fc13	-0.008971232
56	0x3dd27cdf	0.102777235
57	0xbea1db9d	-0.31612864
58	0x3dbdcbb1	0.09267367
59	0xbeb50f24	-0.35363114
60	0x3d02e191	0.0319534
61	0xbc3eb8a8	-0.011640705
62	0xbd5f623c	-0.054537043
63	0x3df359a5	0.11882333
64	0xbcddd431	-0.02707872
65	0xbeb5b634	-0.35490572
66	0xbc3f0c96	-0.011660716
67	0x3dd8dfb9	0.10589547
68	0xbe344095	-0.17602761
69	0xbe2b3c21	-0.16722156
70	0xbe4b72bd	-0.19867988
71	0xbda61f08	-0.081113875
72	0xbd604aa8	-0.054758698
73	0xbf16f743	-0.5897104
74	0x3c5840f7	0.013199083
75	0x3ee45950	0.4459939
76	0x3d87fc6c	0.066399425
77	0xbe6db33f	-0.23212908
78	0xbe589e5e	-0.21154162
79	0xbd80249b	-0.06256982
80	0xbd88bf13	-0.066770695
81	0xbca2d8ed	-0.019878829
82	0x3d85da7d	0.06535814
83	0x3e61d90c	0.22055453
84	0x3e463fde	0.19360301
85	0xbbac4a18	-0.005257856
86	0xbde531eb	-0.11191162
87	0x3e0f7fd4	0.14013606
88	0xbc3cbced	-0.011519653
89	0xbd78d436	-0.060749255
90	0xbe94d01a	-0.2906502
91	0xbe592263	-0.21204524
92	0x3e6c0619	0.23049201
93	0x3e1fb20e	0.15595266
94	0xbd9332c0	-0.07187414
95	0x3eb00c57	0.34384415
96	0xbd98a822	-0.07453944
97	0x3e31123c	0.17292112
98	0x3d06c017	0.032898035
99	0xbdb8cf3a	-0.090239
100	0xbf035cec	-0.5131366
101	0xbf09829a	-0.5371491
102	0xbbfaa2a4	-0.007648783
103	0xbeb76e58	-0.35826373
104	0x3cd8be0a	0.026457805
105	0x3e0387cf	0.12844776
106	0xbdd53062	-0.10409619
107	0x3c47bd26	0.012191093
108	0x3e263e26	0.16234645
109	0xbea2a59f	-0.31766984
110	0x3e178f05	0.14800651
111	0x3ea86297	0.32887718
112	0x3ed504f7	0.4160535
113	0x3d6e0db7	0.05811855
114	0xbdaab6dc	-0.08335659
115	0xbda1c014	-0.07897964
116	0x3e6c4e05	0.23076637
117	0xbeff665a	-0.49882776
118	0x3eadf4b5	0.3397576
119	0xbeb00c7f	-0.34384534
120	0x3f1f3305	0.62187225
121	0xbe6f6478	-0.2337817
122	0xbe75644f	-0.23964046
123	0x3cf25ad0	0.029584318
124	0xbdd6d895	-0.104905285
125	0x3dc4862e	0.09595905
126	0xbf285e15	-0.6576856
127	0x3e8149b0	0.25251532
128	0xbe6d8a22	-0.23197225
129	0xbe099fad	-0.13439818
130	0x3f087114	0.53297544
131	0xbdecc348	-0.115606844
132	0x3e5d1bac	0.21592587
133	0xbe415699	-0.1888069
134	0xbd7e20ce	-0.062043004
135	0xbea164cd	-0.31522217
136	0x3d6739ec	0.056451723
137	0xbd38038c	-0.044925258
138	0x3dcbe163	0.099550985
139	0x3e7644c4	0.2404967
140	0xbcb2c429	-0.021822052
141	0x3e70d1c0	0.23517513
142	0x3da9e9c5	0.08296541
143	0xbd99a97e	-0.07503031
144	0xbe0dc336	-0.13843998
145	0x3e223e3f	0.15844058
146	0x3e192186	0.14954194
147	0xbcd7fe1b	-0.026366284
148	0xbde71977	-0.11284154
149	0xbdd8be75	-0.10583202
150	0x3e30f1d2	0.17279747
151	0x3e339847	0.17538558
152	0x3df88e4e	0.121365175
153	0xbdb73dce	-0.08947335
154	0x3e23873d	0.15969558
155	0x3e50d17d	0.20392413
156	0xbef7e5d9	-0.48417547
157	0xbe324ac4	-0.17411333
158	0xbea91e6a	-0.33031017
159	0xbe23f1ea	-0.16010252
160	0xbccd07e2	-0.025028173
161	0xbd5b71d1	-0.05357534
162	0xbecb8900	-0.3975296
163	0x3e636a03	0.22208409
164	0xbe00be5e	-0.1257262
165	0xba94f818	-0.0011365442
166	0xbe9c97e7	-0.30584642
167	0xbe1faacb	-0.15592496
168	0xbed70562	-0.41996294
169	0xbbde9683	-0.0067928447
170	0x3ba10b71	0.004914694
171	0xbec244d4	-0.37943137
172	0xbe7417b2	-0.23837164
173	0xbd881a39	-0.066456266
174	0x3d1b11e7	0.03785887
175	0xbe0fbcda	-0.14036885
176	0xbe989562	-0.2980147
177	0xbc0f8df4	-0.008761872
178	0xbeb09891	-0.344914
179	0xbc815d8b	-0.015791675
180	0xbeb97fe7	-0.36230394
181	0xbf14d077	-0.5813059
182	0xbc8a10ed	-0.016853774
183	0x3e0c2d29	0.13689102
184	0x3e8bc7a9	0.27300766
185	0x3d7b3432	0.061329074
186	0x3dfd3fef	0.1236571
187	0xbcdb8af2	-0.026799653
188	0x3da1a9db	0.078937255
189	0xbdff8ff3	-0.12478628
190	0xbe1157f0	-0.14193702
191	0xbe44c38e	-0.19215223
192	0x3d8c64ab	0.068551384
193	0xbdf88e8f	-0.12136566
194	0xbdaa57ca	-0.08317526
195	0xbdf53e38	-0.11974758
196	0xbe0394a4	-0.1284967
197	0xbcc12f14	-0.023582019
198	0xbe2c2865	-0.16812284
199	0x3d2e37ba	0.042533614
200	0xbdfbf454	-0.12302461
201	0xbd0c1379	-0.034198258
202	0xbd2f82e7	-0.042849448
203	0xbf03167d	-0.5120619
204	0x3d990be4	0.07472971
205	0xbe2caa78	-0.16861904
206	0xbdf2df69	-0.11859018
207	0x3d8990dc	0.06717083
208	0x3e336d40	0.17522144
209	0x3e82d0d3	0.25549945
210	0x3ca18e87	0.019721283
211	0xbe796349	-0.2435428
212	0xbc8dc76f	-0.017307011
213	0xbba93cdd	-0.005164726
214	0x3d9ca274	0.07648173
215	0x3e1decd2	0.15422371
216	0x3dc52701	0.0962658
217	0xbef30eff	-0.4747238
218	0x3ec11bd0	0.37716532
219	0xbd8684fa	-0.06568332
220	0x3e37bd58	0.17943323
221	0x3e6f86bd	0.23391242
222	0xbe4b6cd3	-0.19865732
223	0x3e8d6266	0.27614135
224	0x3d8fe5b0	0.07026231
225	0xbd748fe6	-0.059707545
226	0xbdd41b14	-0.10356727
227	0xbe9af978	-0.30268455
228	0xbe7e3505	-0.24824913
229	0xbe10cfdb	-0.1414179
230	0xbdd4a44c	-0.103829
231	0xbee389f1	-0.44441178
232	0xbee49f1e	-0.44652647
233	0xbd84cf19	-0.06484813
234	0x3df963c9	0.12177236
235	0xbedb9063	-0.42883596
236	0xbf5fb5e2	-0.87386906
237	0xbe8a7bca	-0.2704757
238	0x3e9f0e78	0.31065726
239	0xbd1e671e	-0.03867256
240	0x3da2b2f7	0.07944291
241	0x3d1ada45	0.037805814
242	0x3bbce8e1	0.005765066
243	0x3c61399c	0.013746645
244	0x3eaf1e9b	0.34203038
245	0xbe6362b4	-0.22205621
246	0x3df3eb7e	0.11910151
247	0x3dfede79	0.12444777
248	0xbf08e1b4	-0.53469396
249	0xbd7f09ff	-0.062265392
250	0x3e9b7fd7	0.30370972
251	0x3d718dcc	0.05897312
252	0xbe6d7e3f	-0.2319269
253	0xbd0ec6c4	-0.034857526
254	0xbe9f55c7	-0.3112013
255	0x3d89743a	0.067116216

layers.0.apply_mod.linear.bias f4 [256]
0	0xbeb1acf1	-0.34702256
1	0xbce40982	-0.027836565
2	0xbe2aa668	-0.16665041
3	0xbe15114b	-0.14557378
4	0xbc61d1fe	-0.013782976
5	0xbdf13881	-0.117783554
6	0xbde24ff0	-0.11050403
7	0xbdba3058	-0.09091252
8	0xbe3ff497	-0.18745647
9	0xbd9be6e7	-0.076124005
10	0xbe3fe7d9	-0.18740787
11	0xbd669525	-0.05629458
12	0xbe7cddc5	-0.24693973
13	0xbe23be83	-0.15990643
14	0xbd401a0b	-0.046899837
15	0xbd5ef1c6	-0.054429792
16	0x3c086737	0.00832539
17	0xbe077cde	-0.13231227
18	0xbd9d5245	-0.07681707
19	0x3c8d565d	0.017253095
20	0xbe1120d3	-0.14172678
21	0xbe3b5dfc	-0.18297571
22	0xbe003ec5	-0.12523945
23	0xbe6eaad5	-0.23307355
24	0xbdf4522b	-0.11929735
25	0xbc8224c7	-0.015886677
26	0xbe6ac595	-0.22926934
27	0xbd3120d5	-0.0432442
28	0xbe375860	-0.17904806
29	0x3cb2d5e7	0.021830512
30	0xbea66377	-0.3249776
31	0xbe5c877f	-0.21536063
32	0x3e0ccd68	0.13750231
33	0xbebc4373	-0.3677021
34	0x3c3d50f7	0.011554948
35	0xbd62fc66	-0.055416487
36	0xbe2a5fcc	-0.16638106
37	0xbe3837ce	-0.17990038
38	0xbd81c0f4	-0.06335631
39	0xbddfc053	-0.10925355
40	0xbe871807	-0.2638552
41	0xbdef65f2	-0.116893664
42	0xbe8bd30a	-0.27309448
43	0xbce1925d	-0.027535612
44	0xbe8ae86d	-0.27130452
45	0xbde1c1dd	-0.110233046
46	0xbe877e1b	-0.26463398
47	0xbe236851	-0.15957762
48	0x3e251507	0.16121303
49	0xbe91afce	-0.2845444
50	0xbe13a3a3	-0.14417891
51	0xbe477d58	-0.19481409
52	0xbe7de2b3	-0.2479351
53	0xbd9ddb45	-0.07707838
54	0xbea773b3	-0.3270546
55	0xbe27b33e	-0.16376969
56	0xbe1409b9	-0.14456834
57	0xbd1027af	-0.035194095
58	0xbe729b28	-0.23692
59	0xbe77732e	-0.24165031
60	0xbe20ea08	-0.15714276
61	0xbe524ae4	-0.20536381
62	0xbc08d04c	-0.008350443
63	0xbdc1c848	-0.09462029
64	0xbe4c219f	-0.199347
65	0xbe9f74fd	-0.31143942
66	0xbe7ce996	-0.24698481
67	0xbe671da8	-0.22569907
68	0xbe57dbaf	-0.21079896
69	0xbcf2f6e1	-0.029658737
70	0xbde61421	-0.11234308
71	0xbe37af17	-0.17937885
72	0xbec3eee1	-0.38268188
73	0xbe1faa46	-0.15592298
74	0xbe311924	-0.17294747
75	0xbdcbd00b	-0.099517904
76	0xbdaf4a1a	-0.085590556
77	0xbdfa8836	-0.122330114
78	0x3cc23a92	0.02370957
79	0x3cacead5	0.02110807
80	0xbe953b17	-0.29146644
81	0xbe575b09	-0.21030821
82	0xbd27fc73	-0.04101224
83	0xbe0573bd	-0.13032432
84	0xbe6fd660	-0.23421621
85	0xbd94b7a5	-0.0726159
86	0xbea4bfe7	-0.3217766
87	0xbe3791e8	-0.17926753
88	0xbde3937d	-0.111121155
89	0xbe120004	-0.14257818
90	0xbe0be2eb	-0.13660781
91	0x3deafcd9	0.11474008
92	0xbdbe246c	-0.09284291
93	0xbe10faf3	-0.1415823
94	0xbe3a3c10	-0.18186975
95	0xbd84a8b9	-0.06477494
96	0xbcee748f	-0.029108314
97	0xbe9f6ebe	-0.31139177
98	0xbe4439e4	-0.19162709
99	0xbe365c67	-0.17808686
100	0xbd2c49e6	-0.042062663
101	0xbd6128be	-0.054970495
102	0xbe0ffb25	-0.14060648
103	0xbdbd5bc9	-0.09246022
104	0xbe841af4	-0.25801814
105	0xbd6dbe6c	-0.05804293
106	0xbe10a554	-0.14125568
107	0xbe6b1186	-0.22955903
108	0xbe45fcf0	-0.19334769
109	0xbd7653ed	-0.06013863
110	0xbdb52b99	-0.08846206
111	0xbd80a007	-0.06280523
112	0xbcc12aba	-0.023579944
113	0xbead3335	-0.3382813
114	0x3d1ca0e2	0.038239367
115	0xbe31d668	-0.17366946
116	0x3bf321a8	0.0074197836
117	0xbe1c3db6	-0.15257916
118	0xbe100905	-0.1406594
119	0xbe6e84a9	-0.23292793
120	0xbd18df23	-0.037322175
121	0xbd1e0ddb	-0.038587432
122	0xbda4eefa	-0.08053394
123	0xbe0a6633	-0.13515548
124	0xbcc9638d	-0.024583602
125	0xbd43cc6d	-0.047802377
126	0xbe8c88ce	-0.27448124
127	0xbe1e375c	-0.15450805
128	0xbd5af09b	-0.053452116
129	0xbe142ef0	-0.1447103
130	0xbe7b3d4a	-0.24535099
131	0xbd4daedd	-0.05021559
132	0xbdbb89c3	-0.09157135
133	0x3ab32472	0.0013667478
134	0xbe243d9d	-0.16039129
135	0xbd9d25fc	-0.076732606
136	0x3dab7b14	0.08373085
137	0x3cbbffa2	0.022949044
138	0xbe187eee	-0.1489217
139	0xbd8695b7	-0.065715246
140	0x3d153841	0.0364306
141	0xbe393eea	-0.18090406
142	0xbe3c7774	-0.18404943
143	0xbd188135	-0.037232596
144	0xbdc689bf	-0.09694242
145	0x3dfd71a8	0.12375194
146	0xbea1f735	-0.31633916
147	0xbd0081d6	-0.03137382
148	0xbe1b4f09	-0.15166868
149	0xbeff9f20	-0.4992609
150	0xbebd4191	-0.36964086
151	0xbe1b201d	-0.15148969
152	0xbe2b4363	-0.16724925
153	0xbd1fc7c8	-0.039008886
154	0xbe5fd347	-0.2185794
155	0xbe9a57de	-0.30145162
156	0xbe27b233	-0.16376571
157	0xbc85c851	-0.01633087
158	0xbcd7dad1	-0.026349457
159	0xbcd982a2	-0.026551548
160	0xbde4c0bc	-0.11169574
161	0xbe9d17a8	-0.3068211
162	0xbe2ef817	-0.17086826
163	0xbda5c547	-0.08094268
164	0xbe2f86ef	-0.17141317
165	0xbe5c2d97	-0.21501766
166	0xbd58a5be	-0.05289244
167	0xbe396e8e	-0.1810858
168	0xbe7aec34	-0.24504167
169	0xbd376899	-0.044777486
170	0xbdbd09c0	-0.09230375
171	0xbe9405e3	-0.2891074
172	0xbe4f9443	-0.20271401
173	0xbd872589	-0.06598956
174	0xbe5df819	-0.21676673
175	0xbe144a87	-0.14481555
176	0xbddc937e	-0.107703194
177	0x3e2edf84	0.17077452
178	0xbe1aa208	-0.15100873
179	0xbe47b32f	-0.19501947
180	0x3e1cb1ab	0.1530215
181	0xbe584163	-0.21118693
182	0xbe6d3904	-0.23166281
183	0xbd78055f	-0.060551997
184	0xbdb7ddd5	-0.08977858
185	0x3d951217	0.07278841
186	0xbe3d0611	-0.18459345
187	0xbe26d02d	-0.1629035
188	0xbdc26c8b	-0.09493359
189	0xbd9c3940	-0.07628107
190	0xbe3044a8	-0.1721369
191	0xbd1520c9	-0.03640822
192	0xbe60ff7c	-0.2197246
193	0xbe3923e8	-0.18080103
194	0xbe9f5b8a	-0.31124526
195	0xbec862e7	-0.39137957
196	0xbe942fb5	-0.28942648
197	0xbdfae5e7	-0.12250882
198	0xbd421522	-0.047383435
199	0xbd93cbe9	-0.07216627
200	0x3dc819fc	0.09770581
201	0x3d2b2446	0.04178264
202	0xbe14d438	-0.1453408
203	0xbcb30bd2	-0.021856222
204	0x3a2d5341	0.0006611832
205	0xbe2a3a01	-0.16623689
206	0xbe5f2b4a	-0.21793857
207	0xbd226840	-0.0396502
208	0xbe50477f	-0.20339774
209	0xbe36568b	-0.17806451
210	0xbd1754b5	-0.036946017
211	0xbe18a672	-0.14907244
212	0xbe86aafd	-0.2630233
213	0xbe4bdda6	-0.19908771
214	0xbc69c422	-0.014267953
215	0xbd6ecfb6	-0.058303557
216	0xbe4d5508	-0.20051968
217	0xbe86d8da	-0.2633732
218	0xbdd7f4d7	-0.10544746
219	0x3c50c5df	0.012742489
220	0xbdcf74a7	-0.101296715
221	0xbe6c6fed	-0.23089571
222	0xbe1bc4ef	-0.15211843
223	0x3d06600b	0.032806437
224	0xbd6527f9	-0.055946324
225	0xbe401210	-0.1875689
226	0xbe27dbac	-0.16392392
227	0xbe971880	-0.2951088
228	0xbe8070d0	-0.2508607
229	0xbd151136	-0.036393367
230	0xbcff9652	-0.031199608
231	0xbd871c98	-0.06597251
232	0xbdbc0071	-0.09179772
233	0xbe3de3d9	-0.18543948
234	0xbe1d4c6d	-0.15361185
235	0xbe2bf1f1	-0.16791512
236	0xbe72f59e	-0.23726508
237	0xbe8812b6	-0.26576775
238	0x3e570d45	0.21001156
239	0xbe986089	-0.2976115
240	0xbe875a35	-0.2643601
241	0xbe9ee528	-0.31034207
242	0xbe4de84e	-0.20108148
243	0xbe8a2e14	-0.2698828
244	0xbe400a60	-0.18753958
245	0xbd3bc100	-0.045838356
246	0xbe8660f4	-0.26245844
247	0xbc1b1146	-0.0094645675
248	0x3e10cfc1	0.14141752
249	0x3bda6927	0.006665367
250	0xbe5e84a1	-0.21730281
251	0xbe6230c9	-0.22088923
252	0xbdc77928	-0.097399056
253	0xbe4951ae	-0.19660065
254	0xbe41e63d	-0.18935485
255	0xbe9d820f	-0.3076329

layers.1.apply_mod.linear.weight f4 [256, 256]
0	0xbe475124	-0.19464546
1	0xbe044f31	-0.12920834
2	0xbe837cf3	-0.25681266
3	0xbea430dc	-0.32068527
4	0xbe980b1e	-0.29695982
5	0xbe605783	-0.21908383
6	0xbe612801	-0.21987917
7	0x3e3024ff	0.17201613
8	0x3c3f0ee2	0.011661263
9	0x3e1278b0	0.14303851
10	0xbeb0daa7	-0.34541818
11	0xbe30979d	-0.17245336
12	0xbeaf7482	-0.34268576
13	0xbe6aed48	-0.22942078
14	0xbe17de29	-0.14830841
15	0xbf512b88	-0.8170705
16	0xbde08f6c	-0.109648556
17	0xbbd351b7	-0.00644895
18	0xbe56892c	-0.20950764
19	0xbe06b859	-0.1315626
20	0xbd8ba203	-0.06818011
21	0x3ef1414a	0.47120124
22	0x3da73c01	0.08165742
23	0xbe08ad55	-0.13347371
24	0xbe1f1524	-0.15535408
25	0xbed7f84c	-0.42181623
26	0xbdf31f6d	-0.11871228
27	0xbe32dfeb	-0.1746823
28	0xbdd9b76f	-0.1063069
29	0xbeebfe19	-0.460923
30	0xbde64bbb	-0.11244913
31	0xbe30df48	-0.17272675
32	0x3df51c06	0.11968236
33	0x3cf00a0a	0.029301662
34	0xbee18c68	-0.44052434
35	0x3da9754b	0.08274325
36	0xbf05326f	-0.5203008
37	0xbe460f6b	-0.19341819
38	0xbe62726d	-0.22113962
39	0xbe7b6f71	-0.2455423
40	0x3ea6c6a0	0.32573414
41	0xbf1b87ca	-0.6075407
42	0xbeb5a48d	-0.35477105
43	0xbe2bc9e9	-0.16776241
44	0x3de56ea3	0.11202743
45	0xbe669800	-0.22518921
46	0xbe47aeda	-0.19500294
47	0x3d773e78	0.06036231
48	0xbe4eb01c	-0.20184368
49	0x3d80af4b	0.062834345
50	0x3e04ef4f	0.12981914
51	0xbebd244b	-0.36941752
52	0x3dd585a9	0.10425884
53	0xbe492646	-0.19643506
54	0x3ce376be	0.027766582
55	0xbe5f4e52	-0.2180722
56	0x3eb5b277	0.3548772
57	0x3c85d450	0.01633659
58	0xbd9f7f7b	-0.07787987
59	0xbc2bee23	-0.010493788
60	0x3dd238d0	0.102647424
61	0xbefe34dd	-0.49649706
62	0xbe9d6680	-0.30742264
63	0xbbc00c6d	-0.0058608563
64	0x3dbcac7d	0.09212587
65	0x3e34b18c	0.17645854
66	0xbec1b732	-0.3783508
67	0xbea09aeb	-0.31368193
68	0x3eb1d278	0.34730887
69	0x3ec53b33	0.38521728
70	0xbdb264ac	-0.08710608
71	0x3e544400	0.20729065
72	0x3e0c594f	0.13705944
73	0xbd8c2084	-0.06842139
74	0xbe9ba712	-0.30400902
75	0xbecd8c7b	-0.4014624
76	0x3e3b9220	0.18317461
77	0x3dbb27f3	0.09138479
78	0x3b0beae5	0.0021349725
79	0xbdf6d8c6	-0.12053065
80	0xbe5c21cf	-0.21497272
81	0xbf6a322f	-0.91482824
82	0xbecd68ec	-0.40119112
83	0x3e1aa486	0.15101823
84	0x3db747d2	0.089492455
85	0x3e74099c	0.2383179
86	0xbec72b42	-0.3890019
87	0xbe5f7a81	-0.21824075
88	0x3e3f7542	0.18697074
89	0x3d9ee737	0.077589445
90	0x3ea49454	0.32144415
91	0xbdbc7660	-0.09202266
92	0xbe080198	-0.13281858
93	0xbecb182e	-0.39666885
94	0xbbb95972	-0.0056564147
95	0xbeae35ab	-0.3402532
96	0xbbb24194	-0.0054399464
97	0xbdf72b71	-0.12068833
98	0x3e77d7e9	0.24203457
99	0xbd8c544e	-0.06852017
100	0xbdc4c278	-0.096074045
101	0x3e058c35	0.13041766
102	0xbea66ee4	-0.32506478
103	0x3d1b72db	0.03795133
104	0xbeeac98a	-0.45856887
105	0xbf311513	-0.6917278
106	0xbeba49e5	-0.36384502
107	0xbdd03bad	-0.10167632
108	0xbe3848f9	-0.17996587
109	0xbd699b1f	-0.0570327
110	0x3d82e938	0.06392139
111	0xbf148634	-0.5801728
112	0xbdc9ccfc	-0.09853551
113	0xbda079aa	-0.078357056
114	0x3e409171	0.18805481
115	0xbefd0c7b	-0.49423584
116	0x3e2c9b00	0.16856003
117	0x3ddd9cb8	0.10820907
118	0x3dc0925b	0.09402915
119	0xbe0f4e20	-0.13994646
120	0xbea7718a	-0.3270381
121	0xbf163757	-0.5867819
122	0xbb5fdb52	-0.0034157825
123	0x3e7a2cea	0.24431196
124	0xbe44c4bd	-0.19215675
125	0x3da98a93	0.08278384
126	0x3d478fbf	0.04872107
127	0xbe7e3479	-0.24824704
128	0xbc862ce8	-0.016378835
129	0x3ca8912d	0.020577038
130	0x3ecaee54	0.39634955
131	0xbece0210	-0.4023595
132	0x3de15818	0.11003131
133	0xbe172876	-0.14761528
134	0xbdb2ae5a	-0.08724661
135	0x3ddb2e48	0.10702187
136	0xbe0e683c	-0.1390695
137	0x3e634ff8	0.22198474
138	0xbe3424cb	-0.1759216
139	0x3c88ac3a	0.016683687
140	0xbe8b9852	-0.2726465
141	0x3c82821a	0.015931178
142	0x3e1b5e3f	0.15172671
143	0x3e800146	0.25000972
144	0xbc13cbb2	-0.009020733
145	0xbe1f8068	-0.15576327
146	0xbe240bed	-0.16020174
147	0xbecbd935	-0.39814153
148	0x3dac89b6	0.08424704
149	0xbbcf7912	-0.0063315714
150	0xbe47ad87	-0.19499789
151	0x3c9164b8	0.017748222
152	0xbeba67ba	-0.36407262
153	0xbe9fee7d	-0.3123664
154	0xbe73241c	-0.23744243
155	0xbebaa414	-0.36453307
156	0xbe478e95	-0.19487984
157	0xbec90425	-0.39260975
158	0xbeb45423	-0.3522044
159	0xbc30b539	-0.010785394
160	0xbe7fbef9	-0.24975194
161	0xbe8345e5	-0.25639263
162	0x3e21e57f	0.15810202
163	0xbe8c0b5e	-0.27352422
164	0x3dfd7142	0.12375118
165	0xbea398c3	-0.31952485
166	0x3de0d618	0.10978335
167	0xbec05339	-0.37563494
168	0x3e5e4896	0.21707377
169	0xbee5e1a5	-0.44898716
170	0xbebe981b	-0.37225422
171	0xbdb02bdc	-0.086021155
172	0x3e82dd57	0.25559494
173	0xbe4dadfb	-0.200859
174	0xbe2bc2b8	-0.16773498
175	0xbea67e5b	-0.32518277
176	0x3da7b57d	0.08188913
177	0xbed1ba5f	-0.40962502
178	0xbee85293	-0.453755
179	0xbec821cb	-0.39088282
180	0xbecd8fc8	-0.4014876
181	0x3e109824	0.14120537
182	0x3e7a6ac5	0.24454792
183	0xbe8b9825	-0.27264515
184	0xbd789109	-0.06068519
185	0xbd89959d	-0.067179896
186	0xbf035553	-0.5130207
187	0xbe49cdf1	-0.19707467
188	0x3e43d947	0.19125853
189	0xbd1d6dc1	-0.038434748
190	0xbebd0d98	-0.36924434
191	0xbf03456f	-0.5127782
192	0xbd86982d	-0.06571994
193	0x3ec7a4b5	0.3899285
194	0xbcfad0be	-0.030617114
195	0xbe303e95	-0.17211373
196	0x3ea8c112	0.329598
197	0xbd315378	-0.043292493
198	0xbd900b58	-0.07033414
199	0xbd97e47f	-0.07416629
200	0xbeb60aa2	-0.35554987
201	0xbe9284c8	-0.2861693
202	0x3cb6aef7	0.022300227
203	0xbe1739cb	-0.1476814
204	0x3d16bcd6	0.03680118
205	0xbd99fdd9	-0.07519121
206	0x3ea1105e	0.314578
207	0x3e1c4683	0.15261273
208	0xbf032794	-0.51232266
209	0xbe1789ed	-0.14798708
210	0x3de81cde	0.11333631
211	0x3da8b3a3	0.08237388
212	0xbed41fcb	-0.41430506
213	0xbe47bfa6	-0.19506702
214	0x3e60424d	0.21900292
215	0xbe59db98	-0.21275175
216	0x3d412279	0.047152016
217	0xbd18af5a	-0.037276603
218	0xbeab358b	-0.33439288
219	0xbe5442ce	-0.20728609
220	0xbe0082a6	-0.12549838
221	0xbe73f707	-0.23824702
222	0xbe1ea3bc	-0.15492147
223	0xbe07a669	-0.13247074
224	0xbd94dd6b	-0.072687946
225	0xbea15011	-0.31506398
226	0x3e0a1e53	0.1348813
227	0x3db79d6f	0.08965575
228	0xbd8a7b2b	-0.06761774
229	0xbe871d0d	-0.2638935
230	0xbdbeda1b	-0.09318944
231	0xbe908153	-0.28223667
232	0xbd559494	-0.05214365
233	0xbe564b42	-0.20927146
234	0xbf00e875	-0.503547
235	0x3dd8419e	0.105593905
236	0x3c820731	0.01587257
237	0xbe4515f2	-0.19246653
238	0xbd8d9b59	-0.06914396
239	0xbd65f3b3	-0.056140613
240	0xbe339160	-0.17535925
241	0x3e8a3226	0.26991385
242	0x3ddd251c	0.10798094
243	0xbdeae439	-0.11469311
244	0xbee58709	-0.44829586
245	0xbe0299ae	-0.12753937
246	0xbe3bd2d9	-0.18342151
247	0xbd032621	-0.032018784
248	0xbe0e7f24	-0.13915688
249	0x3df59f78	0.11993307
250	0x3e8278f4	0.25482905
251	0xbd7f8c07	-0.0623894
252	0x3ef1699b	0.47150883
253	0x3db84142	0.08996822
254	0xbd4031bb	-0.046922427
255	0x3e2b49e2	0.16727403

layers.1.apply_mod.linear.bias f4 [256]
0	0xbdb5c346	-0.08875136
1	0xbdfac127	-0.12243872
2	0xbe172638	-0.14760673
3	0xbece3f8c	-0.40282857
4	0xbebf2df9	-0.37339762
5	0xbe1430bb	-0.14471714
6	0xbf011b7e	-0.50432575
7	0x3e1359df	0.14389752
8	0x3c856187	0.016281856
9	0xbe12f690	-0.14351869
10	0xbdaf4f7c	-0.08560082
11	0xbe806000	-0.25073242
12	0xbe95fc49	-0.2929404
13	0xbe8dd247	-0.2769949
14	0xbdcca659	-0.09992666
15	0xbc91c563	-0.017794317
16	0x3c81427e	0.015778776
17	0xbe538b23	-0.20658545
18	0xbdb6d75c	-0.08927795
19	0xbe7f2320	-0.24915743
20	0xbe40d1a1	-0.18829967
21	0xbe44cdb0	-0.19219089
22	0xbe7d6b2c	-0.24747914
23	0xbe600873	-0.21878223
24	0xbd8b5031	-0.06802405
25	0xbe3c2092	-0.183718
26	0xbdb7400f	-0.08947765
27	0xbed5e003	-0.4177247
28	0xbe55d555	-0.20882161
29	0xbe803beb	-0.25045714
30	0xbda8f5eb	-0.0825003
31	0xbe9294eb	-0.2862924
32	0xbe12bdab	-0.14330165
33	0x3dee4af3	0.11635389
34	0x3e30b558	0.17256677
35	0xbee0d533	-0.43912658
36	0xbcdbf6ac	-0.02685102
37	0xbf1b69f2	-0.60708535
38	0xbc0e386e	-0.008680446
39	0xbe6374fc	-0.22212595
40	0xbdf6d3b1	-0.12052096
41	0xbdee412e	-0.11633526
42	0x3d3bc275	0.045839746
43	0xbdfbb087	-0.12289529
44	0xbe1508a2	-0.14554074
45	0xbd21f3b2	-0.039539047
46	0xbe71e850	-0.23623776
47	0x3e13c468	0.14430392
48	0xbe08b860	-0.13351583
49	0x3e9b6efd	0.30358115
50	0xbf1c88f7	-0.6114649
51	0xbe9f3057	-0.31091568
52	0xbe0a27c8	-0.13491738
53	0xbe532ede	-0.20623347
54	0xbeb51a54	-0.3537165
55	0xbe55dc09	-0.20884718
56	0xbdf8d65c	-0.12150261
57	0xbd8462f3	-0.064641856
58	0xbe8f9f43	-0.28051195
59	0xbd94f6d4	-0.07273641
60	0x3e1ca376	0.1529673
61	0xbe8bf00c	-0.2733158
62	0xbe460256	-0.19336829
63	0xbed49a84	-0.41524136
64	0xbeb82923	-0.35968885
65	0xbece6c8e	-0.40317196
66	0xbe1578da	-0.14596882
67	0xbd77ee53	-0.060530018
68	0x3bf83114	0.00757421
69	0xbc478fe9	-0.012180307
70	0x3cdf8b7d	0.027288193
71	0xbe948a71	-0.29011872
72	0xbebe0395	-0.37112108
73	0xbe8c977f	-0.27459332
74	0x3de33aed	0.110952236
75	0xbed8e79e	-0.4236421
76	0xbef8a8ec	-0.48566377
77	0xbd3d123f	-0.04615998
78	0xbe25374f	-0.1613438
79	0xbd9c55d8	-0.07633561
80	0xbea75c63	-0.32687673
81	0xbebbcf6f	-0.36681697
82	0x3e30b94d	0.17258187
83	0xbe826d56	-0.25474042
84	0xbd073cca	-0.033016957
85	0xbcaa20ca	-0.020767588
86	0xbecf6586	-0.40507144
87	0xbd23ab38	-0.03995821
88	0xbe039a8e	-0.12851927
89	0xbc9dd23b	-0.019265285
90	0x3e64d967	0.22348557
91	0xbdee84aa	-0.116463974
92	0xbeba5dbd	-0.36399642
93	0xbc01c8d5	-0.007921417
94	0xbdcfa686	-0.10139184
95	0xbf068160	-0.5254116
96	0xbe1a15ca	-0.15047374
97	0xbe683487	-0.22676288
98	0xbeb3cf89	-0.35119274
99	0xbe5ded9e	-0.21672675
100	0xbdf590a6	-0.1199048
101	0xbe34f564	-0.17671734
102	0xbe57b61a	-0.2106556
103	0xbeacffc4	-0.33788884
104	0xbead72dc	-0.33876693
105	0xbd8a7c31	-0.06761969
106	0xbe495465	-0.196611
107	0xbe985e13	-0.29759273
108	0xbe2bc9c2	-0.16776183
109	0xbe982a6b	-0.29719862
110	0xbe9030e5	-0.28162304
111	0xbc897e8c	-0.016783975
112	0xbe706720	-0.23476839
113	0x3da00d2c	0.07815012
114	0xbe8698b9	-0.26288393
115	0xbf110e0f	-0.56662077
116	0xbe499f26	-0.19689617
117	0x3db1738d	0.08664618
118	0x3ec3707f	0.38171765
119	0x3e052aa8	0.13004553
120	0x3b3ec9e9	0.0029112047
121	0xbd994d68	-0.07485467
122	0x3cc5cab7	0.024144514
123	0xbdfdd1ef	-0.12393557
124	0xbe2f4bea	-0.17118803
125	0xbdfce47f	-0.1234827
126	0xbe6cd85a	-0.23129407
127	0xbea0c7ca	-0.31402427
128	0x3e7635b8	0.2404393
129	0xbe05570d	-0.13021488
130	0x3d3cf773	0.046134423
131	0xbd58267f	-0.052771088
132	0x3b82c4b4	0.003990734
133	0xbed30f82	-0.4122277
134	0xbecd2c8c	-0.4007305
135	0x3de2fccf	0.11083376
136	0xbdf96d3a	-0.121790364
137	0xbd5afdb0	-0.05346459
138	0xbe3e8bd8	-0.18608034
139	0xbe324fc2	-0.17413238
140	0xbec97c3f	-0.39352605
141	0xbe8c7ac4	-0.27437413
142	0xbe552ee2	-0.20818666
143	0xbe0a6d6c	-0.13518304
144	0xbe79953b	-0.24373333
145	0xbe1c9694	-0.15291816
146	0xbe31bec3	-0.17357926
147	0xbeee6c50	-0.4656701
148	0xbe3b2dad	-0.18279143
149	0x3d56e0c6	0.052460454
150	0x3daea178	0.085268915
151	0xbde63c3b	-0.11241957
152	0xbec4d617	-0.38444588
153	0xbed14867	-0.4087555
154	0x3e664cc1	0.22490217
155	0xbec2d043	-0.38049516
156	0xbe70af2c	-0.23504323
157	0xbd9fd53e	-0.078043446
158	0xbe3a458b	-0.18190591
159	0xbe61ba8d	-0.2204382
160	0x3e1d5cc7	0.15367423
161	0xbe97ba40	-0.29634285
162	0xbdfd242f	-0.12360417
163	0xba5d6cba	-0.00084466825
164	0xbdc5d8f4	-0.09660521
165	0x3dd5a789	0.104323454
166	0xbe91e935	-0.28498235
167	0xbd4112c0	-0.047137022
168	0xbe685c3c	-0.22691435
169	0xbdeb5260	-0.11490321
170	0xbcac01de	-0.020996984
171	0xbdb708cb	-0.08937224
172	0xbea2e01e	-0.31811613
173	0xbe8f6434	-0.28006136
174	0x3d4431be	0.047899
175	0x3c9f1bec	0.019422494
176	0xbdf8e3ce	-0.12152825
177	0x3d9a1671	0.075238116
178	0x3e6165a6	0.22011432
179	0xbe632b64	-0.22184521
180	0xbebcc63a	-0.36869985
181	0xbdc96ed8	-0.09835595
182	0xbe724338	-0.23658454
183	0xbdb4e824	-0.0883334
184	0xbe083606	-0.13301858
185	0xbed8bb64	-0.42330468
186	0x3d6f7751	0.0584634
187	0x3ede0978	0.433666
188	0xbbefbb1d	-0.007316007
189	0xbee09cd9	-0.43869665
190	0x3dc97a65	0.09837798
191	0x3e87033b	0.26369652
192	0x3b9581b0	0.004562579
193	0xbe673d93	-0.22582082
194	0xbebdab77	-0.3704488
195	0xbeabf94a	-0.3358863
196	0xbe3d9a4c	-0.18515891
197	0x3d0929c3	0.033487093
198	0xbe7deadd	-0.24796624
199	0xbafea0e0	-0.0019426607
200	0xbd866020	-0.06561303
201	0xbdd2422d	-0.10266528
202	0xbed8cb58	-0.4234264
203	0xbd8503cf	-0.06494867
204	0xbe1e7bc8	-0.15476906
205	0xbe96d659	-0.2946041
206	0xbdc837d4	-0.09776273
207	0x3df87ef1	0.12133587
208	0xbe976df8	-0.29576087
209	0xbe0a6b8a	-0.13517585
210	0xbe84d670	-0.25944853
211	0xbe689924	-0.22714669
212	0xbecf6cb2	-0.40512615
213	0xbe1418ce	-0.14462587
214	0xbdb910d2	-0.09036411
215	0xbe2c7300	-0.16840744
216	0xbcc41c8d	-0.023939395
217	0xbe0a2eaa	-0.13494363
218	0x3da0e61a	0.078563884
219	0xbf11fb04	-0.57023644
220	0xbe020cfb	-0.12700264
221	0xbcd5ffc0	-0.026122928
222	0x3d95bccf	0.07311403
223	0xbe0802bf	-0.13282298
224	0xbe7c4823	-0.24636893
225	0xbe77b636	-0.24190602
226	0xbe93601a	-0.28784257
227	0x3d2d30e6	0.04228296
228	0xbd977057	-0.07394474
229	0x3de4db5f	0.11174654
230	0xbdb28f81	-0.087187774
231	0xbcd26bb4	-0.025686122
232	0xbebec23d	-0.37257567
233	0x3dd9ae48	0.10628945
234	0xbe936de9	-0.28794792
235	0xbeb61a3c	-0.3556689
236	0xbe554a08	-0.20829022
237	0xbe4c8cf3	-0.19975643
238	0xbd971156	-0.073763534
239	0xbcaa65a2	-0.020800415
240	0xbefff397	-0.49990532
241	0xbe774bf5	-0.24150069
242	0xbe631837	-0.22177206
243	0xbe609dee	-0.21935245
244	0xbbd1e32a	-0.006405254
245	0xbeb02ce6	-0.34409255
246	0xbd34e58a	-0.044164218
247	0xbdf2b3c5	-0.118506946
248	0x3e95f3d4	0.2928759
249	0xbda5d635	-0.080974974
250	0x3db601b9	0.08887047
251	0xbe9922b5	-0.29909292
252	0xbe84d32e	-0.25942367
253	0xbea09411	-0.31362966
254	0xbdbf6dc7	-0.0934711
255	0xbe986174	-0.2976185

classify.weight f4 [312, 256]
0	0xbd313fd3	-0.04327376
1	0xbf2fe1c7	-0.68703884
2	0xbf0f283a	-0.55920756
3	0xbd9b8532	-0.07593764
4	0xbeaaa6d5	-0.33330408
5	0x3e232f93	0.15936117
6	0x3cac47fe	0.021030422
7	0xbd954af8	-0.0728969
8	0x3db3cf29	0.08779747
9	0x3ed23b9a	0.41061097
10	0x3eb08419	0.34475783
11	0xbeab4ba5	-0.3345615
12	0xbeb445ce	-0.35209507
13	0xbf0d6dce	-0.55245674
14	0xbe7c0663	-0.24611811
15	0x3e88715d	0.2664899
16	0xbed87f3e	-0.42284578
17	0xbeedde88	-0.4645884
18	0x3dde94c4	0.108682185
19	0xbee1fdcf	-0.44138953
20	0xbe2c3d20	-0.16820192
21	0xbe2feb86	-0.17179689
22	0xbd78a48a	-0.06070379
23	0xbd544dca	-0.051831998
24	0xbf20e88a	-0.62854826
25	0xbc0ff708	-0.008786924
26	0x3c1b61d2	0.009483771
27	0xbd734e82	-0.059401043
28	0xbe128a6f	-0.1431062
29	0xbe817162	-0.25281817
30	0xbdd69a8c	-0.10478696
31	0x3d6d66a1	0.057959203
32	0xbf5a5368	-0.8528352
33	0xbeda8bf4	-0.426849
34	0x3c18a188	0.009315856
35	0xbeaae462	-0.33377367
36	0xbf2f08a6	-0.6837257
37	0xbdd3a7f9	-0.103347726
38	0x3d09ad24	0.033612385
39	0xbe483e97	-0.19555126
40	0xbf0d8010	-0.5527353
41	0xbeabcde7	-0.3355553
42	0xbe9d281b	-0.3069466
43	0xbebe45e4	-0.37162697
44	0x3dd44362	0.10364415
45	0xbf0b0e4f	-0.5431871
46	0xbc197b0c	-0.009367716
47	0x3e19744f	0.14985774
48	0x3c939f36	0.018020254
49	0xbf547858	-0.8299613
50	0xbef2371e	-0.47307676
51	0xbeb1418f	-0.3462033
52	0xbe800c17	-0.25009224
53	0xbf4352cc	-0.76298213
54	0xbea84bf7	-0.32870457
55	0xbeb63f9f	-0.35595414
56	0xbe9d891e	-0.30768675
57	0xbf2e1047	-0.6799359
58	0xbecdefd9	-0.40222052
59	0x3daff60a	0.0859185
60	0x3c1702b5	0.009216954
61	0xbec62d3b	-0.38706383
62	0x3daae39a	0.08344193
63	0xbe832ec5	-0.2562162
64	0x3e412687	0.18862353
65	0xbebef918	-0.37299418
66	0xbee6b65f	-0.45061013
67	0xbecc10c2	-0.39856535
68	0xbefe2aa8	-0.4964192
69	0xbf0e1e7c	-0.55515265
70	0xbe863ac6	-0.26216716
71	0xbecc1586	-0.3986017
72	0xbee1cb8e	-0.44100612
73	0x3c4be5d1	0.012444929
74	0xbee49746	-0.44646662
75	0x3cc9e849	0.024646895
76	0x3e539869	0.20663609
77	0xbe973716	-0.29534215
78	0x3ddc0546	0.10743193
79	0xbe3f6201	-0.1868973
80	0xbe89c24b	-0.26906046
81	0xbf2371d3	-0.63845557
82	0xbf96c575	-1.1779009
83	0xbed68a8a	-0.41902572
84	0xbf2bf3e6	-0.67169034
85	0xbeb69c5e	-0.35666174
86	0xbebbc685	-0.36674896
87	0xbe31650f	-0.17323707
88	0xbeaad0ed	-0.33362523
89	0xbe57c1ed	-0.2107007
90	0xbf87b1e2	-1.060116
91	0xbeedf2d4	-0.46474326
92	0xbf159b9b	-0.5844056
93	0xbf331f24	-0.6996939
94	0xbe2ba6a1	-0.16762783
95	0xbf82f2b4	-1.0230317
96	0xbf1888a5	-0.59583503
97	0xbee0b19d	-0.43885508
98	0xbc795f7f	-0.015220522
99	0xbeb97ee2	-0.36229616
100	0xbf1a62f9	-0.6030727
101	0x3e00d78f	0.12582229
102	0xbf5c7145	-0.86110336
103	0x3e7ff058	0.24994028
104	0xbdf59387	-0.11991029
105	0xbea12ce9	-0.31479576
106	0xbecd25af	-0.40067813
107	0xbe054b26	-0.13016948
108	0xbee296f6	-0.442558
109	0xbe998983	-0.29987726
110	0xbafea015	-0.001942637
111	0x3c79d7c1	0.015249194
112	0xbeb01cf2	-0.34397084
113	0x3d0b950c	0.03407769
114	0xbf33ee8e	-0.7028588
115	0xbf00220a	-0.5005194
116	0xbf2b65a6	-0.6695198
117	0xbf196fa6	-0.59935987
118	0xbec534fe	-0.38516992
119	0xbc61b0b8	-0.013775043
120	0x3e3f425a	0.18677655
121	0xbe9eb967	-0.31000826
122	0xbf10a7d0	-0.5650606
123	0xbe5876d9	-0.21139087
124	0xbf0c30ab	-0.5476176
125	0xbe8292b0	-0.2550254
126	0xbefd395a	-0.49457818
127	0xbd138c93	-0.036022734
128	0xbf2a48bf	-0.6651725
129	0xbe920c37	-0.28524944
130	0xbef4203d	-0.47680846
131	0xbef5bd82	-0.47996145
132	0xbef6f94f	-0.48237082
133	0xbf6f8572	-0.93562996
134	0xbd9dc6bf	-0.077039234
135	0xbf55ba24	-0.83487153
136	0xbf746b67	-0.9547638
137	0xbe84a094	-0.2590376
138	0xbe530a48	-0.2060939
139	0xbf019338	-0.50615263
140	0xbee8d69e	-0.4547624
141	0xbf342f08	-0.70384264
142	0xbf101f30	-0.5629759
143	0xbec6a9cc	-0.3880142
144	0x3c5477ff	0.012968062
145	0xbf1f1aa8	-0.6215005
146	0xbdc2b540	-0.09507227
147	0x3ebc71f0	0.36805677
148	0xbeeff647	-0.46867582
149	0x3ea0e714	0.314263
150	0xbc52cebe	-0.012866674
151	0xbef1144e	-0.47085804
152	0xbc8b8cc8	-0.017034903
153	0xbf1250db	-0.57154626
154	0xbe4b8825	-0.19876154
155	0x3d463320	0.0483886
156	0xbf35b3c9	-0.70977455
157	0xbe22bebe	-0.15893075
158	0xbf2e2abe	-0.6803397
159	0xbedcf6a2	-0.43156916
160	0xbf217830	-0.63074017
161	0xbf0c7479	-0.54865223
162	0xbf02fa21	-0.51162916
163	0xbf0838b6	-0.53211534
164	0xbd90fec0	-0.0707984
165	0xbec537b8	-0.38519073
166	0xbe9be1a2	-0.30445582
167	0xbec457f0	-0.3834834
168	0xbf4d57b3	-0.80211943
169	0xbe9e7ce6	-0.30954665
170	0xbe1038e4	-0.14084202
171	0xbeaad5fe	-0.33366388
172	0xbe6136e9	-0.21993603
173	0xbee8bf54	-0.45458472
174	0xbf278ea9	-0.6545206
175	0xbf308b27	-0.6896233
176	0xbf129b09	-0.57267815
177	0xbf5f5165	-0.87233573
178	0xbde38511	-0.11109365
179	0x3e5ef9e3	0.21775012
180	0xbf153fd3	-0.58300513
181	0xbdf99bf0	-0.12187946
182	0xbf1c521c	-0.6106279
183	0x3d30ecc5	0.04319455
184	0xbe5d333f	-0.2160158
185	0xbeec302d	-0.46130505
186	0xbf143493	-0.5789272
187	0xbe7247a6	-0.23660144
188	0x3e33741c	0.17524761
189	0x3e4254e7	0.189777
190	0xbea38cba	-0.31943303
191	0xbdbc4e71	-0.09194649
192	0xbf0ce7f5	-0.5504144
193	0xbe65dd95	-0.22447808
194	0xbe2b6ed8	-0.16741502
195	0x3dc18709	0.09449584
196	0x3d6983e1	0.057010535
197	0xbd774fbd	-0.06037878
198	0xbe840f41	-0.25792888
199	0xbe5c0a6d	-0.21488352
200	0xbf3c25c4	-0.73495126
201	0x3df8f887	0.12156778
202	0xbe0818a0	-0.13290644
203	0xbf1a3642	-0.6023904
204	0x3dddcea7	0.108304314
205	0xbe6b69ab	-0.22989528
206	0xbee39cc4	-0.4445554
207	0xbf4cb7fb	-0.7996823
208	0xbeb2264b	-0.3479484
209	0x3e3e7998	0.18601072
210	0xbef91de6	-0.48655623
211	0x3dd8137e	0.10550593
212	0x3e274374	0.16334325
213	0x3e1c52be	0.15265939
214	0xbe77847f	-0.24171637
215	0x3e59407d	0.21216007
216	0xbf980dbe	-1.1879194
217	0xbcc91632	-0.024546716
218	0xbe80e1c6	-0.2517225
219	0xbdb15214	-0.08658233
220	0xbeee7c13	-0.46579036
221	0xbefca8a0	-0.493474
222	0xbf04111c	-0.51588607
223	0xbec91e1b	-0.3928078
224	0xbeb0e438	-0.34549117
225	0xbe8b101b	-0.27160725
226	0xbeb32e02	-0.3499604
227	0xbf0e315f	-0.55544084
228	0xbf063cde	-0.52436626
229	0xbf01f484	-0.50763726
230	0x3e630af8	0.22172153
231	0xbd84111d	-0.064485766
232	0xbdda48a6	-0.10658388
233	0xbee68f4f	-0.4503121
234	0x3d50e1ab	0.050996464
235	0xbf2d61b0	-0.67727184
236	0xbd2d374d	-0.042289067
237	0xbed37733	-0.4130188
238	0xbf5216cc	-0.82066035
239	0xbe9dc1e4	-0.3081199
240	0xbd93eede	-0.07223295
241	0xbe1e07a4	-0.15432602
242	0xbe9974ca	-0.29971915
243	0xbf05490f	-0.52064604
244	0xbed7353c	-0.42032802
245	0xbf0090c4	-0.50220895
246	0xbf06c289	-0.5264059
247	0x3e9c17c8	0.30486894
248	0xbf435b79	-0.7631145
249	0x3e1c19de	0.15244243
250	0xbe83c4de	-0.25736135
251	0x3dfffdbb	0.12499567
252	0xbdd5c892	-0.104386464
253	0x3d7246db	0.059149604
254	0xbec2e740	-0.38067055
255	0xbf24575f	-0.6419582

classify.bias f4 [312]
0	0x3dd09046	0.10183768
1	0x3bc6e282	0.0060694823
2	0xbe41c819	-0.18923987
3	0xbdca52e1	-0.09879089
4	0x3e1a89f3	0.15091686
5	0x3d9e2db9	0.07723565
6	0xbe03b096	-0.12860331
7	0xbee64f7f	-0.44982526
8	0xbefdbf82	-0.4956017
9	0xbeca364a	-0.39494544
10	0xbecd32c2	-0.40077788
11	0xbf3d2a35	-0.7389253
12	0xbdb7b0d8	-0.08969277
13	0x3aea8e07	0.0017895111
14	0xbed02b62	-0.40658098
15	0xbf00a355	-0.50249225
16	0xbedfa9a5	-0.43684116
17	0x3d4fcac0	0.050730467
18	0xbe3533ad	-0.17695494
19	0xbf212283	-0.62943286
20	0xbee0882d	-0.43853894
21	0xbed49ef6	-0.41527528
22	0xbeff3dd5	-0.49851862
23	0xbda57028	-0.08078033
24	0xbdb05dfd	-0.08611677
25	0xbef1648e	-0.4714703
26	0xbef8e692	-0.4861341
27	0xbf2f2d11	-0.6842814
28	0xbedb399e	-0.42817396
29	0xbe0931cd	-0.13397904
30	0xbe23b302	-0.15986255
31	0xbeeb6a77	-0.45979664
32	0xbeec9f99	-0.46215513
33	0xbda274e9	-0.07932455
34	0x3e167252	0.14692047
35	0xbd93f6c4	-0.07224801
36	0xbe601990	-0.21884751
37	0xbed88883	-0.4229165
38	0xbecfcbde	-0.40585226
39	0xbf1625f4	-0.5865166
40	0xbecee88b	-0.4041179
41	0xbedec9b1	-0.43513253
42	0xbe52ddfc	-0.20592493
43	0xbf020318	-0.5078597
44	0xbef9d7dc	-0.487975
45	0xbedd59c8	-0.4323256
46	0xbf06ea8c	-0.5270164
47	0x3e76587c	0.24057192
48	0xbd377cc1	-0.04479671
49	0x3c99d65e	0.018778976
50	0x3c3a09ef	0.011354907
51	0xbd867e17	-0.065670185
52	0xbf64c236	-0.8935884
53	0xbd0fd55e	-0.035115592
54	0x3cdf5bea	0.027265508
55	0xbd92d72f	-0.07169949
56	0x3d91c861	0.07118297
57	0xbe1a28fa	-0.15054694
58	0xbcd93c31	-0.02651796
59	0xbe67c647	-0.2263423
60	0xbe11a282	-0.14222148
61	0xbefa41d3	-0.48878345
62	0xbf1e9de2	-0.6195966
63	0xbf392098	-0.7231536
64	0xbf28a91c	-0.6588304
65	0xbc86c6b5	-0.016452173
66	0xb9f7068b	-0.00047116386
67	0x3dcc2f08	0.09969908
68	0x3e2b1d77	0.16710459
69	0xbe1d65b8	-0.15370834
70	0x3d6a2416	0.05716332
71	0x3d077b92	0.03307683
72	0xbdf50cfd	-0.11965368
73	0x3d8d3000	0.06893921
74	0xbf077a9f	-0.5292148
75	0xbefe4797	-0.49663994
76	0xbed63bdc	-0.41842544
77	0x3d503602	0.050832756
78	0x3d3d16b1	0.04616422
79	0xbeca03a6	-0.3945591
80	0x3cd323cb	0.025773903
81	0xbf38e0d3	-0.72218055
82	0xbefdc0e0	-0.49561214
83	0xbf12625c	-0.57181334
84	0xbec96c0b	-0.39340243
85	0xbda3c180	-0.079958916
86	0xbd2ee592	-0.042699404
87	0x3e24f1af	0.1610782
88	0xbc764d08	-0.015033014
89	0xbed75495	-0.42056718
90	0x3c66069d	0.014039663
91	0x3df9d648	0.12199074
92	0x3da12bc6	0.07869677
93	0x3c8eb5b6	0.01742063
94	0xbef0b5d9	-0.4701374
95	0xbf31b094	-0.6941006
96	0xbed20561	-0.4101973
97	0xbee831f7	-0.4535062
98	0xbed0b760	-0.40764904
99	0x3d4b2bda	0.049602367
100	0xbec2aea5	-0.38023868
101	0xbedf615b	-0.43628964
102	0xbecbdfc2	-0.3981915
103	0xbee604b4	-0.44925463
104	0xbeeeea3b	-0.4666308
105	0xbf01e300	-0.50737
106	0xbf1426c0	-0.5787163
107	0xbeddd98b	-0.43330035
108	0xbf1843ec	-0.5947864
109	0xbf3aa591	-0.72908884
110	0x3d45e6b8	0.048315734
111	0xbe070fb5	-0.13189586
112	0xbee73385	-0.45156494
113	0xbf0895f5	-0.53353816
114	0xbf0d2443	-0.55133456
115	0xbef857e2	-0.4850455
116	0xbef53f13	-0.47899684
117	0x3dd60edd	0.10452054
118	0xbec8817c	-0.3916129
119	0x3e084751	0.13308455
120	0x3c8c0f9a	0.017097283
121	0xbf3857fc	-0.72009254
122	0xbef73b31	-0.48287347
123	0xbef3ceea	-0.476188
124	0xbf01e877	-0.5074534
125	0xbecc946f	-0.39956996
126	0xbf0237f3	-0.5086662
127	0xbf268f62	-0.65062535
128	0xbedebac7	-0.43501875
129	0xbef72784	-0.48272336
130	0xbf34ff6f	-0.7070226
131	0xbe96e6df	-0.29473016
132	0xbd878ae6	-0.0661829
133	0xbd8d4dd0	-0.06899607
134	0xbdb8fcdc	-0.09032604
135	0x3dddc3a8	0.10828334
136	0xbf152a6a	-0.58267844
137	0xbed318c2	-0.41229826
138	0xbec73694	-0.38908827
139	0xbf08ce27	-0.53439564
140	0x3d783324	0.060595647
141	0xbd21645c	-0.03940235
142	0xbed79de4	-0.42112648
143	0x3dcbbcf4	0.09948149
144	0xbeff33cb	-0.49844202
145	0xbf061188	-0.523705
146	0x3e3efb16	0.18650469
147	0xbd27ec48	-0.04099682
148	0xbedd35bd	-0.43205062
149	0xbefb6807	-0.49102804
150	0xbed64f14	-0.41857207
151	0xbee16697	-0.44023582
152	0xbf39850f	-0.72468656
153	0xbed98b63	-0.42489156
154	0xbecb34c9	-0.3968871
155	0xbf1e3f58	-0.61815405
156	0xbd477c7d	-0.048702706
157	0xbddffb15	-0.10936562
158	0xbe220cb2	-0.15825155
159	0x3c59ff36	0.013305476
160	0xbe004219	-0.12525214
161	0xbf02c52f	-0.5108213
162	0xbef43cd5	-0.4770266
163	0xbeec330c	-0.46132696
164	0xbec22e19	-0.37925795
165	0xbe37ef23	-0.17962317
166	0x3d268bcb	0.04066066
167	0xbe4bcc64	-0.19902188
168	0x3d8523ec	0.06500992
169	0x3b0f2bd0	0.0021846183
170	0x3d6e27f2	0.058143564
171	0x3d950d05	0.07277874
172	0xbef99b6d	-0.48751393
173	0xbee7cd6a	-0.45273906
174	0xbf0299e8	-0.5101609
175	0xbf0885d6	-0.5332922
176	0xbef87edb	-0.48534283
177	0xbee18731	-0.44048455
178	0xbf06b8fb	-0.5262601
179	0xbbfea25a	-0.0077708187
180	0xbc09ac83	-0.008402946
181	0xbe0abd78	-0.13548839
182	0x3e3bc697	0.18337475
183	0x3d3e017c	0.046388134
184	0xbef9f5e6	-0.48820418
185	0xbecd42b9	-0.40089968
186	0xbee0d9e8	-0.4391625
187	0xbf2fd9a2	-0.68691456
188	0xbdc75979	-0.097338624
189	0x3e250bf9	0.16117848
190	0xbec0d655	-0.37663522
191	0xbf1365f2	-0.5757743
192	0xbf2da605	-0.6783145
193	0xbf0123c0	-0.50445175
194	0xbe88ede9	-0.2674401
195	0xbee75f0a	-0.45189697
196	0xbeec892a	-0.46198398
197	0xbf0261f1	-0.50930697
198	0xbf2cc58d	-0.6748894
199	0xbef5b4df	-0.47989556
200	0xbf1679c3	-0.58779544
201	0xbf2dcc4c	-0.6788986
202	0xbf375ab4	-0.71622777
203	0xbee301a2	-0.44337183
204	0x3d8f60c0	0.070008755
205	0xbd6cd633	-0.057821464
206	0xbe3351eb	-0.17511718
207	0xbeb9f85b	-0.36322293
208	0xbf1350d1	-0.5754519
209	0xbd7b51bb	-0.06135724
210	0xbc4e7686	-0.0126015
211	0xbe555f46	-0.20837125
212	0x3cfd2ede	0.030906137
213	0xbc96f44b	-0.018427035
214	0xbf4558eb	-0.77088803
215	0xbebae96f	-0.3650622
216	0x3de6076f	0.112318866
217	0xbc9141b8	-0.017731532
218	0xbe2d22f4	-0.16907865
219	0xbda5588a	-0.08073528
220	0xbd4ac634	-0.049505427
221	0x3d044dc2	0.032300718
222	0xbd1fd9a8	-0.039025933
223	0xbeae5a90	-0.3405347
224	0xbd49f71c	-0.049307927
225	0xbda70603	-0.081554435
226	0xbd40f594	-0.0471092
227	0x3d41b5e9	0.047292624
228	0xbea80968	-0.32819676
229	0xbefbd8f9	-0.49188974
230	0xbf0a9c33	-0.5414459
231	0xbedb7353	-0.42861423
232	0xbee447a0	-0.44585896
233	0xbcfd2fda	-0.030906606
234	0xbe1ccd3e	-0.15312669
235	0x3d82f6fa	0.06394763
236	0xbf3ae711	-0.7300883
237	0xbef9d754	-0.48797095
238	0xbee94427	-0.4555981
239	0xbedeaaa6	-0.4348957
240	0x3e32f538	0.17476356
241	0x3e24209c	0.16028064
242	0x3e7ab02e	0.2448127
243	0xbc2bafe4	-0.010478947
244	0xbe0d589c	-0.13803333
245	0x3e315d94	0.17320853
246	0xbe1cebf8	-0.1532439
247	0xbef8f896	-0.48627156
248	0xbf2d2110	-0.67628574
249	0xbefb25ce	-0.4905228
250	0x3dc1ebeb	0.09468826
251	0x3e39c255	0.18140538
252	0xbefba97b	-0.4915274
253	0xbefe3add	-0.49654284
254	0xbf184e8a	-0.5949484
255	0xbefea25a	-0.4973324
