nnql/scripts/data/r9t12/model34_208_e50.pth (torch, 590743 bytes, 6 tensors)

layers.0.apply_mod.linear.weight f4 [256, 108]
00000000: 4cd9 96be b1bb 49be 66d8 473e 73b4 b53c
00000010: d59c fe3b 7a92 3ebe 68d0 7ebe c00f a6be
00000020: 0790 46be ea02 a73d 464f e53c 9fb7 9bbe
00000030: 3939 023e b84e d83d 2bd9 743e 5e7d fa3e
00000040: 2d99 e03e 1f64 ef3c c058 93be 0b17 023e
00000050: 3b8c 37bd cfd0 b7bd de37 c0be 32fa 98be
00000060: 10c5 8fbe 30bf f3be 9ab9 423d a776 abbd
00000070: 1574 8dbe f1a1 473e a85b 9bbe 98c8 2fbd
00000080: e66e 85be 1122 53bd c001 94be e61d 64bd
00000090: 7eda cebe f444 10bd 7615 28be 4881 a23d
000000a0: bbbe 8f3e baec afbd 18e3 a93b 5f5c 82be
000000b0: 1ecf 20bc 91d6 20be ffdc 0c3e 01d3 8d3d
000000c0: ce89 67be 8d5b aebd 1528 6cbe fb83 72be
000000d0: 44b4 a5be 735a 7bbe f15a f9be c125 66bc
000000e0: fba4 a63e c3c8 9d3c f5ad 5cbd 5282 003e
000000f0: 9a87 2ebd a034 15be a156 06bd a992 123e
00000100: abf4 b4be 26da 21be 9041 5f3e 9d45 fdbd
00000110: 29ba 3cbe 12b1 96bd e8d3 54bd c5ce b03d
00000120: 8f81 3f3e 9cd9 933d 93d7 00be d40c b73d
00000130: ca42 d3be a34c a9bc 9ffd c0bd 03a6 b93d
00000140: 4c55 373d 6fa7 243e b6bb 34bd 07c9 b6be
00000150: c840 633c 3454 99bb 28bc fcbd a74c 9bbd
00000160: f52b 0c3d c3dd 26ba 6b79 063d 81fe 673e
00000170: bebe 413e bf20 95bd aa22 c0bb ea60 a53d
00000180: ac6d 51bc d639 09be d221 1c3d 40ae 1ebf
00000190: 33f1 813d 0415 92bd 1b76 c03d f6d4 0e3e
000001a0: 0a05 e1bd 6bee 32bd bdac 5abe ec3f 6cbe
000001b0: 4e8f 17bf 8f78 563e 425a 9b3d 9a9a 5c3e
000001c0: 0841 c6bd 6e1a 1a3e 1c28 563e b6a5 0a3d
000001d0: 8bd3 2ebe 201d 783b 08bc a83b ade6 eabc
000001e0: 1ccb 34be c7fe 463e eb2d 15be 7caf f5bc
000001f0: b055 123e eff0 56bd 2bbb 143e 3184 453e
00000200: c52f 6dbd c76c e8bd 77c1 ad3e c677 57bd
00000210: 4af4 9ebe 72f3 48bd 924b 543d 0ce8 213e
00000220: 7768 883e 9ac9 fd3c 546d d2bd 231e 083f
00000230: 33b1 393e d170 1ebf ed3d 16bf 5eea 02bc
00000240: f7b7 1f3d cb8f dd3c 9d1c cbbd f1fb 913e
00000250: 2d1a 80bd e4ed 4a3e a3dc 36bf b8e6 20bf
00000260: 97d3 b6be 1adb c1be 3efb 863d b365 c83e
00000270: c60c 823d 3592 77be 6a82 9abc eb49 133e
00000280: b634 aebe 5f0f 02bf 3072 093e ecbb 14bb
00000290: cfcb 393e bf0e bd3e c948 883e 9e61 153d
000002a0: 093c 5e3e 044d 323c 8c72 52be e9a2 0dbf
000002b0: 714c 7bbd c256 58be e0dc 513d f02a f73c
000002c0: 1c3c 82be 1998 cebd 31b1 a6be 5ced 97bc
000002d0: bd36 6e3e 9dee 423e 1758 29be 4edb 1d3e
000002e0: ddee 593c 02e9 c9bd a803 f6bd 7a45 77bd
000002f0: 1eab adbd cb2e 3abc ee65 f9bc 289a 343e
00000300: 70a7 f7bd f6fb 113e fc34 97bd 9b6a d2bd
00000310: 0704 8cbd f832 72bd ae18 2cbf 7df8 0bbe
00000320: f04c 513e dec3 233e 0bc5 ebbd 3ddd 5f3e
00000330: aa9e ce3e 6a56 e93d 71cc 713e 0422 5dbf
00000340: 0778 553b c82b 323e aa0b abbe 0b2d 203d
00000350: 48f9 433b a734 25be e0a7 873e 0fcf 5e3e
00000360: cf5f 8cbd 1b83 8e3d d787 893d 7120 083e
00000370: b41d cf3e 7e13 11bf 2314 a9be 2d31 13be
00000380: 0350 80be 68af 25be 7b93 a93d 9cd1 e4bc
00000390: b412 703e a44f 423c 45ce d63d f23d adbe
000003a0: 9d62 87be 8aeb 373c 6864 41be e599 8b3e
000003b0: 9d11 cbbe e61b f7be fd0d 08bc abc5 de3d
000003c0: 08ea 703e 4faa 843d f4cb 94bd f70b 49be
000003d0: 853b 083e 93c8 8e3d 56a4 d83e 3fcf 613e
000003e0: f66a 6ebd 53ed 8d3e 47e9 683d 6f25 b3bb
000003f0: 814c 383d cd7e f53b 1a49 c6be c81a 7cbe
-0.2946266 -0.19700505 0.19516143 0.022180771 0.0077701607 -0.18610564 -0.24884188 -0.3243389
-0.1939088 0.08154853 0.027991902 -0.3041353 0.12717141 0.105618894 0.23910968 0.48923773
0.43866864 0.029222546 -0.28778648 0.12704103 -0.04481147 -0.08975374 -0.37542623 -0.29878384
-0.28080034 -0.47606802 0.047540285 -0.083722405 -0.27627626 0.1949537 -0.30343366 -0.04291591
-0.2606117 -0.05154616 -0.28907585 -0.055692576 -0.4040107 -0.03522201 -0.16414437 0.07934815
0.28075203 -0.08590074 0.0051845424 -0.254611 -0.009815006 -0.1570685 0.13756178 0.069250114
-0.22611162 -0.08513556 -0.23062165 -0.23683159 -0.32364094 -0.24546222 -0.48702195 -0.014047087
0.32547745 0.01926077 -0.053876836 0.12549713 -0.04260979 -0.14570856 -0.03279746 0.14313759
-0.35342917 -0.15805873 0.21802354 -0.12366793 -0.1843039 -0.07357992 -0.051959902 0.08633188
0.18701766 0.0721924 -0.12582235 0.08937994 -0.41261894 -0.020666426 -0.094233744 0.09064867
0.04475908 0.16079496 -0.044124328 -0.35700247 0.0138704255 -0.0046792272 -0.123405755 -0.0758298
0.03422161 -0.00063654425 0.032830637 0.2265568 0.18920419 -0.072816364 -0.0058635073 0.080751255
-0.0127824955 -0.13400969 0.03811819 -0.61984634 0.06344833 -0.07132915 0.09397527 0.13948426
-0.10987289 -0.043684404 -0.21354957 -0.2307126 -0.5920304 0.20944427 0.07585575 0.21543351
-0.096803725 0.15049145 0.20913738 0.03384944 -0.17072885 0.0037859157 0.005149368 -0.028674448
-0.17655605 0.19433127 -0.14568298 -0.029990904 0.142905 -0.052475866 0.14524524 0.19288708
-0.057906885 -0.11348873 0.33936664 -0.05260446 -0.31045753 -0.049060293 0.051829882 0.15811175
0.266422 0.03097992 -0.10274759 0.53170985 0.18134002 -0.61890894 -0.5868824 -0.007990448
0.038993802 0.027046105 -0.09917567 0.2851253 -0.06254993 0.1981731 -0.71430415 -0.6285205
-0.35708305 -0.37862474 0.065908894 0.3914009 0.063500926 -0.24176867 -0.018861014 0.14383666
-0.3402459 -0.50804704 0.13422465 -0.0022695018 0.18144153 0.36925313 0.2661803 0.036470048
0.21702589 0.01088262 -0.20551509 -0.55326706 -0.061352197 -0.21126845 0.051236033 0.030171841
-0.25436485 -0.10087604 -0.3255706 -0.018545799 0.23263068 0.19036336 -0.1653751 0.1541569
0.013301578 -0.09858896 -0.12012416 -0.060368992 -0.08479904 -0.011363695 -0.030444112 0.17636931
-0.12092483 0.14256272 -0.07383153 -0.1027424 -0.06836706 -0.05913064 -0.6722516 -0.1366901
0.20439506 0.15992686 -0.11512192 0.2186174 0.40355426 0.11393435 0.23613144 -0.8638003
0.0032572763 0.17399514 -0.33407336 0.039105456 0.0029903222 -0.16133367 0.26495266 0.21758674
-0.068542115 0.069586 0.067153625 0.13293625 0.4045235 -0.5667037 -0.33023176 -0.14374228
-0.25061044 -0.16180193 0.08280083 -0.02793198 0.23444635 0.011859808 0.104885615 -0.33836323
-0.26442423 0.0112255905 -0.18885958 0.2726585 -0.39661875 -0.48263472 -0.008304116 0.10877546
0.23526776 0.06477796 -0.072654635 -0.1963347 0.13303955 0.0697185 0.42312878 0.22051714
-0.058207475 0.27720127 0.056863096 -0.005467109 0.044994835 0.0074919225 -0.38727647 -0.24619591

layers.0.apply_mod.linear.bias f4 [256]
00000000: 19d3 59be 0633 973d c18a a9bd e742 37be
00000010: d8b3 0dbd d0fd 61be 2664 a7bd 92f8 85be
00000020: 944d cfbd 45cb 18be b4a2 15be 9fdf 09be
00000030: acc8 84bd 037e e1bc f57f 95bd d606 19be
00000040: 6b21 34bd 2bed 03bd 66f9 1bbe 1838 fcbd
00000050: fddb 533c 2233 5cbe 196a 89bd c282 6ebe
00000060: 9710 363d bb99 70be 97f4 3abe 9479 033d
00000070: e6d7 83bd deed 88be caa9 70be 82f4 5dbe
00000080: 7ceb 66bd 3b15 3abe 45d7 6abe 67a2 39be
00000090: ddd8 8cbe 57f5 14be c37f 42be 92a5 2bbe
000000a0: 6e18 1dbe b562 58be 1104 28be 65f3 5fbe
000000b0: 3e7b a4bd 21eb e2bd 0af3 193d 5b3c 05be
000000c0: 87b2 9fbe b7b8 15bd 73ac 29be 5306 10be
000000d0: 2c2f 37bd 1f46 2abd 1f2f 87bd 23fd 113c
000000e0: ad54 3ebe 9b40 0cbe 1948 103c a523 c7bc
000000f0: 9c08 f5bb 6de5 a7bd 5ffd f8bd e137 babd
00000100: 7688 133d d809 bfbd c8ec 44be 9301 21be
00000110: b5df 043e 8019 bbbc 2d25 61be 6d05 bd3d
00000120: ef8a d0bd ba33 1dbd 60bb c6bd c942 91bb
00000130: cc59 3ebe f225 df3c b83a 81bd 11d2 2f3e
00000140: acba a8bd d21f 2ebd 99c3 1ebe e24e 0cba
00000150: afe3 44bd 6073 77be 6f95 3ebe 5e54 28bd
00000160: 148d c6bd a671 0cbe 1be1 cdbd 7963 b1bd
00000170: 05ec 45be 0c99 8cbe 65d1 f1bc 72e9 25be
00000180: 894b 63be 1274 12be a2f9 3cbe c897 e83a
00000190: c3bb 6dbe b978 7fbe 6bcf 85be 117b fcbd
000001a0: 0a35 00bd 65e9 88be 834d 8abe 202d 64be
000001b0: b9e9 21be cd00 ffbd 9ab7 1dbe 4a9e 9abd
000001c0: ec61 5a3d ce2e b9bc eec4 6b3c 8be7 eabd
000001d0: 1664 3abe 9faa b5bd 3d91 cdbe 7d5d aabb
000001e0: 62b8 9ebd 94c9 0ebe 6d51 55bd 4fe5 92bd
000001f0: f60c 84bc 917e 2dbe b220 0ebe 4571 2dbd
00000200: a60b 98bd 1c36 0cbe 9b08 86be eafd 15be
00000210: 69a7 8dbd 7680 983c 6b55 0f3d 3980 203d
00000220: 03e1 4fbd ec46 88be c989 01be 5b85 59be
00000230: e831 e9bd 6874 863d 7fe4 e6bd 6806 9cbe
00000240: 2355 9fbe 16f0 04be 478c 74bd fa92 23bd
00000250: f16c 1ebe d8c2 4fbe b0b7 bbbd c9e5 e2bd
00000260: 0b1a af3d 06d2 bbbd 8220 453c b845 0bbe
00000270: cfbd 45be ad74 80be d7fc 87bd 8802 e73d
00000280: cb58 07be cdcf 21be 4ea6 6d3d ccf5 d3bd
00000290: e2ff d03c c10f 35bc 2599 14be c369 1fbe
000002a0: 8c28 cf3d a7c8 3ebe 8e96 89bd 65e9 8fbe
000002b0: 215f 88be 7a12 75bd 57c0 f13c 8dfc 03be
000002c0: 1543 8abd 1d03 ccbd c271 31be 9aa2 c5bd
000002d0: 4c98 9fbe c137 32be 5291 54bd 442f 83be
000002e0: 3210 26be ebef 08be b7ad 26be ac36 acbc
000002f0: 1369 9fbe 3aba 23bd 3305 80be 7f17 063e
00000300: 6a03 0dbe dee2 1ebe 02ea efbd 9c77 99bd
00000310: 3a7f 24be 48a1 0bbe 2fca aa3b 46a8 7ebd
00000320: 889a dcbd d0b5 60be cc2c d2bc d869 8abd
00000330: ba1b d1bd fbe3 cabb 9993 50be 460b 5bbe
00000340: b284 2b3a aa0f dabc 45d8 86be 2d15 06be
00000350: c59e 61be 3d73 b03b 9043 3a3d b8a9 c0bd
00000360: 6531 a7be 78d3 b23d 1cd6 863c 328a a3bd
00000370: e28b 9b3d 4ed5 02be 53b0 30bd f82b 13be
00000380: 55c9 86bd 1f39 2ebe e08c 43be 87ba 17be
00000390: af54 16be 0449 cc3c ba22 15be 7ccd 98be
000003a0: 2b05 c0bd a2bd 6abe 6c0b 0ebe 4770 dbbd
000003b0: 07d3 5bbe d479 1a3e 255c 06be 34a1 06be
000003c0: 23ec 0fbe 22e6 57bd 9f8f 1fbe c497 89be
000003d0: ce56 1dbe 9843 5fbe 7626 3dbe 48b3 32be
000003e0: 170a 98be b564 5dbd dfb1 0d3c d51e 27be
000003f0: c346 44be 9f81 eb3c 17a4 efbd 3ce9 4fbe
-0.21271934 0.07382779 -0.08278418 -0.17896615 -0.03459534 -0.22069478 -0.08173399 -0.26166207
-0.10122219 -0.14921291 -0.14612848 -0.13464211 -0.064835876 -0.027525907 -0.072997965 -0.14944014
-0.043977182 -0.032208603 -0.15231857 -0.123153865 0.012930867 -0.2150388 -0.0670969 -0.23292068
0.044449415 -0.23496144 -0.18257366 0.032098368 -0.06437664 -0.26743978 -0.2350227 -0.21675304
-0.05637692 -0.18172161 -0.22933681 -0.18128358 -0.27509204 -0.14546715 -0.1899405 -0.16762379
-0.1534135 -0.21131404 -0.16407801 -0.21870191 -0.08031319 -0.110800035 0.037585296 -0.13011305
-0.31190893 -0.03655311 -0.1656969 -0.14064912 -0.04472272 -0.04157078 -0.066007845 0.00891045
-0.18586989 -0.1369652 0.008806252 -0.024308989 -0.007477833 -0.08198056 -0.12157702 -0.09092689
0.03601881 -0.093280494 -0.1923095 -0.15723257 0.12975962 -0.022839308 -0.21986838 0.092295505
-0.101827495 -0.03837941 -0.09703708 -0.0044330102 -0.18588942 0.027239773 -0.06310028 0.17169978
-0.0823873 -0.042510815 -0.15504302 -0.00053523306 -0.0480687 -0.24165106 -0.18611692 -0.041096084
-0.09694877 -0.13715228 -0.10052701 -0.08661551 -0.19328316 -0.27460515 -0.029518792 -0.16202334
-0.22196783 -0.1430209 -0.18454602 0.001774543 -0.23216157 -0.24948396 -0.2613481 -0.123281606
-0.031300582 -0.26740566 -0.27012262 -0.22282839 -0.15811814 -0.124513246 -0.1540207 -0.075497225
0.05331604 -0.022605326 0.014390213 -0.114699446 -0.18202242 -0.08870434 -0.4014987 -0.005199133
-0.07750012 -0.13944083 -0.052079607 -0.071726434 -0.016119462 -0.16942813 -0.1387966 -0.04234435
-0.07424097 -0.13692516 -0.2617844 -0.14647642 -0.069166966 0.018615942 0.03499357 0.039184783
-0.050751697 -0.2661661 -0.12650217 -0.21242277 -0.11386472 0.065651715 -0.11274051 -0.30473638
-0.31119642 -0.1298221 -0.05970409 -0.03993509 -0.15471245 -0.2028917 -0.09165895 -0.11078984
0.08549889 -0.09170918 0.012031676 -0.13600814 -0.19310687 -0.25089017 -0.06640022 0.1127978
-0.13217466 -0.15801926 0.05801993 -0.103496164 0.02551264 -0.011051119 -0.14511545 -0.15567689
0.101151556 -0.1863123 -0.06718169 -0.28107753 -0.26635078 -0.059832074 0.02951066 -0.12889309
-0.06751076 -0.09961531 -0.17328551 -0.096501544 -0.3117088 -0.17404081 -0.0518964 -0.25621998
-0.16217116 -0.13372771 -0.16277204 -0.021022163 -0.31134853 -0.03997252 -0.25003967 0.130949
-0.13770834 -0.1551623 -0.11714555 -0.07493517 -0.16064158 -0.13635743 0.0052120904 -0.062172197
-0.10771662 -0.21944356 -0.025656126 -0.06758469 -0.102103665 -0.006191728 -0.20368804 -0.21391019
0.00065429055 -0.026618797 -0.26336876 -0.13094015 -0.22033222 0.005384831 0.04547459 -0.09407371
-0.32654873 0.08731741 0.016459517 -0.07985343 0.0759504 -0.12776682 -0.043136906 -0.14372241
-0.0658137 -0.17013977 -0.19096708 -0.14817248 -0.14680742 0.02493716 -0.14564028 -0.29844272
-0.09375986 -0.22923902 -0.13871545 -0.107147746 -0.2146722 0.15085536 -0.13121088 -0.13147432
-0.14054923 -0.052709706 -0.15582131 -0.268736 -0.15365145 -0.21803129 -0.18471703 -0.17451203
-0.29695198 -0.05405112 0.008648365 -0.16320355 -0.19167618 0.028748332 -0.117012195 -0.20303816

layers.1.apply_mod.linear.weight f4 [256, 256]
00000000: 13d5 c8bc 3950 c9be c277 aebc 9036 eb3d
00000010: 88ac 19bd 99f5 46be f47e 1a3e 168d e23c
00000020: af59 dcbe 07b1 28be 95a7 2abe 2f43 b9bd
00000030: 4ab6 d23b 8ac5 853d 2b5a 8abc 5bca 1fbd
00000040: 2d34 d1bd a1bb 68be 2349 92bc 1a50 e6bb
00000050: afb3 d7be afb5 12be 7702 1ebe 05c7 13be
00000060: 535c 89be 7919 5bbe cf7d 4fbd 0d29 87bd
00000070: cdb6 bc3d 18f8 27bd f180 903d f1e2 28be
00000080: f825 bc3e 65a2 eebd 2c03 64be baaf dabd
00000090: 8de8 63bd f7d0 83bd 7cd5 46be 78da c3bd
000000a0: 21ff a33d 638f e1be 3450 04be d046 30be
000000b0: 86fd 85be c724 4bbe 0eb9 31be 4dca a3be
000000c0: 809b 793e 1b7c 93be 3074 64bd 55dd 83bb
000000d0: 2b2c 38be 110d 69bd 01e3 443e b64a 56bd
000000e0: c3b7 4dbe c70d 80bc 58dd 37be 9f3a 623d
000000f0: 3829 03be d189 8cbe f613 b6bd 4630 843e
00000100: b804 703d 27dd a1bc e36d a5bd 873b b1be
00000110: b7dc 1b3e b9b1 953c 6a4a 6d3d a210 97bb
00000120: fe99 8abe 0ed6 ecbd 639b a0be c5b3 93be
00000130: 5975 843d ac1c 2abe a94c 86bd 1185 00be
00000140: 45a0 33be 0253 bbbd 186a e8bc e269 82be
00000150: 016d 9fbe fa58 bbbd 6858 5cbe cc50 9dbd
00000160: 81e5 ecbd 851e eb3d 03cc ec3c 5c7b eabd
00000170: 0d06 2a3d ec67 f3bd 5b4d b4bd 0aff 1f3d
00000180: 3657 c43d 0cbd b93c 5e32 8fbd a4be 81bd
00000190: 36c2 a0be dd50 5dbd 4ccc a6be 06e0 473e
000001a0: 9210 4c3d 32fe b43d 4b95 a6be 8208 b4bc
000001b0: 2f07 c4be fc81 0fbe 80f2 d13c 8c85 3cbe
000001c0: a78e 87be 1e58 abbe ae0e 563e bb0d c1be
000001d0: 1007 35be fea9 c63c aa39 aa3d df2e 4fbd
000001e0: 853f 2ebd 858b cabe 9fa1 ffbd 341c 2cbd
000001f0: dccb b0be f0f5 50be 3c52 2ebe 8369 3bbd
00000200: 0bb4 eb3d e87e d73c 3a53 58ba f44d f7bd
00000210: 562d 8f3d d3e1 b53c 12d4 27be 324a 0dbe
00000220: 39d4 a8bb 1fbc b03c 8612 99be fdb5 06be
00000230: 3f4c 293c 2a6a 44be 26ce 0e3d 26eb 8fbe
00000240: 233c 263e c458 883d d42b adbb 60a5 603d
00000250: 7043 bdbd af63 17be c2fa 49bd d297 29be
00000260: 4591 c4bc 6825 953e 36b9 a1bd 54c9 95bd
00000270: 9c56 1dbe 391b 62bd 90fc 93be 91a2 93bd
00000280: ea74 d73e 52fe 50bd d3dd e8bc b12e f3bd
00000290: 5714 163d 61f4 e4bd 82ec 183d c62a 98bd
000002a0: f633 d1bd d4c2 bc3d 5a80 2a3e 8518 72bd
000002b0: 5eef 8fbd 18d2 29be d0c6 88bb 2526 0dbe
000002c0: 2332 9b3e eb6f 3abe 91df f93d 8bc0 ecbb
000002d0: 7781 cbbd 1773 90be 9e7e 88bd 637c 2f3c
000002e0: 49eb 1cbc 8e65 9d3e 7719 343c 9584 e8bd
000002f0: 43f2 a3bc 30f8 36bd aa55 b23d 5ad7 8a3d
00000300: 7580 52be 2883 b5bd 0ec1 b1be d9b4 0ebe
00000310: 9b42 8cbc f142 13be 1478 773e 230b 27be
00000320: e8b4 cf3c 7098 93bd ecb7 6bbd 7342 3fbe
00000330: 9dd9 e5bc c681 b6bd cc6b 92bc edcd 21be
00000340: 2c89 87bc 8da6 673d 64f8 d5bd a973 363d
00000350: 49e8 96bd 0b46 3bbe 65ff 403d 60bf a8bd
00000360: 2d41 163d 9d97 fbbe e046 a5bc 4ea0 c4be
00000370: 371e 1f3d 8e7b b6be 548e 83bd 317f a8be
00000380: 6db9 e93c dd1d 3cbe ea31 633e 03cd 70bd
00000390: 2826 f6bd 4606 03be f92b 9bbe fdbf 443e
000003a0: f198 64bd 0b4d b8bd fa76 b3be 4dd4 02be
000003b0: 5d80 e0bd a8cf c83c d219 f73c 5974 18be
000003c0: 2eae cebd d94f 1b3e 9567 b93c 99fc 223d
000003d0: 37a2 993d 9e35 4cbd 43e3 15be d5ac 68bd
000003e0: 8c0e b73c 2576 1c3e 16a1 20bd 1764 69be
000003f0: d17e 7d3e 806c a6be 88ec 023e 4379 8e3c
-0.024515664 -0.39319018 -0.02129734 0.11485016 -0.037518054 -0.19429626 0.15087491 0.027655166
-0.43037173 -0.1647378 -0.1666549 -0.090460174 0.006430422 0.06531818 -0.016888699 -0.03901134
-0.1021503 -0.22727825 -0.01785714 -0.007028592 -0.42129275 -0.1432712 -0.15430628 -0.14431389
-0.2682825 -0.21396436 -0.05065709 -0.06599627 0.09214554 -0.041008085 0.070558436 -0.16492821
0.36747718 -0.11652068 -0.22266835 -0.106780484 -0.0556417 -0.06436341 -0.19417375 -0.09563154
0.08007646 -0.44054708 -0.1292122 -0.17214513 -0.26169986 -0.19838248 -0.17355749 -0.3199028
0.24375725 -0.28805622 -0.055774868 -0.0040241876 -0.17985599 -0.056897227 0.1922722 -0.052317344
-0.20089631 -0.01563157 -0.1795553 0.055231687 -0.12808692 -0.27448896 -0.08890526 0.2581808
0.05859825 -0.019758774 -0.080776 -0.34615728 0.15220915 0.018273221 0.057932295 -0.004610137
-0.27070612 -0.11564265 -0.3136855 -0.2884809 0.06467695 -0.166125 -0.065575905 -0.12550761
-0.17541607 -0.09146692 -0.028370902 -0.25471407 -0.3113785 -0.0914783 -0.215181 -0.076814264
-0.11567212 0.114804305 0.028905874 -0.1144931 0.041509677 -0.11885056 -0.08803817 0.039061584
0.09586947 0.022673152 -0.06992029 -0.0633519 -0.3139817 -0.054032195 -0.3257774 0.19519052
0.04982049 0.088375464 -0.32535776 -0.021976713 -0.3828673 -0.14014429 0.025628328 -0.18410319
-0.26476023 -0.33465666 0.20904037 -0.37705788 -0.17678475 0.02425098 0.0831178 -0.05058181
-0.042541046 -0.3955957 -0.12481999 -0.042019084 -0.34530532 -0.20406318 -0.17023557 -0.04575492
0.1150895 0.02630563 -0.0008252148 -0.12075415 0.06991069 0.022202408 -0.16389492 -0.13797835
-0.005152252 0.021574078 -0.29896945 -0.1315536 0.01033312 -0.19181123 0.034864567 -0.28109092
0.16233878 0.06657556 -0.0052847657 0.054845214 -0.09241378 -0.1478412 -0.049311407 -0.16561821
-0.023995051 0.291301 -0.07896654 -0.07313791 -0.1536507 -0.055201743 -0.28903627 -0.072087415
0.42081386 -0.05102379 -0.028426087 -0.1187414 0.03664049 -0.11179424 0.037334926 -0.074300334
-0.10214989 0.09216848 0.16650525 -0.059105415 -0.070280775 -0.1658405 -0.004174091 -0.13784082
0.3031169 -0.18206756 0.12200845 -0.0072251013 -0.09936803 -0.28212807 -0.06664775 0.010710808
-0.009577581 0.30741543 0.010992399 -0.11353413 -0.02001298 -0.044670284 0.087077454 0.06779356
-0.20556815 -0.08862907 -0.34717602 -0.13936175 -0.017121604 -0.14381005 0.241669 -0.16312842
0.025354818 -0.072068095 -0.05754845 -0.18677692 -0.028057868 -0.08911471 -0.017873667 -0.1580121
-0.0165449 0.05655532 -0.104477674 0.044543896 -0.07368524 -0.18288438 0.047118563 -0.08239627
0.03668325 -0.4913911 -0.020175397 -0.38403553 0.038847174 -0.3564114 -0.06423631 -0.3290954
0.0285308 -0.18370767 0.2218701 -0.058789264 -0.120189965 -0.12795362 -0.30306986 0.19213863
-0.05580992 -0.0899907 -0.3505171 -0.12776299 -0.10961983 0.02451308 0.03016368 -0.14888133
-0.10091816 0.15167178 0.0226324 0.039791677 0.07501643 -0.04985582 -0.14637475 -0.05680545
0.022345804 0.15279444 -0.039216124 -0.22792087 0.24755408 -0.32504654 0.12785542 0.017391806

layers.1.apply_mod.linear.bias f4 [256]
00000000: ad7e d2bd eafa afbd 166a d5be 670e 52bd
00000010: cdf5 babe 0cd1 57bc afb8 24be 2ee2 a3bd
00000020: 6a0f 68be 2a87 0bbd f676 acbe 26f8 4fbe
00000030: 7914 98be ae6c e8bd 6a4f 9bbe d2d0 543b
00000040: f286 c8be 4043 1c3d b348 babc 7fab 9bbe
00000050: 7f0a 0cbe c624 5bbe ced0 15be 7704 f4be
00000060: 20c6 4cbe a078 92be 562d a1bd 73e7 c7bd
00000070: ad05 5fbe 91cd 103e 1764 38be 2a29 4b3c
00000080: f910 87bd 4d4e 41be a298 98bd cba2 9bbe
00000090: e214 c8bd 2ebf 2abe 0cb8 8ebe 94cb a3be
000000a0: 6fee 893c 3cb6 adbd 7dcf 933d e3f3 0bbe
000000b0: 01f2 df3d 7a7c 03be 16bc 29bd b709 3fbe
000000c0: 8ae4 46be 17ca f0bd aea6 abbd befa 513e
000000d0: 3143 62bd 71af cebd 4630 03bd 0e91 d3bb
000000e0: dc8f 42be ea4a 0dbe d207 73bc a238 cc3b
000000f0: 07d5 9ebe 25e3 e4be 271a 64be feec 70be
00000100: 06d4 9c3d 4706 92be 2a87 8fbe 5f83 04be
00000110: f43d 9c3c c7dd 09bd 22b0 0bbe 4012 f7bd
00000120: ae94 ddbd 2d33 d5bd eb56 efbd 0cfb 69be
00000130: 1612 ecbd 3e07 51be b335 1abe 6fd0 e2bd
00000140: 2dfd 83be 00d8 0e3c 8783 c9be fc1a 25be
00000150: 16f5 7fbe 0277 54be d1fd 4ebe a281 acbe
00000160: a123 c4be 0c29 92be 4f82 b73c 6a28 a8be
00000170: 80bf 2ebe d254 db3c f225 7dbe 0f4c 50be
00000180: 47cb 8abe c0bc c53d 6fb7 c7be a02d 92be
00000190: 8e30 8b3d 5f92 19be 415f 8fbe a561 88bd
000001a0: 07ae dabe 9cec 7cbe 72cb ecbd 9255 84be
000001b0: b3ef eebd 90cd 7bbe e127 abbd 595d 9abc
000001c0: c16d 52be d725 8b3d d478 3ebe 8604 8bbe
000001d0: 6ff2 0fbe d94a 333d af25 eb3d fd39 58be
000001e0: 1587 edbd e69b 7ebe d178 72be 6bfc 0abd
000001f0: ac37 6ebe 7208 16be 8099 08bd e042 a1be
00000200: 4835 983d d131 81be fe2a c9bc cc0a 8bbe
00000210: bb30 2cbe 0ffc 9ebe d865 efbd a0f8 dfbd
00000220: 8e0b b8be e19a b3bd 7ce9 c13a 1e64 063d
00000230: 8147 18be c18f 7cbd 5b78 553d b198 51be
00000240: e3d9 2cbe 5083 9cbe 9b9d 223d 53ee 86bd
00000250: 7e4b 3fbd a9c5 70be a4ab 84be 1ae8 6bbe
00000260: 5170 90be 63fc abbe 4908 92be e50a 95be
00000270: 9bdd 4dbd 030f c3bd 6280 02bd 331c bfbe
00000280: a87a d4be a933 a6be 3231 76be df8b 9dbc
00000290: ce18 5bbd 6c9c 6ebe 1973 9fbe 514d 4abe
000002a0: 0509 babd 26a8 a8bd c29c a4be bea9 98be
000002b0: 5650 4dbe 0e44 43bd d11a 643d b895 8dbd
000002c0: fcea 62be 7700 09be 4ac8 56be 3ff9 e4be
000002d0: 2379 e03d 531f c3be 228c f0bd 476c 52bd
000002e0: e502 203d fae8 3dbd c017 2abd 1a4e ecbd
000002f0: 2f3e 9cbe 4658 0f3e 4f8c 3bbe d62d 193e
00000300: 336f b53d 19ff 59be b073 bdbe f481 13be
00000310: 97e8 0ebb ed59 bcbd 18bf 553d f96f 83be
00000320: ef0b 40be 25d0 8cbe 18d7 b7bd a531 88bd
00000330: 9288 81be 971e 1dbe a4bd 093d db02 45bd
00000340: 5374 31be da0d dabb ab15 d5bd 94fe 09be
00000350: bc8a f9bd b623 29bd febf b0bd 902b 56be
00000360: 2b1c a9bd d75a 4dbc a7ce 86bd 7e98 aabe
00000370: dafb 61be 9a96 13be 8373 da3d b9ac 62bd
00000380: 4669 a4bd c4de 8cbc f2dd 5abe 5679 7abe
00000390: 61bc 20be fef6 dbbd 4882 0abe 0966 7cbe
000003a0: 56dd 91be b64d 51be bcb8 74be 429b 8dbe
000003b0: bf95 00be 6439 16be 6148 8cbd d030 6b3d
000003c0: 15de 77be 4935 f4bd 9e65 0fbe a5c4 e6bd
000003d0: 711e c4bc e45c 12be 9605 503e 10ef 2cbe
000003e0: f107 92be 5bf8 afbe 51f6 58be f20b 3ebd
000003f0: 57c3 8abe 693a 29be 7fd2 46bd dbca e63c
-0.10278068 -0.0859278 -0.416825 -0.051283266 -0.36515656 -0.013172399 -0.16086076 -0.08002125
-0.2266213 -0.03406445 -0.3368451 -0.20309505 -0.2970312 -0.11348854 -0.30334026 0.00324731
-0.39165455 0.038150072 -0.022739744 -0.3040428 -0.13675879 -0.21400747 -0.14630434 -0.47659656
-0.19997454 -0.28607655 -0.07869975 -0.09760942 -0.21779509 0.14140917 -0.18006931 0.012399951
-0.06595034 -0.18877526 -0.074509874 -0.3039764 -0.09769608 -0.16674492 -0.27874792 -0.31991255
0.016837327 -0.08482024 0.072173096 -0.13667254 0.109348305 -0.12840453 -0.04143914 -0.1865605
-0.19423118 -0.117572956 -0.08381401 0.20505807 -0.05523986 -0.100920565 -0.03202846 -0.006456501
-0.1900019 -0.13798109 -0.0148334075 0.006232337 -0.31021902 -0.44704548 -0.22275601 -0.23527905
0.07657628 -0.28520414 -0.2803281 -0.12940739 0.01907251 -0.03365877 -0.13641408 -0.12064028
-0.10819374 -0.10410152 -0.116865 -0.22849673 -0.11526887 -0.20412919 -0.15059547 -0.11074912
-0.25779095 0.008718491 -0.3935816 -0.16123575 -0.24995837 -0.20748523 -0.20214011 -0.33692652
-0.38308433 -0.2854694 0.022401003 -0.32843333 -0.17065239 0.026773844 -0.24721506 -0.20341514
-0.27108213 0.09655142 -0.39007136 -0.28550434 0.067963704 -0.14997242 -0.2800236 -0.06659249
-0.42710897 -0.24699634 -0.115622416 -0.25846535 -0.11666813 -0.24590135 -0.08357216 -0.01884334
-0.2054968 0.06794327 -0.1860078 -0.2715189 -0.14057325 0.043772552 0.11481797 -0.21115871
-0.115980305 -0.24864158 -0.236789 -0.03393213 -0.23263425 -0.14651659 -0.033349514 -0.31496334
0.074320376 -0.2523332 -0.024556633 -0.27156675 -0.16815464 -0.3105168 -0.11689347 -0.10936093
-0.35946316 -0.08769775 0.0014794315 0.032810323 -0.14871027 -0.061660532 0.052116733 -0.20468403
-0.16879992 -0.30568933 0.039701086 -0.065884255 -0.046702854 -0.23512901 -0.259122 -0.23037758
-0.2821069 -0.33590993 -0.28521946 -0.29109874 -0.050260168 -0.09524348 -0.031860717 -0.37326202
-0.4149983 -0.3246129 -0.24042204 -0.019231735 -0.053490452 -0.23301858 -0.311425 -0.19756056
-0.090837516 -0.08235197 -0.32150847 -0.29817003 -0.20050177 -0.047672324 0.055689637 -0.06913322
-0.22159952 -0.13379084 -0.20974842 -0.4472141 0.10960605 -0.38109836 -0.11745478 -0.051372793
0.03906526 -0.046364762 -0.041526556 -0.11538334 -0.30516192 0.13998517 -0.18315242 0.14958891
0.088591 -0.21288718 -0.37002325 -0.14405042 -0.0021806115 -0.091968395 0.052184194 -0.25671366
-0.18754552 -0.27502552 -0.08976573 -0.06650094 -0.25299507 -0.153437 0.03362812 -0.048098426
-0.1732953 -0.0066544833 -0.104045235 -0.1347602 -0.121846646 -0.041293822 -0.086303696 -0.20915055
-0.08257326 -0.012533865 -0.065823846 -0.33319467 -0.2206873 -0.14412919 0.10666563 -0.055340502
-0.08027892 -0.017196067 -0.21373728 -0.24460348 -0.15696861 -0.107404694 -0.13526261 -0.24648298
-0.28489178 -0.204398 -0.23898596 -0.27657515 -0.12557124 -0.1467033 -0.06849743 0.057419598
-0.24205811 -0.11924226 -0.14003608 -0.11267976 -0.023940297 -0.14293247 0.20314631 -0.1688807
-0.28521684 -0.34369168 -0.21187712 -0.04639811 -0.27102157 -0.16526188 -0.04854059 0.0281729

classify.weight f4 [208, 256]
00000000: 0bd1 443d 4967 df3d 9a47 31bd d1ee 9fbb
00000010: 0237 b53d d300 a23e 65d3 fb3c 1e7b bebd
00000020: 2ce8 13bf 493c d4be 89a9 273c 80ea 25bd
00000030: 1b2a 50be 92e0 2a3e 9645 debd 52c7 73be
00000040: ba20 9bbd aed3 cdbd a21d 843c 6127 d33d
00000050: ab19 f2bd 30ea c1be 4ae7 fa3a 185d 293e
00000060: 68ae aebe 7f38 123e 7ff4 abbd f32f 453e
00000070: 501f 6ebe a948 e5be 5e79 96bd ad27 5bbe
00000080: 8cd1 ddbd 5f7b a2bd 1746 9d3e 55e3 4ebe
00000090: 9c83 01bf 560c 71be 8cd6 a1be beff 83be
000000a0: d91a 263e ecd8 71be 6b17 d33c 8272 73be
000000b0: c54e f2be 451b df3d f6ff 9bbe ee0a 31bf
000000c0: b786 313d 7a0c 56bc dfa2 bdbe 5ff4 cbbe
000000d0: c79a 293d baa5 44be ea63 373d d92c 323e
000000e0: 9080 efbe 0ff1 b3be 135d 693e 8815 11bf
000000f0: 5d47 b7be 6e42 0d3e e68d c8be 4438 abbe
00000100: 305c 353e b77a aebd 59fb 19bd fbb7 f7bd
00000110: f250 cbbe 27fc 97be e5cf 25be cae6 78be
00000120: cc8b cdbc 39a2 2e3d d558 e3be 8d07 d6be
00000130: b5a7 54be f7ff c3be d79c b5be 115b 18be
00000140: 0357 b73d 409f 48be 610a a33d 0152 24be
00000150: c235 08bd c77e bf3d 8a2f ccbb 98d8 23be
00000160: 6491 373e c9ed e2bd 02a5 d5bd 2c5f 723d
00000170: be14 05bf 6e84 47be 5a4f 09be 7dac cebe
00000180: cc53 a7bd bad4 2cbe b9e4 89be d8ae 38be
00000190: 6c26 f8be 6c40 d2bd e21b b2be 63be b9be
000001a0: 85af dcbc 79d2 9cbe 9012 cbbe 572b 38be
000001b0: 6ea0 9bbe 01c2 33be 769d d0be 95ed 753e
000001c0: 77ed cbbd c490 a4be a2a1 cd3c 455a 1ebe
000001d0: 72f7 de3d e049 1ebd 4466 7dbe d269 00be
000001e0: 61c6 c4be e77c 03bf 11d1 0fbe 91e8 c1be
000001f0: 462c 7fbd ebca 5bbe 9773 0a3d 2a85 65be
00000200: c73a 90bd 7336 83be 5e1f 47bd b5c3 bdbd
00000210: 4255 cebe ee8a a83d 6ba3 1a3d f286 473e
00000220: 1628 c1bd d1b8 b1be 243b 08bf 06c8 b4bd
00000230: 6ee3 28be 3ed8 2abe 87db a5be 4b22 28bf
00000240: 510b 01be cbe5 c13e c7ff a5be 1d81 873e
00000250: 40f2 043e fd26 313e 6d72 7d3e abdf a9be
00000260: 39d3 9dbe 199a e1bc 3b2b 6f3c 97df 713d
00000270: 9172 06bf 42a6 b2b9 af99 11be 06d0 433d
00000280: de68 c2be ab88 83bd 1141 f6be 22bc 95be
00000290: aef9 abbe a953 61be f4c2 7bbd 03b2 49bd
000002a0: 8d28 5ebe bc8a b5be 58ae 1fbe bd26 9cbe
000002b0: 04e3 ef3d dcab d5be 8430 91bd c00a 22bc
000002c0: 2465 93be a98b 69be 433f 6c3e 7aca 12be
000002d0: 735c 9dbe 381a 793d c285 6b3d 1670 5abe
000002e0: 4660 043e 0da5 bdbe 05e6 b7be e7ed 0cbd
000002f0: d7fd 7e3e 5383 6abf 6cb1 3abe 9d73 f3be
00000300: f1ef 3abf 5a24 873c 3a66 1fbf 651e 90be
00000310: fc59 8ebd 1cf0 41bf 7569 703d 6a6a 173e
00000320: 6ac3 2dbe d55d ff3d 2b8b 17bd 48e0 2ebe
00000330: 7e93 a93d 2206 9bbe 496b fabd ddbc 49bd
00000340: ddef 983e 3393 86be dc67 84bd 45e7 47be
00000350: ad87 2abe 61ca 933c 6477 35bd 7632 bcbd
00000360: a227 d5bc 03ee ea3b 2aa4 edbe 5e0f 193e
00000370: 563e f9bd 7667 a3be c9bc a0be 7222 f5bb
00000380: bec4 2cbf 2eec 5bbe 3113 753e 9b1f 6ebe
00000390: 31c5 12be 2d82 aabe 741e 643d c476 f4be
000003a0: 2814 d63c b7d3 9dbe 2f6d 5bbe cd0b dabd
000003b0: f986 b2be 7c5a 97bd 0083 f3bc be45 e8be
000003c0: 9fd9 88be 36cb b4be 4970 ad3d 651e f2bd
000003d0: f932 0dbf 5411 66be 1d73 92be 5913 a1bb
000003e0: 43c2 81be 9b12 c9be bba0 79be c286 d33d
000003f0: ed7e 5bbe 8b96 3e3c 0278 d3be 9fab 27bf
0.04805092 0.10908372 -0.043281175 -0.004880764 0.088483825 0.31641254 0.03074045 -0.093008265
-0.5777614 -0.41452244 0.010233291 -0.04050684 -0.20328562 0.1668723 -0.10853116 -0.23806503
-0.075746015 -0.1005014 0.016127411 0.10310245 -0.11821302 -0.37873983 0.0019142416 0.16539419
-0.34117436 0.14279364 -0.08396243 0.19256572 -0.23254132 -0.44781998 -0.07347368 -0.21401854
-0.108309835 -0.079336874 0.30717537 -0.20203908 -0.50591445 -0.23539862 -0.31609 -0.25781053
0.16221179 -0.23617905 0.025768002 -0.2377415 -0.4732572 0.10893873 -0.3046872 -0.691573
0.043341365 -0.013064498 -0.37038323 -0.39834878 0.041407373 -0.19203845 0.04477302 0.1739992
-0.46777773 -0.3514485 0.22789411 -0.5667348 -0.35796633 0.13794872 -0.3917076 -0.33441365
0.17710948 -0.085195 -0.03759322 -0.12095638 -0.39710194 -0.29684564 -0.16192587 -0.24306789
-0.025091074 0.042635176 -0.4440371 -0.41802636 -0.207671 -0.38281223 -0.35471222 -0.14878489
0.08952143 -0.19591999 0.07960964 -0.16046907 -0.033254392 0.09350353 -0.006231253 -0.16000593
0.17926556 -0.1108051 -0.10431863 0.059172794 -0.51984775 -0.19484112 -0.13409176 -0.40365973
-0.0817028 -0.16878024 -0.26932314 -0.18035448 -0.48466814 -0.10266194 -0.34786898 -0.36278066
-0.026939163 -0.30629328 -0.396626 -0.17985283 -0.30395836 -0.17554475 -0.40745133 0.24016412
-0.09957402 -0.32141697 0.025101487 -0.15464123 0.1088704 -0.03864467 -0.24746042 -0.12540367
-0.384326 -0.5136246 -0.14044596 -0.37872747 -0.06229808 -0.21464126 0.03380164 -0.2241408
-0.07042461 -0.2562748 -0.0486139 -0.09265844 -0.40299422 0.08229624 0.037753504 0.19485071
-0.09431474 -0.34711316 -0.5321524 -0.08827214 -0.16493008 -0.16684052 -0.3239405 -0.65677327
-0.12601973 0.3787063 -0.32421705 0.26465693 0.12983036 0.17300029 0.24750681 -0.33178458
-0.30825213 -0.0275393 0.014597709 0.059051123 -0.52518564 -0.00034074677 -0.14218782 0.04780581
-0.37970632 -0.06422552 -0.48096517 -0.29245096 -0.33588928 -0.2200457 -0.06146522 -0.04924203
-0.21695156 -0.35457408 -0.1559385 -0.30498305 0.11713222 -0.4173268 -0.07089332 -0.009890258
-0.28788102 -0.22807182 0.23071007 -0.14335051 -0.30734596 0.06081602 0.05750061 -0.2133182
0.1292735 -0.37039986 -0.35917678 -0.03440657 0.2490152 -0.91606635 -0.18231744 -0.47549143
-0.7302237 0.016496826 -0.6226536 -0.2814819 -0.06950757 -0.75757 0.05869432 0.14786687
-0.16969076 0.12469069 -0.036997955 -0.17077744 0.08280085 -0.30278116 -0.12227494 -0.04925238
0.298705 -0.2628418 -0.06465122 -0.19521816 -0.16653319 0.018040838 -0.044303313 -0.09189312
-0.026019875 0.0071694865 -0.4641431 0.14947268 -0.12170093 -0.31914872 -0.31394032 -0.007480913
-0.67487705 -0.21476814 0.23933102 -0.23254244 -0.14333035 -0.3330244 0.055693105 -0.4774686
0.026132658 -0.30825588 -0.21428369 -0.10646782 -0.348686 -0.073903054 -0.029725552 -0.4536571
-0.26728532 -0.35311288 0.08468682 -0.118222035 -0.55155903 -0.22467548 -0.2860345 -0.0049156365
-0.25343522 -0.39272007 -0.2437772 0.103284374 -0.21435137 0.011632572 -0.41302496 -0.6549625

classify.bias f4 [208]
00000000: d3ac 973c dc2c 213c 8884 ffbc 1557 0fbe
00000010: 99cd 11bc 8223 01bf c4e6 24bf 2364 04bf
00000020: 021c 71be 038e ab3d 0cc9 24bf 27b2 00bf
00000030: 8767 09be 25c3 13bf e11a 20bf b215 9bbd
00000040: d7bd 893d a654 2dbf 7049 39bf bfa6 5e3d
00000050: 60bc edbc 0ab7 0ebf 02a5 36be af48 3abe
00000060: c250 9abd f20b ffbe 2000 30bf 3f37 1dbf
00000070: ced3 64bd 8ccd 03bf 19d2 13bf 84f6 0bbf
00000080: 956c f7bd eed2 02be 15f9 d5bb 5cf4 38bb
00000090: 3c4d 11bd ce0c 3cbe 1552 64be 12f9 bebd
000000a0: 6293 c03d eb7c 1bbf c533 29bf 67bc 1cbf
000000b0: 3354 d9bc ca01 d33d e0f2 41bd 8d63 503e
000000c0: b784 f3bd 8749 d33d 13b4 26bf 0230 1ebf
000000d0: 75ac 3d3c 90a9 1dbf 5268 1ebf ed40 11bf
000000e0: 2626 1fbf 7757 6abe 3a28 3bbe ad53 1fbf
000000f0: 4277 a1bc dbfc 86be 36db 183d e215 0dbf
00000100: e2b4 08bf 69cb fdbe 1499 24bf 4218 11bf
00000110: 731e 1fbf c1b3 0dbf 2123 16bf 76b2 0bbf
00000120: 1b1c 1fbf 05f5 06bf 0b3b f1bd e7b0 17bf
00000130: 6190 25bf 0cad 05bf f1c9 3dbe 1157 10bf
00000140: bc89 edbe 2f3d 05bf 54b6 0dbf 9420 26bf
00000150: 80a2 1dbf 59e0 13bf e592 0bbf 1d75 1bbf
00000160: 2e0d 01be eb25 3fbd 5f2f b2bd 561a 23bf
00000170: ad65 19bf 3055 f53d f024 063b 662c 02bf
00000180: dd38 13bf ccfb 03bf 92c8 17bf e51d 07bf
00000190: 3f83 0cbf b500 2abf 0896 11bf 688a 0dbf
000001a0: 6c36 67bd b9b6 1ebe a8f1 7b3d 8f33 21bf
000001b0: 92f8 05bf aab6 1ebf 34e7 a33c baa1 993a
000001c0: c68b a23d 9c3b 57be 03c9 843d f231 3dbf
000001d0: ff8c 27bf fef7 21bf 4e23 1ebf 401a 563e
000001e0: d30a 9abc 5f82 d93d 7ec2 db3a 83df 2fbf
000001f0: 1090 12bf a592 67bb 3b9c 44be d0aa 0dbf
00000200: c6d5 1bbf d1ee a1bd ab66 19bf 0a42 1cbf
00000210: 88bd 17bf 1daf 09bf aaa6 11bf 2695 00bf
00000220: 5f5f 2dbf ac35 23bf 97b1 25bf d7f8 fbbe
00000230: 4ef5 c3bd b7ac cbbb 6e3e 20be 7ea2 25bf
00000240: d0da 21be bdf1 aa3d 4332 a8bd f004 bcbd
00000250: 20e0 173d ef72 42be 38c1 603d 5146 c23c
00000260: cfb6 1bbe 08ff 08bf 51e4 15bf 51ff a83d
00000270: 2b06 57be 19a9 1dbf 7632 2dbf 6a1c 08bf
00000280: 376e b23d 395e 3fbd 1996 893d 13e5 273e
00000290: b766 513e 4fe3 0bbf 7777 12bf fe37 5b3e
000002a0: a10b 1cbf 99a4 1fbf 4f80 1abf f1c0 13bf
000002b0: 118a 203e 3236 9e3d d2f8 02bf 8fdd 0ebf
000002c0: dd86 07be 50e8 523d 90be 34bc a250 de3d
000002d0: 6f1e 0dbd 205a 8e3d aade 12be 79c6 20be
000002e0: 6298 f0be a09c 03bf 15d0 78bd 0238 883d
000002f0: 8b7e 14bf 76f6 32bf e5f2 2abf d2be 12bf
00000300: c7eb 1cbf 4084 2bbf 4799 39bd 8acb 04bf
00000310: 7b93 8e3c e565 933d 4495 ce3c 9edc 1ebf
00000320: e87a 2abe 1623 d33d 0eda 6abd d2f5 1cbf
00000330: 991e 12bf 3d92 4b3e f3f6 fe3d cefe 2d3e
0.018515026 0.009837355 -0.031191126 -0.13998063 -0.008899116 -0.50444806 -0.6441462 -0.51715297
-0.2354584 0.08376696 -0.64369273 -0.5027184 -0.13418399 -0.5771964 -0.62541014 -0.075724974
0.06725662 -0.6770729 -0.7237768 0.05435824 -0.029020488 -0.55748045 -0.17836383 -0.18191789
-0.075349346 -0.498138 -0.6875019 -0.61412424 -0.055866055 -0.51485515 -0.5774246 -0.5467303
-0.12081257 -0.12775776 -0.006529937 -0.0028221821 -0.035474047 -0.1836426 -0.22296937 -0.0932485
0.09403111 -0.60737485 -0.6609462 -0.6122498 -0.026529407 0.103030756 -0.047350764 0.20350476
-0.11890548 0.103167586 -0.6511852 -0.61792004 0.0115767615 -0.61586857 -0.6187793 -0.56739694
-0.62167585 -0.22884928 -0.18277064 -0.62237054 -0.019710187 -0.26364788 0.03731843 -0.55111516
-0.53401005 -0.49569252 -0.6429608 -0.5667764 -0.62155837 -0.5535241 -0.5864735 -0.54569185
-0.6215226 -0.5271762 -0.1177884 -0.59254307 -0.6467343 -0.52217174 -0.18534066 -0.5638285
-0.46394145 -0.52046484 -0.55356336 -0.6489346 -0.6157608 -0.577642 -0.5452102 -0.60725576
-0.12602684 -0.04666702 -0.087004416 -0.6371206 -0.5992077 0.11979139 0.0020468794 -0.50848997
-0.5750864 -0.51556087 -0.5929042 -0.5277999 -0.54887766 -0.6640733 -0.56869555 -0.55289316
-0.056448385 -0.1549939 0.06150976 -0.629693 -0.52332413 -0.61997473 0.020007707 0.0011721172
0.07936816 -0.21018833 0.064836524 -0.73904335 -0.6544952 -0.6326903 -0.6177262 0.20908451
-0.01880399 0.106205694 0.0016766337 -0.68700427 -0.5725107 -0.003533521 -0.19200222 -0.55338764
-0.6087307 -0.07906879 -0.59922284 -0.6103827 -0.59273577 -0.53782827 -0.56894934 -0.5022758
-0.6772365 -0.6375377 -0.64724106 -0.49213287 -0.095682725 -0.0062156576 -0.15648815 -0.6470107
-0.15806127 0.08346889 -0.08212712 -0.09180629 0.037078977 -0.18989156 0.054871768 0.02371517
-0.15206455 -0.53514147 -0.5855151 0.08251823 -0.20998447 -0.6158615 -0.6765512 -0.53168356
0.08712428 -0.046720717 0.06718082 0.16395979 0.20449339 -0.5464372 -0.5721354 0.21408078
-0.60955244 -0.6236053 -0.60352033 -0.5771628 0.15677668 0.07725181 -0.5116092 -0.5580682
-0.1323504 0.05149108 -0.011031762 0.10855223 -0.03445285 0.06950784 -0.14342752 -0.15700711
-0.4699126 -0.51410866 -0.060745317 0.06651308 -0.5800559 -0.6990732 -0.6677688 -0.5732242
-0.6129727 -0.6699867 -0.045312192 -0.51873076 0.017404309 0.07197169 0.02521766 -0.62055385
-0.16648448 0.103094265 -0.05733686 -0.6131259 -0.5707794 0.19880004 0.124494456 0.16991732
