nnql/scripts/data/r9t12/model347_208_e50.pth (torch, 590743 bytes, 6 tensors)

layers.0.apply_mod.linear.weight f4 [256, 108]
000000 1e 25 05 3d 87 17 2f 3e 89 88 dd 3e 43 4d fa bd
       0.0325061 0.17098819 0.4326823 -0.12221768
000010 0a 8e 44 be e0 01 20 bf 60 ea 9f be fc ba 1b be
       -0.19194809 -0.6250286 -0.312335 -0.15208048
000020 2d dd 8c be 02 54 8b 3d d9 f7 6e be 89 a7 47 be
       -0.27512494 0.068031326 -0.23336734 -0.19497503
000030 f6 72 c0 3c d3 ba 17 be 17 0f 20 3d e5 37 9f 3c
       0.023492318 -0.14817362 0.03907689 0.019435832
000040 6f f8 60 3e 4e cf 78 3c e8 8b 23 3d a4 1e 55 be
       0.2196977 0.015186144 0.039928347 -0.2081247
000050 9a 3b bf bd 1a 12 88 3d 42 a7 a0 be 4d e7 aa 3e
       -0.0933754 0.066440776 -0.31377608 0.33379593
000060 52 a4 1d 3f 99 2a d2 3d 16 81 a7 3d ce f0 d4 be
       0.6157886 0.10262031 0.08178918 -0.4158997
000070 5a 28 87 3d e7 6a 99 3d 5f 72 76 3e 3a 39 a3 be
       0.06599493 0.07491093 0.24067067 -0.31879598
000080 06 97 4b 3e e3 42 d3 3e 2e ed 4d 3d 18 3f 19 bd
       0.1988183 0.41261968 0.05027502 -0.037413687
000090 85 cd 2e be 06 5a 6f 3d 7a 90 41 bf 8e 64 d5 be
       -0.17070587 0.058435462 -0.7561108 -0.4167828
0000a0 e6 f2 c6 be 4e e7 d1 bd fa 23 25 be 4a d4 8b be
       -0.38857192 -0.10249196 -0.16127005 -0.273104
0000b0 0a 92 94 be 4b 84 61 bc 77 2c d5 3c 57 3e 3b bd
       -0.2901767 -0.013764451 0.026022179 -0.04571375
0000c0 cb 05 57 be 4d 13 c8 be dd d2 1f be 3d e5 ad 3e
       -0.20998304 -0.39077225 -0.15607782 0.33963957
0000d0 60 b1 dd 3c 99 07 a6 bd f8 17 5e bf d0 96 bd bd
       0.027062118 -0.08106918 -0.86755323 -0.09257281
0000e0 8c c8 9c bb 1c 93 d7 3e 62 a4 d7 bd 81 d8 2c bd
       -0.0047846492 0.42104423 -0.105294004 -0.04219866
0000f0 1d 3d 8d be 00 6b 02 bf 03 23 6d be 94 07 58 3e
       -0.27585688 -0.5094452 -0.23157887 0.21096641
000100 b2 74 f8 be df f0 f0 be 8f 6b 95 3e 1b 0a fa 3d
       -0.4852653 -0.4705877 0.29183623 0.12208959
000110 ae 7a 64 3e 81 6e 1a 3d 54 f9 9c bd 8d 5f 1d bd
       0.22312424 0.03770304 -0.07664743 -0.038421202
000120 a5 19 99 3e b7 81 cf be 8b 9d 4d 3b b6 73 3c 3e
       0.29902378 -0.40528652 0.003137442 0.18403515
000130 5c 6f 37 be 24 3b 4d be 7a 1b b3 3c 5d cc 57 bd
       -0.17913574 -0.20042092 0.021863688 -0.05268513
000140 f8 d6 67 bd c6 6b e9 bd 22 e9 3e 3e ca b1 f3 bc
       -0.056601495 -0.11397509 0.1864362 -0.029747862
000150 5e ac b1 be 25 ff 22 be 2a b2 f8 bc 5c 18 cd bd
       -0.34701818 -0.15917642 -0.030358393 -0.10014412
000160 68 59 e9 3d 84 a8 3c bd b3 38 d8 be 14 a2 3a bf
       0.11394006 -0.046059147 -0.42230758 -0.7290356
000170 f6 19 a3 bd a0 6f de bd 3c a8 dc 3c 8b dc 93 bd
       -0.07963936 -0.108611345 0.02693569 -0.072197996
000180 7b eb 77 3c 42 18 0a be c2 a5 88 bb 21 a1 c6 3d
       0.0151318265 -0.13485816 -0.0041701505 0.09698702
000190 e7 ab 5a be a5 4a 93 3e 81 68 12 3e e2 73 ad 3e
       -0.21354638 0.28767887 0.14297678 0.33877474
0001a0 ac bf b7 be a7 7d b9 be 91 af fb bd 57 a7 29 be
       -0.35888422 -0.36228678 -0.12289346 -0.16567741
0001b0 d0 bc 7b 3d 0c f7 a4 3e bc a6 64 be 37 c6 b3 3e
       0.061459363 0.32219732 -0.22329229 0.35112163
0001c0 16 0d 2a be 6f 9a 64 bf 78 d3 56 be e9 ad 29 be
       -0.16606554 -0.89298147 -0.20979106 -0.16570248
0001d0 6c b8 7e 3c 88 de d1 3d 8d ec 92 be ec 8b fc be
       0.015546899 0.102475226 -0.286961 -0.49325502
0001e0 44 a5 2a 3f 4d 5f 6c 3e b4 e2 2b 3f 6f 48 c3 3e
       0.66658425 0.2308323 0.67142797 0.381412
0001f0 ad 03 2b bf 39 20 97 bd a9 ea af be 7b 61 29 be
       -0.66802484 -0.07379193 -0.3435872 -0.16541092
000200 66 7f 1a 3e eb a1 c4 be c7 67 fb 3d c1 fd 7d 3d
       0.15087661 -0.38404784 0.12275653 0.062009577
000210 63 fd 24 3e 6d b6 a3 be 3a 6d 58 bd 8b e8 8e be
       0.16112284 -0.31975117 -0.05283854 -0.2791179
000220 6d 50 6f 3e 2a 27 b6 be 1b 87 e2 3e 2d e7 9b 3e
       0.23370524 -0.35576755 0.44243702 0.3044981
000230 c2 9f af 3e f5 b0 06 3f c2 60 ea 3d 5b e0 b7 bd
       0.34301573 0.52613765 0.11444236 -0.08978339
000240 c4 eb 94 be 6d 83 09 bf 0e e8 e4 bd c4 83 64 be
       -0.29086125 -0.53716165 -0.111770734 -0.2231589
000250 4c 15 20 3e 0a fb a9 3d 89 2e e4 be ba cf 9a be
       0.15633124 0.08299835 -0.44566754 -0.30236608
000260 a8 c4 cd be e3 b8 02 bd eb 22 08 3d 34 de 18 3e
       -0.401891 -0.031914603 0.033236425 0.14928514
000270 bd 13 49 3e 23 1b b9 be f7 78 62 be 95 54 03 bf
       0.19636436 -0.36153516 -0.22116457 -0.51300937
000280 37 53 ce be 62 e2 10 be 13 9c 02 bf 10 84 9e 3e
       -0.40297863 -0.14148858 -0.510194 0.3096013
000290 d7 01 72 bd 39 59 ad bd 7d 69 59 be f8 ae 49 bf
       -0.059083786 -0.084642835 -0.21231647 -0.78782606
0002a0 c5 6a a7 bf 02 ee 08 bf fd 51 ae be e5 96 3a 3e
       -1.3079458 -0.5348817 -0.34046927 0.18221624
0002b0 ce 07 12 bf 78 fd 74 be c8 5e a6 bd b3 19 1e be
       -0.5704316 -0.23924816 -0.08123547 -0.15439491
0002c0 35 ca eb 3e 8e 8d ad bc c4 d2 f4 be 7a 52 bf be
       0.4605271 -0.021185663 -0.4781705 -0.37367612
0002d0 a4 c5 9d 3e 1c 51 3e be 9c e1 ff 3a 94 be a0 bd
       0.3081485 -0.18585628 0.0019522193 -0.0784885
0002e0 fc f7 99 bc 3f 12 3c 3c 94 6f 90 be 49 0a 51 3d
       -0.018795006 0.01147896 -0.28210127 0.0510352
0002f0 76 22 d8 3c 3a 65 1e be 6c f6 32 3e 90 9a 3a be
       0.02638362 -0.15468302 0.17476815 -0.18223023
000300 d2 6b 75 3e ab cd d0 bd ce e8 b3 3d 28 7f f2 3d
       0.23966911 -0.10195478 0.08784638 0.118406594
000310 8f f4 f0 3e 34 d4 93 bd 2f 77 86 be 81 e0 b8 3d
       0.47061583 -0.07218209 -0.26262805 0.09027196
000320 16 8e f8 3b 5e 7c c3 3c 11 31 0f be 48 e8 f2 bb
       0.0075852973 0.023863014 -0.13983561 -0.007412944
000330 41 42 22 3e 26 b0 55 3e 60 17 25 bd 66 85 a1 3e
       0.15845586 0.20867977 -0.040305495 0.31547087
000340 85 98 bf be e7 fa 9d 3e 90 dc 2a be a6 e7 b5 3e
       -0.3742105 0.30855486 -0.166857 0.35528296
000350 ea 6b 8d be 16 40 dd be f3 8e 1b 3c 7a ec 49 3e
       -0.27621394 -0.43212956 0.009494531 0.19719115
000360 8d 29 72 bb 6e e3 85 3e 31 07 2f 3e a6 44 9b 3c
       -0.0036951036 0.26150078 0.17092587 0.018953633
000370 84 5c 71 be ed 75 2b 3f c7 ef d0 3e b7 fe 10 3e
       -0.23570448 0.66976815 0.40807936 0.14159666
000380 6a eb 7e bc 6f ca 37 3e 79 ee 04 bf 32 81 37 be
       -0.015559057 0.17948316 -0.5192638 -0.17920378
000390 a3 73 32 3d 03 3e 7d be 62 f0 0f be a7 09 92 be
       0.04356731 -0.24730687 -0.14056543 -0.2852299
0003a0 96 1b 58 3e 1f aa bc bd d2 c2 8d 3e 2b 89 ba 3e
       0.21104273 -0.092121355 0.276877 0.36432776
0003b0 61 f5 71 be e7 af 08 bf fb f2 61 3e 3f 7d 28 bf
       -0.23628761 -0.53393406 0.22065346 -0.6581611
0003c0 6d 72 0b be 6a 17 d2 bd 7b 8c 69 3d 0a 25 05 3e
       -0.13617869 -0.10258372 0.05701874 0.1300241
0003d0 49 26 1b bd 88 24 5d be 42 aa 1a bd aa a3 56 3e
       -0.03787831 -0.21595967 -0.037760027 0.2096087
0003e0 ea d2 8b 3e a4 6d 65 bd 20 5c de be f9 e8 5a bd
       0.27309352 -0.056012765 -0.4342966 -0.053444836
0003f0 20 81 09 bf 86 f6 04 3d 7d 3f f9 3d b7 ac 27 be
       -0.53712654 0.032461666 0.121703126 -0.16374479

layers.0.apply_mod.linear.bias f4 [256]
000000 03 6f 1e be 19 c6 ca bd fa bf 31 be c3 03 87 be
       -0.15472035 -0.099010654 -0.1735839 -0.26370057
000010 84 f6 e7 bd e4 1e 8f be 63 99 86 be 93 9d 47 be
       -0.11326316 -0.27953255 -0.262889 -0.19493704
000020 0f ca d6 bd ae bb e9 bb 98 a1 8b be 37 05 6a be
       -0.10487758 -0.007132969 -0.27271724 -0.22853552
000030 46 d2 75 be b2 b4 a9 bd fc 8b 9f bd 1a 28 b5 be
       -0.24005994 -0.08286418 -0.07790372 -0.35382158
000040 52 19 e2 3c 91 1e 38 3e fa 1d c0 3d a7 c0 b7 be
       0.027599964 0.1798041 0.093807176 -0.3588917
000050 1f e4 fc 3d 70 51 56 be 15 9d 01 be 4c ad 87 be
       0.12348198 -0.20929503 -0.12657578 -0.26499403
000060 18 61 1b be b6 1f 3e be b4 14 cc 3c 36 9b 00 be
       -0.15173757 -0.18566784 0.024912216 -0.12559208
000070 7c 4a 02 be 0a e8 88 bd 48 83 3d be bc 29 12 bd
       -0.12723726 -0.06684883 -0.18507111 -0.035684332
000080 73 8f f8 bd ab e3 c7 bd ff 0e 21 be 90 94 9d bd
       -0.12136736 -0.09760221 -0.15728377 -0.07694352
000090 e6 1f 3d be 9b d4 94 be 77 0f fe bc f4 63 bd bd
       -0.184692 -0.29068455 -0.031013234 -0.0924758
0000a0 7d d1 37 be f5 b0 f4 3c cd 18 18 bc 00 78 cd be
       -0.17951007 0.029869536 -0.009283257 -0.40130615
0000b0 57 4d a6 3d b6 70 d6 bd d7 bd fa 3c 39 e0 64 be
       0.0812022 -0.10470717 0.0306081 -0.22351159
0000c0 df e9 82 be ab b0 2c be 53 58 7c bd a6 c5 a7 be
       -0.25569054 -0.16864268 -0.06160767 -0.3276798
0000d0 a9 4b cd bd 5c 8e a7 bd 8c 2f 94 be f9 e7 9b be
       -0.10024197 -0.0818145 -0.28942525 -0.3045042
0000e0 21 85 8c bd 41 6c 1e be ef 65 c3 bd 5d 8f 98 be
       -0.0686133 -0.15470983 -0.09540927 -0.29796878
0000f0 4b 18 ae be 46 64 69 be 49 bd a3 be 9f eb 8c be
       -0.3400291 -0.22792158 -0.3198035 -0.27523515
000100 0c c6 3b be 77 28 8b be a8 f1 49 be 9c a8 3d be
       -0.18337268 -0.2717931 -0.19721091 -0.1852135
000110 ed 41 47 3d 79 ff 4d be 19 b1 1b bd 2a 28 43 be
       0.048646856 -0.20116986 -0.03801069 -0.1905829
000120 37 56 e6 bd a1 2c 08 be dd ae 8d be 93 26 49 be
       -0.11246913 -0.13298275 -0.27672473 -0.19643621
000130 7a 02 60 be ee 28 29 be bd da 15 be ae e2 98 bd
       -0.21875945 -0.1651952 -0.14634223 -0.07465111
000140 06 53 bc bd 35 61 b5 bd 90 bc c7 bd 6d ce 96 bd
       -0.09195523 -0.088564314 -0.09752762 -0.07363591
000150 b3 4e 40 be c3 bc 51 be 74 9c 87 bd 95 64 8f be
       -0.18780021 -0.20482163 -0.06621638 -0.28006425
000160 29 9f 22 be d6 42 b8 bc 4d 92 89 bd 3f aa ef bd
       -0.15881027 -0.022492807 -0.06717358 -0.11702394
000170 50 e0 b6 3d 5c 8e 0b bd 83 85 4b be 41 40 ab be
       0.08929503 -0.03407131 -0.1987515 -0.3344746
000180 13 c0 09 be 0b e0 69 be a8 52 51 be 0c de a9 3c
       -0.13452177 -0.22839372 -0.20441687 0.020735763
000190 fc 75 99 be 68 1f 1a be dc 81 03 bd 76 a4 90 bc
       -0.29972827 -0.15051043 -0.032106265 -0.017656546
0001a0 d5 8a 4a be d1 49 37 bd 1c ec 14 bd ac 9e c5 be
       -0.19779523 -0.04474813 -0.036357984 -0.3859762
0001b0 31 10 c7 bd ca ce 95 bd fa 0c 1c 3d 08 9a 05 3e
       -0.09719885 -0.073148325 0.038098313 0.1304704
0001c0 44 c2 0c be 71 06 1d bd 83 3b a4 3d f0 1b 48 bd
       -0.13745981 -0.03833622 0.080191635 -0.04885477
0001d0 44 3e 4a be 56 9e 0d be b9 eb db bd 6d 76 91 be
       -0.19750315 -0.13829932 -0.1073832 -0.28410664
0001e0 6a 43 25 be 59 e1 ea bd 38 0c 7f bd 0f d3 5e be
       -0.16138998 -0.11468763 -0.062267512 -0.217602
0001f0 e6 2b c4 bd fa de 8f be 68 99 4a bd 8f 12 a7 bd
       -0.095786855 -0.28099805 -0.049462706 -0.08157837
000200 04 df 98 bd e6 1a 35 bd e5 2b 0e be 20 d0 20 be
       -0.07464412 -0.044215105 -0.13883932 -0.15704393
000210 05 8f 09 be 9e 4e a2 3d cc fd 8f 3c ae 4e 25 bd
       -0.13433464 0.07925151 0.017577074 -0.040358238
000220 a6 6c 73 3b ba d7 43 be 9a 78 22 3d a9 46 91 be
       0.0037143617 -0.19125262 0.039665796 -0.28374222
000230 ca ed 1f be 2a aa ce bc 7b 90 1a 3d 0f ed ac be
       -0.15618053 -0.025227625 0.037735444 -0.3377461
000240 84 1d 37 be 0e 16 b7 bc e7 d0 8f ba cb 9f 7a be
       -0.17882353 -0.022349384 -0.0010972292 -0.24475019
000250 ba db ba bd 5c ab 94 bc f3 60 ad 3c b2 d8 b5 bd
       -0.09123941 -0.018148117 0.021164393 -0.08879222
000260 06 bf fb bd c0 8f d2 bd c0 2c 1c be 28 ad 64 3c
       -0.12292294 -0.102813244 -0.15251446 0.013957299
000270 8e 4d 5d be dd 80 97 be 9a b4 ce bd 98 ac 15 be
       -0.21611616 -0.29590502 -0.10093041 -0.1461662
000280 70 7e ba bd 9a 0c b0 3c 88 87 2d be 41 2e 52 be
       -0.09106147 0.021490384 -0.16946232 -0.20525457
000290 b3 bf d3 bd 46 fd 2f be 5e 77 92 bd ce a3 a4 be
       -0.10339298 -0.1718646 -0.07151674 -0.32156223
0002a0 44 6a b5 bd 05 5a 8a bd f3 1c 86 bc a2 2e f3 bd
       -0.08858159 -0.06755451 -0.016371226 -0.11874129
0002b0 97 54 cc bd ba 9f 42 be 6b 58 26 be f1 8a 80 be
       -0.09977072 -0.19006243 -0.16244666 -0.25106004
0002c0 8e 5e f3 bd 62 da 90 bc f1 72 84 bd cb 63 4c 3d
       -0.11883269 -0.017682258 -0.06467236 0.049899857
0002d0 e3 0d 89 be 8c 7e 83 be 0a 63 36 be d3 ae 2d bd
       -0.26768407 -0.25682485 -0.17811218 -0.042403053
0002e0 17 8e c7 bd 60 cb e8 3c 8a 23 89 be f9 f2 a3 be
       -0.09743898 0.02841729 -0.26784927 -0.3202131
0002f0 b3 20 25 be cd 90 66 be e7 2f 83 3d ae ab 38 be
       -0.16125755 -0.22516175 0.06405621 -0.1803424
000300 6d 9f 94 bd 8a e6 10 be eb e7 1d be 4b 33 fc 3c
       -0.072569706 -0.14150444 -0.15420501 0.030786177
000310 e1 c0 fd 3d 2e b5 0e be e9 9d 85 be b9 d5 91 bd
       0.12390304 -0.13936302 -0.26097038 -0.071208425
000320 48 fe 85 be a4 f9 6a be f5 16 77 be a3 c2 4b be
       -0.26170564 -0.22946793 -0.24129851 -0.19898467
000330 c5 c2 b1 bc 9e fe 5c be 34 79 0a be c0 f2 a1 3d
       -0.021699319 -0.21581504 -0.13522798 0.07907629
000340 22 74 a4 be f3 4f 0e be e7 13 9d be d9 88 f2 3c
       -0.32119852 -0.13897686 -0.30679247 0.02960627
000350 75 d1 81 be 78 45 c8 bd aa 9e 06 be ad 60 76 bc
       -0.25355116 -0.09778875 -0.13146463 -0.015037698
000360 73 33 db bd d9 ab d2 bd 66 15 11 be e4 e9 27 be
       -0.107031725 -0.102866836 -0.14168319 -0.16397816
000370 74 07 c7 3c 7c f2 1f be a8 f4 be be ce 37 44 bc
       0.024295546 -0.15619844 -0.37296033 -0.0119761955
000380 3b 78 16 bd af 6e 7f be c9 5b 5d be db 0f ad be
       -0.036735754 -0.24944566 -0.21617045 -0.3380116
000390 5d 6b f5 bd 6c ed 40 3d 29 a4 8a be 93 85 83 be
       -0.119833685 0.047101423 -0.2707837 -0.25687847
0003a0 9c 93 f0 bd b5 24 5a bd a5 cc 89 be a3 cc 5e be
       -0.11746904 -0.053257663 -0.26913944 -0.2175775
0003b0 f5 f8 0c bc 29 5e d1 bc 92 64 7b be a6 dc 95 bd
       -0.008604278 -0.025557594 -0.24550083 -0.07317476
0003c0 ed 45 8c be 11 cc ce bd d1 fc 4a be 11 fe 44 be
       -0.273971 -0.10097516 -0.19823004 -0.19237544
0003d0 c7 27 17 be 24 22 0f bd 00 62 d7 be 96 c0 6a be
       -0.14761268 -0.03494467 -0.42066956 -0.22925028
0003e0 6f b3 cf be 80 2d 3e 3d 4e c8 b5 be c7 a4 41 be
       -0.40566584 0.04643011 -0.35504383 -0.18910514
0003f0 49 2f 8a be 4d e3 71 bc 40 b5 71 be 54 25 83 bd
       -0.269892 -0.014763665 -0.23604298 -0.06403604

layers.1.apply_mod.linear.weight f4 [256, 256]
000000 53 2c b5 be 98 b6 07 3c 6a 17 4e be 21 ac ce 3d
       -0.3538538 0.00828328 -0.2012612 0.10091425
000010 9e 69 e8 be 44 19 fa bc f5 b8 95 bd a1 d0 a0 be
       -0.4539308 -0.030529626 -0.073106684 -0.3140917
000020 02 24 3f be 1b 81 2b be 85 76 00 3e e3 66 95 3e
       -0.1866608 -0.16748469 0.12545212 0.2918006
000030 9c 6a 66 bd 62 a0 ed 3d 1f 8c 05 be 50 b8 9e bc
       -0.056254014 0.11602856 -0.13041733 -0.019374996
000040 8e 7f 39 be 55 ca 0a be 66 d5 a2 be 1d 8b eb 3d
       -0.18115065 -0.13553746 -0.31803435 0.11501143
000050 19 12 04 bf e0 fc bf be c3 9a 3d 3e 0d c6 b5 bc
       -0.51590115 -0.37497616 0.18516068 -0.022189165
000060 b8 28 26 bf 72 c2 52 bd 5c fb 7c 3d ca 4e 86 be
       -0.6490588 -0.05145497 0.061763152 -0.26231986
000070 d3 53 a1 be 10 c7 4b bf 98 b0 12 3e 04 7c 0a be
       -0.31509265 -0.7960062 0.14325178 -0.1352387
000080 dc 85 df be 0e 7e 05 be c9 7f 95 be 2f 85 2f 3e
       -0.43656814 -0.13036367 -0.29199055 0.1714065
000090 50 b1 fe bd 89 c8 a4 be b4 49 fb 3c 3f 4a 78 be
       -0.124361634 -0.32184246 0.030674793 -0.24247073
0000a0 82 4d 93 bd 3b ab 15 bf 32 4a 6e bc 81 62 32 be
       -0.07192518 -0.584644 -0.014544057 -0.17420389
0000b0 77 84 70 be e0 a4 b3 3e 34 08 3b 3e 3e d3 bd be
       -0.23488031 0.35086727 0.18264848 -0.37075227
0000c0 b7 f9 26 3e 52 ad c3 3e 85 78 49 be d8 a8 2c be
       0.16306196 0.3821817 -0.19674881 -0.16861284
0000d0 a1 34 25 3d 5e f0 e0 bd c0 c5 09 be 10 5e 4a 3e
       0.040333394 -0.109833464 -0.13454342 0.19762444
0000e0 22 c0 49 bc c4 05 4e be b2 aa 2c be 73 8f d7 3e
       -0.012313874 -0.20119387 -0.1686199 0.4210163
0000f0 32 03 54 3e 4e ca e0 3d 2b 5e c4 be 67 ef 9d be
       0.20704344 0.109760866 -0.38353094 -0.30846712
000100 2a 2b 01 3d 0a 1e ed bd d4 8e db be 62 57 78 bb
       0.031535305 -0.11577995 -0.42882407 -0.003789388
000110 f4 9d b0 bd d1 af a6 be 7c fd 65 be f1 3d a0 bd
       -0.08623877 -0.32556012 -0.22459978 -0.078243144
000120 e7 ef a4 be 53 1f 9c bd 09 a6 23 be 33 af 61 be
       -0.3221428 -0.07623162 -0.15981306 -0.2203949
000130 15 5b c5 bd ef a2 a1 bd f7 ad 4a 3e ef af ad 3e
       -0.09636513 -0.07892405 0.19792925 0.3392329
000140 e1 7a 8d 3d aa ca 2b be 02 51 bc bd bf e3 82 be
       0.06908203 -0.16776529 -0.091951385 -0.2556438
000150 24 f1 82 3e 22 53 6c bd cf 91 8e bd ef 04 bf 3d
       0.255746 -0.05769647 -0.069614045 0.09327113
000160 3f 43 44 3e a9 43 9e 3d 93 ca fc 3d dc c0 dd be
       0.19166277 0.07727749 0.123433255 -0.43311203
000170 85 94 01 3e 2d 8e 5f 3e b6 22 f7 bd b2 02 0f 3e
       0.12654312 0.2183158 -0.120671675 0.13965872
000180 f7 e0 9c 3e e5 0c 19 be 3c 73 d7 3c e8 1b 39 bf
       0.30640385 -0.14946325 0.026300065 -0.72308207
000190 5b 20 4f 3e 84 a0 8a bd fd 50 c5 be 32 11 f1 be
       0.20227186 -0.06768897 -0.38538352 -0.4708343
0001a0 97 1a 87 bd ad e1 95 bd bf 46 82 bd 11 96 73 be
       -0.065968685 -0.07318435 -0.0636115 -0.23787715
0001b0 c6 90 ab be 02 25 11 be 74 66 f2 3d e4 62 cb bd
       -0.3350889 -0.14174274 0.11835948 -0.09930971
0001c0 1a f1 1e 3c 05 9f 80 be 48 64 d1 3d 05 f4 06 3d
       0.009701038 -0.25121322 0.10224205 0.03294756
0001d0 c9 cd ac be 45 bf 3d be e7 96 89 bd 32 3c d9 39
       -0.33750752 -0.18529995 -0.067182355 0.00041434314
0001e0 d2 f1 62 3d 26 7d 09 bd 83 67 cf bc e8 8a 6d bd
       0.0554064 -0.033566616 -0.025317913 -0.0579938
0001f0 68 f1 36 be 66 f6 ce bc bb c9 e3 3d f0 e5 b5 be
       -0.17865527 -0.025263976 0.111224614 -0.3552699
000200 94 cb 23 bd 51 86 61 be 6f 8a a4 bc 87 26 8e be
       -0.03998907 -0.22023894 -0.020085542 -0.2776377
000210 8d 0c 3d be 49 01 60 3e 99 74 f4 be 3b 2d c6 3c
       -0.18461819 0.2187549 -0.47745207 0.02419149
000220 0a 50 6f 3e 78 f3 a4 3e f1 5a db bd e3 a3 dc 3c
       0.23370376 0.32217002 -0.10710705 0.026933616
000230 5e dc ed be b4 c8 3c be 90 c3 e8 bd 10 21 8c 3e
       -0.4645719 -0.18435937 -0.113654256 0.27368975
000240 17 70 23 be 1f 3a c9 be e3 f7 b6 bd 96 da 8f be
       -0.15960728 -0.39302155 -0.089339994 -0.28096455
000250 70 f8 11 bf fb bc 52 bd 2d fe be 3e bc 79 33 3e
       -0.5701971 -0.051449757 0.37303296 0.17526907
000260 e9 ea 51 be 76 89 9c 3d 36 f0 0d be 8e f4 9f 3e
       -0.20499767 0.07643406 -0.13861164 0.31241268
000270 d4 b9 4b 3e cf ed 8e be b8 ff bb 3d b7 25 cc bd
       0.19895107 -0.2791581 0.09179634 -0.09968131
000280 e4 88 78 3d 32 2d 8d be 54 e2 79 be e0 8c 2b be
       0.060677424 -0.27573544 -0.24402744 -0.16752958
000290 b2 c3 12 be 22 eb ee bd 90 e4 ac be 08 34 2f be
       -0.14332464 -0.11665942 -0.3376813 -0.17109692
0002a0 49 97 63 be e6 53 a4 bd 3c 3b 02 be 46 93 6c b9
       -0.2222568 -0.08023815 -0.12717909 -0.00022561577
0002b0 1d 9e 2e 3d 48 c9 1a be ea 1d 7c 3e d5 12 2a be
       0.042631257 -0.15115845 0.24620786 -0.16608746
0002c0 c9 13 b4 3e bc ba 5f 3d a5 96 4b 3b b0 12 50 3e
       0.35171345 0.054621443 0.0031065133 0.20319629
0002d0 ab 0e 8e be d6 af 61 bd db 09 97 be 74 e4 83 be
       -0.27745566 -0.05509933 -0.29499707 -0.25760233
0002e0 51 27 ed be f6 c0 8c bd eb 70 85 be ff 15 e2 bc
       -0.4631906 -0.06872742 -0.26062712 -0.02759838
0002f0 cb 53 a7 bd 76 5d 96 3d 39 4b 8a be 60 b8 89 3d
       -0.08170279 0.07342045 -0.27010515 0.0672462
000300 93 49 15 bf e9 1e 01 bf 57 27 14 3d 06 71 0d bf
       -0.5831539 -0.5043779 0.03617033 -0.55250585
000310 a7 83 d3 bd a1 f2 67 3e 81 0d 99 3d 34 a8 87 be
       -0.10327845 0.2265115 0.07473279 -0.26495516
000320 7e e1 cb 3e 65 34 a0 bd e5 f1 2b be 20 c0 b2 be
       0.39820474 -0.078224935 -0.16791494 -0.34912205
000330 fc 23 db bd 3c c5 14 be 42 27 42 3d 23 2f c9 be
       -0.10700223 -0.14528364 0.04740072 -0.39293775
000340 65 2e 3e bd da 62 d8 be d2 81 22 be 95 38 93 3e
       -0.046430964 -0.42262918 -0.15869835 0.28754106
000350 2c 3b 1c 3e fb af 18 3e a6 c3 84 bd 01 7e 1f bd
       0.15256947 0.14910881 -0.064826295 -0.038938526
000360 c3 77 d1 bd 22 c0 15 be 0a 91 a9 3d 3a 44 03 bf
       -0.10227921 -0.14624074 0.08279617 -0.5127598
000370 49 46 4e bf 59 46 b1 be 75 f7 a1 3e ba 5e c1 3e
       -0.80575997 -0.34623984 0.31634107 0.37767583
000380 e3 0e 02 be fe 04 9f be 80 5d e5 3e 06 26 61 be
       -0.12700991 -0.31058496 0.44797897 -0.21987161
000390 72 55 96 be 9f dd c3 bd 3e 31 b5 bd 64 54 03 bf
       -0.29362065 -0.09563755 -0.08847283 -0.51300645
0003a0 51 50 dd be 96 75 1f 3e 87 c6 08 3e 4a 74 37 3e
       -0.4322534 0.15572199 0.13356982 0.17915455
0003b0 f4 18 1c 3e 71 7f 77 be ee 78 66 3d 4c 0d b2 bd
       0.15243894 -0.24169709 0.05626767 -0.086939424
0003c0 bf 55 e4 bc 74 59 65 be f7 dc ee bc b7 15 41 be
       -0.027872918 -0.22397405 -0.029158099 -0.1885594
0003d0 65 c7 89 be a2 b6 64 bd c6 e2 ed 3d 45 c9 65 3d
       -0.26909938 -0.055838235 0.11615519 0.05610015
0003e0 6d 1c 95 be 42 19 0e bf ab 83 f4 bd 7b a3 ab 3d
       -0.2912325 -0.5550729 -0.11939176 0.08380791
0003f0 68 a4 6f be 78 59 1c be 80 96 07 be 34 3a 11 3c
       -0.2340256 -0.15268505 -0.13241005 0.008863974

layers.1.apply_mod.linear.bias f4 [256]
000000 9b 7d a4 bd 23 0d 11 be 24 18 18 be 2d 5f 6c 3d
       -0.0803177 -0.14165168 -0.14852959 0.057707954
000010 fd 17 f8 be d5 d5 8f be 32 c1 b9 bd 46 e2 94 bd
       -0.48455802 -0.28092828 -0.09070052 -0.07269721
000020 d7 41 56 be a7 3f fd bd 7d 11 2f be b9 e4 28 be
       -0.20923553 -0.12365656 -0.17096515 -0.16493501
000030 3c e7 42 be f6 58 12 bc 8f 7d 91 be 17 a3 80 bc
       -0.19033521 -0.008932343 -0.28416106 -0.015702767
000040 09 35 1d be ed e8 f4 bc 9f 4e 42 3c b9 07 88 bd
       -0.15352263 -0.029896224 0.011859565 -0.06642098
000050 7c a8 c1 be 95 b1 97 be 3c ae bc bd 5a 96 7d 3e
       -0.37823856 -0.29627672 -0.0921292 0.24764386
000060 13 41 cb 3d c4 1c b3 be 2d b2 97 bd ef a8 dd bd
       0.09924521 -0.34982884 -0.07407031 -0.10823237
000070 8c 1f a2 3d 03 99 84 3d 1f b6 7c be 13 3b 62 bd
       0.07916173 0.06474497 -0.24678849 -0.05523212
000080 5f 2a 09 be c2 30 b4 be 93 bb a6 be 53 09 5d be
       -0.1339507 -0.3519345 -0.32564983 -0.21585588
000090 3e 51 13 3e 2a 0b 7b bd 8c c6 4c be 15 9f 0c bf
       0.1438646 -0.061289944 -0.19997615 -0.5493024
0000a0 89 cf e7 be 6b 09 7e bd 51 c6 8d bd 5d ff b5 3d
       -0.45275524 -0.0620207 -0.069225915 0.08886597
0000b0 44 f0 a7 bd a9 7d d6 3d 5a ee 5a be 4f 27 28 be
       -0.08200124 0.104731865 -0.21379986 -0.16421245
0000c0 af 15 61 be 26 d7 14 be 5a 9d 41 be 32 32 8a be
       -0.21980928 -0.14535198 -0.18907681 -0.2699142
0000d0 eb 0b 34 bd 07 7c 71 be ce 47 18 3c aa 48 73 be
       -0.04395668 -0.23582469 0.009294463 -0.23758188
0000e0 35 f2 5d bd e5 83 78 be 81 9d 3f bd 3d 81 cd be
       -0.054186065 -0.24269064 -0.046781067 -0.40137663
0000f0 36 0a 62 be 65 95 8b bc 09 b8 c3 be 2b 76 10 be
       -0.22074208 -0.01703901 -0.38226345 -0.14107578
000100 bf 54 2e bd df 27 66 be 3f cf c3 be db 86 d7 bd
       -0.04256129 -0.22476147 -0.38244054 -0.105237685
000110 56 04 81 be 9f 2a fc bc 80 15 57 be ab 9b 15 bd
       -0.2519862 -0.030782042 -0.21004295 -0.03652541
000120 05 e5 59 be de 98 6a be 9f 86 0a bd 25 77 0a 3d
       -0.2127877 -0.22909877 -0.03381979 0.03380503
000130 83 99 84 be ef ce a1 3d 5b 08 4d be 1d 66 06 bf
       -0.2589837 0.079007976 -0.20022719 -0.5249956
000140 b4 26 c6 be c4 d6 a8 be 0c 2d 4f be a7 83 fa bd
       -0.38701403 -0.32976353 -0.20232028 -0.12232142
000150 af 78 37 be ca d7 a4 bc 21 20 eb 3c de 27 2b 3e
       -0.17917131 -0.020122427 0.028701844 0.16714427
000160 c1 5c b5 3c d1 46 98 be 67 f9 0a 3e 81 5c 55 be
       0.022138955 -0.2974153 0.13571702 -0.20836069
000170 3c d2 98 be 07 28 19 be 2f 62 00 be aa f6 34 be
       -0.29847896 -0.14956675 -0.12537454 -0.1767222
000180 5b 85 8f 3c 3e a5 9f 3d 91 65 cf be e9 ff 11 bf
       0.017519644 0.07795189 -0.40507177 -0.5703111
000190 dc 5d 0e 3e f1 e5 cf be e9 4a a5 be 4c a9 4d 3d
       0.13902992 -0.4060512 -0.32283714 0.050210282
0001a0 eb 2d 51 bd 76 45 2e be a7 d8 42 be b3 c2 a7 be
       -0.05106918 -0.17018685 -0.19027959 -0.3276573
0001b0 26 06 c1 be c5 3a 5e be 09 c3 0f be ec 16 b8 bd
       -0.37700003 -0.21702106 -0.14039244 -0.08988747
0001c0 db 3c 93 bd fc 6a f7 be 56 98 c9 3c e5 c1 88 be
       -0.07189342 -0.4832381 0.024608772 -0.2671043
0001d0 79 5f 24 bd ec 4b 1d be a1 53 5b be fa fe 01 3e
       -0.040130112 -0.15360993 -0.2141862 0.12694922
0001e0 6c a6 15 be 52 a5 83 3e c4 37 7f 3c a1 78 54 be
       -0.14614266 0.25712067 0.01557726 -0.20749141
0001f0 cf e6 67 be 5b 7d 8e be 8c 9c 0c be 59 ca 47 be
       -0.2264664 -0.27830014 -0.13731593 -0.19510783
000200 af 03 04 3c dc 3b d0 be 2f 0b ae be 06 4a 02 be
       0.008057519 -0.4067067 -0.33992907 -0.1272355
000210 53 f9 b6 be 73 26 49 be ff f9 a5 bd 1f 3f 1d be
       -0.35737094 -0.19643573 -0.081043236 -0.1535611
000220 58 1a 83 be d8 d9 68 be e2 ae a0 be a2 b0 9a 3d
       -0.25606036 -0.22739351 -0.31383425 0.07553221
000230 a3 b7 a4 be bc df a9 be 42 8b c3 3c 87 9f d9 bd
       -0.32171354 -0.33178508 0.023870114 -0.106261306
000240 9c 85 a7 be 92 db 8d be c0 4d ac be 69 4d 86 bc
       -0.32719123 -0.2770658 -0.3365307 -0.016394334
000250 00 33 92 3c 65 cc 7f 3d 99 95 d9 be 4b 07 98 be
       0.017846584 0.062450785 -0.42496946 -0.29693064
000260 2f e2 b8 be d4 a7 27 bd 38 2b cd 3d 62 12 a4 3e
       -0.36110064 -0.040931538 0.10018009 0.32045275
000270 0b 32 8e be 8e 65 57 be 5b d0 3a bd 74 f0 5d be
       -0.27772555 -0.21034834 -0.04560886 -0.21673757
000280 47 57 9d be 78 88 5e be 42 1c 3a be 76 72 64 be
       -0.3073065 -0.21731746 -0.18174842 -0.22309288
000290 b2 4e c6 3d db a2 96 bd 1e 4b 70 3d 26 cf 85 be
       0.09682979 -0.07355281 0.058665387 -0.26134604
0002a0 51 10 c9 be 9d d3 a3 3d 0c 97 00 bf 9e bf 9a 3e
       -0.3927026 0.079993464 -0.5023048 0.30224317
0002b0 41 96 a1 bd 59 88 8e bd 6a 9a 67 be e0 28 cd bd
       -0.07889987 -0.069596 -0.22617498 -0.10017562
0002c0 db 87 94 be 1a 8f 22 be 84 57 64 3e 0c 1e 41 be
       -0.290099 -0.15874901 0.2229901 -0.18859118
0002d0 36 f4 90 be f0 f2 be be fd 22 89 be 2d 57 28 be
       -0.28311318 -0.37294722 -0.26784506 -0.16439505
0002e0 43 c8 c4 3d 90 27 9c be 6f b3 e0 bd 0d 56 d9 bb
       0.096085094 -0.30498934 -0.10971724 -0.0066325725
0002f0 4b 42 2b be d4 e9 d2 bc f7 41 a3 be 99 53 d0 3c
       -0.16724508 -0.025746264 -0.31886265 0.025430487
000300 a8 24 8e bd 9b b3 8f bd 1e e3 4a be a8 8a fa bd
       -0.069405854 -0.07016679 -0.19813201 -0.12233478
000310 e1 57 a8 bd 80 d2 73 3d 61 b3 10 3e a7 16 47 be
       -0.082198866 0.05952692 0.14130928 -0.19442235
000320 df 90 fd be 3c d3 b1 3d cb e2 42 3e ba 2e 06 be
       -0.4952459 0.08682868 0.19031827 -0.13103762
000330 27 1f e5 bd 55 cf 5e bd 6a 29 99 be f8 96 b1 be
       -0.111875825 -0.054396946 -0.2991441 -0.34685493
000340 bf 58 9d bc 85 ab 00 be 5b 74 63 be 3d 3c ab bc
       -0.019207356 -0.1256543 -0.22212355 -0.020902747
000350 9e 1f 8e 3d cf 96 14 3e 4c 68 be 3b 08 69 34 ba
       0.06939624 0.14510654 0.005810773 -0.0006882106
000360 c6 a4 91 be 89 d9 36 be 1b 9e 87 bc 34 01 a8 be
       -0.28446025 -0.1785642 -0.016554883 -0.32813418
000370 f8 3d 0e bf 07 a2 91 be b9 00 24 be 66 98 83 be
       -0.55563307 -0.2844393 -0.160159 -0.25702208
000380 69 b3 4b be d6 67 8c be 10 f0 35 be 0d 0d 88 be
       -0.19892658 -0.2742297 -0.17767358 -0.26572457
000390 b3 d8 20 be 38 fa f5 be 05 99 32 be 14 de 21 bd
       -0.15707664 -0.48042464 -0.17441185 -0.03951843
0003a0 46 bb 66 bd 29 51 74 3e 27 17 91 bd c8 b1 0d be
       -0.05633094 0.23859085 -0.07084494 -0.1383735
0003b0 aa 18 8b be 77 86 bd bd fd 2a 09 bd 52 ae 73 be
       -0.27167255 -0.09254163 -0.033488262 -0.23796967
0003c0 3f ad 43 3d e6 aa e7 be 6f 8d 6d be be de 03 be
       0.047772642 -0.45247573 -0.23198484 -0.12877938
0003d0 bd 4d 97 3d c0 b7 2b 3e 9f ba 5b be c3 bd fd 3d
       0.07387874 0.16769314 -0.21457909 0.1238971
0003e0 a5 b6 00 be fc a0 a8 bc 87 c7 2e be 7f c1 07 be
       -0.12569673 -0.020584576 -0.17068301 -0.13257407
0003f0 2d 51 20 3e 8f 4d 9c be 26 72 62 bd df 64 89 be
       0.15655966 -0.30527923 -0.05528464 -0.2683477

classify.weight f4 [208, 256]
000000 30 11 d8 bd 10 c9 06 bf ae ae af be df 5d 06 3d
       -0.10550153 -0.5265055 -0.34312958 0.032804366
000010 93 5e 2d bd 66 0b 09 bd 6d 35 25 bf a5 29 87 be
       -0.04232652 -0.033458136 -0.64534646 -0.2639896
000020 07 71 a7 be 0e 47 4b bd 5d cc 75 be f1 68 17 bf
       -0.3270342 -0.04962831 -0.2400374 -0.591445
000030 7b 9c 65 bf 6d d9 49 3e 04 62 a3 be 07 9f 7e be
       -0.89691895 0.19711848 -0.31910717 -0.24865352
000040 42 da 8e be cf 62 65 be d7 ab 83 3d 63 41 d4 be
       -0.27900892 -0.22400974 0.0642926 -0.41456136
000050 64 06 53 bd 30 20 b8 be d6 86 44 bf f6 1e 52 bf
       -0.051519766 -0.35962057 -0.76768243 -0.8207849
000060 ed 68 db be af 97 42 3e 99 21 3d be 0f 7e 04 bf
       -0.4285349 0.19003175 -0.18469848 -0.5175485
000070 59 a6 d3 be 7a 9c d2 bc 71 94 37 3e 17 6d a1 be
       -0.4133785 -0.02570938 0.1792772 -0.3152854
000080 30 c2 6b be f1 3d 45 be 69 e7 83 be 0a bf 99 bd
       -0.23023295 -0.1926191 -0.2576249 -0.07507141
000090 20 61 72 be 21 6d c9 3d c6 00 18 3e 6d 79 8e 3c
       -0.23669863 0.09835268 0.14844045 0.017391885
0000a0 fd 4f 17 bf 69 dc e1 be 79 28 4e bf de cb bb be
       -0.5910643 -0.44113472 -0.80530506 -0.36678976
0000b0 ec c2 ad be a8 20 b2 3d 5b bf 8e be 37 09 18 bf
       -0.33937776 0.08697635 -0.27880368 -0.5938906
0000c0 74 02 a3 be c4 d6 12 be f0 ad 48 be d0 93 c9 be
       -0.3183781 -0.14339739 -0.19597602 -0.39370584
0000d0 f2 c0 97 bc ef 32 0c bf 9c bd 07 bf f7 13 14 bf
       -0.01852462 -0.5476522 -0.53023696 -0.57842964
0000e0 25 bc 06 be 91 c2 a8 be 3b 46 db be 52 ab 87 3d
       -0.13157709 -0.32960942 -0.4282702 0.06624474
0000f0 ad b7 1d 3d da 06 c3 be ee 99 a7 3d 8f b7 81 be
       0.038505245 -0.38091165 0.08183657 -0.25335357
000100 42 b0 bf be 44 0d 5e 3e 39 8e 45 bf 8b f2 93 bd
       -0.37439162 0.21684748 -0.7717014 -0.07223996
000110 61 33 03 bf 45 26 bd be 12 32 fc be d8 e2 de bd
       -0.51250273 -0.3694326 -0.4925695 -0.10883111
000120 89 d8 13 be df 31 6a bf 8a 27 36 be 11 85 88 3e
       -0.1443807 -0.9148235 -0.1778852 0.26664022
000130 23 38 d1 be 9a a1 01 bf d0 d3 11 be 45 c6 2e be
       -0.4086314 -0.5063721 -0.14240956 -0.17067821
000140 4d 43 06 bd 02 57 0c be 3f 8e 41 be 57 ab fa be
       -0.032779027 -0.13705066 -0.18901919 -0.48958847
000150 0e 42 c1 be db 02 f6 3d ca 67 a2 3e 7a 51 e4 be
       -0.37745708 0.120122634 0.3171981 -0.44593412
000160 e7 a8 82 be b0 32 bf 3d b3 a3 b3 bd 66 58 a5 bd
       -0.25519487 0.0933584 -0.087714575 -0.08073501
000170 9d 5d dd be 69 be 80 be 50 39 3b be f8 8b bb 3b
       -0.43235484 -0.2514527 -0.18283582 0.0057234727
000180 fe 02 84 bc 6b 0e dd bd 79 d0 14 bf 46 0a 75 3d
       -0.016114708 -0.10793766 -0.58130604 0.05982425
000190 25 b1 2e bf 50 89 f6 bd 70 84 ae be eb a2 8b be
       -0.6823905 -0.12037909 -0.34085417 -0.27272734
0001a0 bd d8 01 be aa 03 ce be 1a e3 a5 be 3d 6f 90 be
       -0.12680335 -0.4023717 -0.32399827 -0.28209868
0001b0 2c 71 6b bf dd 13 ae be aa 54 d1 bd 4e 95 06 bf
       -0.9196956 -0.3399953 -0.102212265 -0.5257157
0001c0 95 cc e9 be f6 f0 04 3e a5 5c 08 bf eb 03 1c bc
       -0.45663896 0.12982544 -0.53266364 -0.0095224185
0001d0 50 cc 47 3d 82 27 1c be f7 d5 1f bd 07 46 8d 3d
       0.048778832 -0.15249446 -0.039022412 0.06898122
0001e0 17 70 21 3e cf e3 8e 3e 63 12 94 3e 54 aa 0d be
       0.15765415 0.2790818 0.28920278 -0.13834506
0001f0 f4 25 da bd ec f5 83 3e f1 76 83 3e b7 73 01 be
       -0.1065177 0.2577356 0.25676683 -0.12641798
000200 bf b0 31 bf f5 7e 10 3d d3 8c d8 be 0d 02 08 be
       -0.6941032 0.035277326 -0.4229494 -0.13282032
000210 10 5f 1b 3e 4f 0f e0 3d 0a 85 a4 3d 04 ff 87 be
       0.15172982 0.1094042 0.08033188 -0.2656175
000220 0f fa bf be af 54 5c be 62 49 aa 3d 32 74 23 3e
       -0.37495467 -0.21516679 0.08314778 0.15962294
000230 9f 32 55 be 25 8d 33 bb ea e0 87 be c9 37 86 be
       -0.20820092 -0.002739736 -0.26538783 -0.26214436
000240 91 c7 61 be 62 50 80 be 8b 14 4a bc 91 d3 94 3e
       -0.22048785 -0.25061327 -0.012333999 0.29067662
000250 a5 fb 95 bd 90 bd dc be 45 f9 69 3e 8c ed 10 bf
       -0.07323388 -0.43113375 0.22848995 -0.5661247
000260 68 c7 bb bd 29 f2 61 be b0 31 1c bf 98 ce 81 be
       -0.09168893 -0.22065033 -0.6101332 -0.2535293
000270 12 62 f5 3d cb 9d 06 be 28 ec 60 be 76 6d 71 be
       0.11981596 -0.1314613 -0.21965086 -0.23576912
000280 73 56 6a bf 05 fa 18 3d a8 76 3b bf 28 61 13 3e
       -0.9153816 0.037347812 -0.7322793 0.14392531
000290 a4 68 5e 3d a5 cf 34 3e a6 e7 87 bf 26 eb 1f be
       0.05429901 0.17657335 -1.0617568 -0.15617046
0002a0 15 fa 71 be a0 a0 34 bf 03 4e 01 be 1c 6f 27 be
       -0.23630555 -0.70557594 -0.12627415 -0.16350979
0002b0 cd ac 6b be 11 55 26 bf bb 20 86 bd 56 15 44 bf
       -0.23015137 -0.6497355 -0.065492116 -0.76595056
0002c0 2b 8c 25 bf 5b 5b 8f bc 2a e8 ee be 17 f4 b1 be
       -0.64667004 -0.017499616 -0.46661502 -0.34756538
0002d0 70 80 bd bd 23 49 a7 be 3b 66 20 bf 4a 38 a6 3d
       -0.09253013 -0.32672986 -0.6265599 0.08116205
0002e0 ff 0e 60 bf 6d be 92 bf 4d 5e 02 bf e9 f2 b0 3e
       -0.8752288 -1.1464363 -0.5092514 0.34560326
0002f0 a8 16 43 3e 66 06 0e bc 2b d0 3d bd 3f 1c 35 3e
       0.19051611 -0.008668518 -0.046341103 0.17686556
000300 bd 24 e7 bd 4e 31 ca bd 2b 61 ed bc cf f8 1b be
       -0.11286304 -0.098726854 -0.028976997 -0.15231632
000310 d6 d7 86 be 30 56 2a bf a0 d9 be 3d eb 96 fb be
       -0.26336545 -0.6653776 0.093188524 -0.4913858
000320 fa 5a f1 bd f5 5c 03 bf 2e 89 45 bc e9 a2 91 bd
       -0.117849305 -0.51313716 -0.012056632 -0.07111151
000330 aa 92 a5 be df 71 85 be e3 48 2a 3d d2 5b 45 be
       -0.32338458 -0.2606344 0.041573416 -0.19273308
000340 f3 84 62 bf ca 5b 54 3e c8 ba 14 be 5d b5 fa be
       -0.88484114 0.2073814 -0.14524376 -0.48966494
000350 34 42 ff bc 3c fb 00 bf d2 52 0c be 58 dc 76 be
       -0.031159498 -0.50383353 -0.13703468 -0.24107492
000360 8d 3d 54 bd d9 1c ac be 04 bd 66 be 28 06 49 be
       -0.051816512 -0.3361576 -0.22533041 -0.19631255
000370 c9 af 43 3e cf bb b5 be b5 df 39 3e e9 1c 12 bf
       0.19110025 -0.3549485 0.18151744 -0.57075363
000380 18 dc f1 be 7b 63 2f 3d 18 ae e8 be a7 77 1a bf
       -0.4723823 0.04281948 -0.45445323 -0.60338825
000390 4a f3 ed be 2c 7d 3f be cd 11 9e be 13 d9 43 3e
       -0.46474677 -0.18700093 -0.30872956 0.19125776
0003a0 4b 4b bb bd d7 65 c6 be f5 05 02 be 8b 1b 4b 3e
       -0.0914522 -0.38749573 -0.12697585 0.19834726
0003b0 10 bb 9b be 05 35 b6 be d3 d3 24 3e 4b 5e e6 bd
       -0.30416155 -0.35587326 0.1609643 -0.11248454
0003c0 7f 99 99 be 63 cf 94 be 7b 92 f9 3d 2e ae 2f 3b
       -0.2999992 -0.29064474 0.12186142 0.00268067
0003d0 27 67 82 bd 3d 7f d8 3c ad c6 e0 bc 7f 7c 36 be
       -0.06367331 0.02642786 -0.027438486 -0.17820929
0003e0 dd 25 b9 3d a9 5d df be ca 40 86 bd ce 54 4d be
       0.09040425 -0.43626145 -0.06555326 -0.20051882
0003f0 61 cb 09 be fe 29 57 bd f0 43 cb bd e0 b3 c0 bd
       -0.13456489 -0.05253028 -0.099250674 -0.094093084

classify.bias f4 [208]
000000 d7 36 69 be d2 77 9c bd 43 63 48 3d 1c 75 f6 bd
       -0.22774826 -0.076400414 0.04892279 -0.120340556
000010 db 15 37 be c8 c3 df be 1e 8f d2 be 7a 5d f4 be
       -0.17879431 -0.43704057 -0.41124815 -0.47727567
000020 6e 29 3d be 8d 58 10 bc 6e 0a d6 be dc 8d ef be
       -0.18472835 -0.008810175 -0.41804832 -0.46787918
000030 19 1d 13 be 9a 61 dc be 73 55 f9 be 10 8f f2 bd
       -0.14366569 -0.43043214 -0.48698005 -0.11843693
000040 a3 ee b5 3d eb 5d b1 be 20 ea 1b bf b4 2b 76 bd
       0.08883407 -0.34641966 -0.6090412 -0.060100272
000050 80 6d 02 3e 9c 76 f0 be f6 b0 d9 bd ab 90 05 be
       0.12737083 -0.46965492 -0.10629456 -0.13043468
000060 5b 6f 18 be c4 03 dd be 9e 8c ea be 20 db ed be
       -0.14886229 -0.43166935 -0.45810407 -0.46456242
000070 95 d0 a5 3d ad a0 10 bf 32 dc eb be 9a d6 df be
       0.080964245 -0.5649517 -0.46066433 -0.43718415
000080 e0 f9 bf 3b f5 a4 9d bc fe a2 22 bd 75 50 f3 bd
       0.005858645 -0.019243697 -0.039706223 -0.1188058
000090 b2 82 f4 bc 18 0e 17 3d 12 55 07 be 26 cb 1f bd
       -0.029847477 0.036878675 -0.13216045 -0.039012097
0000a0 2c f5 12 be fe 8b e5 be db 8c c2 be ba c7 65 3d
       -0.14351338 -0.44833368 -0.3799809 0.056098677
0000b0 d4 15 3b bd a2 3e f2 3d 20 d4 c8 3e 09 af 7b 3c
       -0.045675114 0.118283525 0.3922434 0.015361556
0000c0 ee cb c1 bd 8d 79 25 3d 89 17 c8 be 40 34 b0 3d
       -0.094627246 0.040399123 -0.39080456 0.08603716
0000d0 fc 31 ab bd cd b7 0c 3e 0c 0e ec be a2 60 db be
       -0.08359143 0.1374199 -0.46104467 -0.42847162
0000e0 8e ba f6 be 60 9f 0c 3c 71 54 0e be 15 e2 ed be
       -0.48189205 0.00858292 -0.138994 -0.4646155
0000f0 8e 23 61 3d 23 16 85 be 5f ab 4c 3d cf 99 d7 be
       0.05496555 -0.2599345 0.04996812 -0.42109534
000100 41 69 fc be c3 f2 00 bf b7 74 bf 3d a2 05 f0 be
       -0.49299052 -0.50370425 0.093484335 -0.46879297
000110 41 04 e1 be 37 5f dc be f9 42 fb be 95 1e 00 bf
       -0.43948558 -0.43041393 -0.49074534 -0.50046664
000120 96 8d d2 be 65 e0 10 bf ae dd 21 be 80 26 27 bf
       -0.41123646 -0.565924 -0.1580722 -0.6529312
000130 90 70 ed be 95 0a 18 bf 59 47 0e 3e 31 a0 71 bc
       -0.4637494 -0.59391147 0.13894404 -0.014747665
000140 b8 9b 89 3e 56 0b 06 bf b2 d9 ed be 0e be de be
       0.26876616 -0.5236105 -0.4645515 -0.43504375
000150 bc ac 0e bf 47 54 03 bf 3f 15 c4 be bf b7 ef bd
       -0.5573232 -0.5130047 -0.3829746 -0.11704969
000160 8c d2 41 bd cf fa f4 bc eb 18 37 3e 82 81 cc be
       -0.047319934 -0.029904751 0.17880599 -0.39942557
000170 4e 95 d1 be 66 0b 2c 3e 80 f7 38 3d aa 1c 35 bf
       -0.40934223 0.16801223 0.04515791 -0.7074686
000180 6f 82 de be 25 7b 14 bf ef 98 96 3d 60 d4 0f bf
       -0.43458888 -0.58000404 0.073533885 -0.56183434
000190 d7 e2 fc be 9f 6a d2 be c9 a3 ad be c1 c9 11 bf
       -0.49391815 -0.4109697 -0.3391402 -0.5694848
0001a0 43 e0 53 be 3c 69 c1 bd 80 7b 13 be f4 ca 0c bf
       -0.20691018 -0.094439 -0.1440258 -0.5499718
0001b0 2f d4 cf be 55 1b f5 be db 79 2a bd 04 b7 63 be
       -0.4059157 -0.47872415 -0.041620117 -0.22237784
0001c0 9a 01 c1 3d 65 33 87 bd 11 df 87 3d de c6 f4 be
       0.094241336 -0.066015996 0.066343434 -0.47807974
0001d0 1b 38 14 bf 80 4d d5 be 9d 8a f1 be 49 53 01 3e
       -0.5789811 -0.4166069 -0.47176066 0.12629427
0001e0 df 29 34 3d 83 c4 7b 3c 1b 05 a0 bd 14 19 d4 be
       0.043985244 0.015366676 -0.07813474 -0.41425383
0001f0 a1 81 c9 be b5 c3 86 bc 9e 3b 22 bc 3c fb 26 bf
       -0.39356712 -0.016450742 -0.009901909 -0.65227103
000200 0b 65 0e bf e8 ff 02 be ab 68 43 3d 20 85 d7 be
       -0.5562293 -0.12792933 0.04770724 -0.42093754
000210 2c af ed be 96 c3 c6 be 3d 1e af be 4a ac ca be
       -0.46422708 -0.38821095 -0.34202757 -0.3958457
000220 65 65 5a be 32 05 7c be b2 58 9b bd 0a a9 b7 be
       -0.21327741 -0.24611357 -0.07585277 -0.35871154
000230 0c 1b 79 be cc 6d 0d 3e 4d 57 a4 bd 07 97 25 be
       -0.24326724 0.13811415 -0.08024464 -0.16170894
000240 6c 12 8a 3b c5 c0 15 bd 4b e6 00 be 53 69 08 3e
       0.004213622 -0.036560792 -0.1258785 0.13321428
000250 69 be 8b be 7f b6 36 bd 81 3d 84 3d f5 58 88 3c
       -0.2729371 -0.044607636 0.064570434 0.01664398
000260 ef 55 74 be 8b 66 e7 be 49 eb c5 be a0 17 97 3e
       -0.23860906 -0.45195422 -0.3865607 0.29510212
000270 27 36 21 be 07 35 cc be 5f d6 14 bf 61 da c4 be
       -0.15743314 -0.39884207 -0.58139604 -0.3844786
000280 70 ec 09 3e 7f 9e 60 be e2 34 52 bc 08 2b 3e 3d
       0.134691 -0.21935461 -0.012829991 0.046427757
000290 07 ff a9 bc ea 48 d0 be 70 40 da be dc 67 93 3e
       -0.02075149 -0.4068063 -0.42627287 0.28790176
0002a0 aa 94 d1 be ab a9 16 bf c0 e2 ef be 64 60 f1 be
       -0.40933734 -0.5885264 -0.46852684 -0.47143853
0002b0 9c e0 2e 3e 8d 7e 34 3e 4d 90 ff 3d cf 40 d3 be
       0.17077869 0.176264 0.12478695 -0.41260383
0002c0 29 81 ee bd 2c ba 01 3c 77 26 fc bd ec 31 2a bd
       -0.11645729 0.007917922 -0.12312024 -0.041551515
0002d0 31 a6 b8 bd 87 25 7e 3d 75 fa 4e be d9 76 46 3d
       -0.090160735 0.062047508 -0.2021273 0.048453186
0002e0 1d de c4 be e4 eb ec be 92 97 bf 3c b7 f4 c4 bd
       -0.3845071 -0.4627372 0.023387704 -0.09616988
0002f0 de 0f 67 3c f0 0d ed be ed ca bf be b1 00 ef be
       0.014102904 -0.46299696 -0.37459508 -0.46680215
000300 31 af f6 be be df ef be ab 92 7d bb 33 dd cb be
       -0.48180535 -0.4685039 -0.0038692157 -0.398172
000310 c6 ab 84 3d be 73 01 3e a8 b7 cd bd c8 3d f9 be
       0.06478076 0.12641808 -0.10044795 -0.48679948
000320 80 64 f6 bc 58 cb 16 3e b9 a6 10 bd 56 8b e8 be
       -0.030077219 0.14726007 -0.03531525 -0.45418805
000330 e8 1e dd be 2c 30 3e 3e 95 0c 1d 3e 02 19 0f bd
       -0.43187642 0.18573064 0.15336831 -0.03493596
