nnql/scripts/data/r9t12/model347_208_e50.pth (torch, 590743 bytes, 6 tensors)

layers.0.apply_mod.linear.weight f4 [256, 108]
-0.10332476 -0.0684648 -0.56137675 -0.5695846 -0.34435448 -0.3160815 -0.15843531 -0.0945709
-0.18738323 -0.22339788 0.36289585 0.32121566 -0.44852328 0.07003057 -0.12566878 0.2956395
-0.19492069 -0.064575575 -0.12469109 0.4343042 -0.29334962 -0.034215298 0.0228566 0.39012054
0.53778565 0.057067223 0.018755583 0.40956828 -1.1108997 0.20427972 0.30968764 -0.32218373
-0.51144344 -0.5475107 -0.4163724 0.04625356 0.07728725 0.22008301 -0.22652383 0.121817894
-0.56166923 -0.48278567 -0.2770034 -0.42629948 -0.15095857 -0.3334977 0.107650116 0.024513511
0.46229753 0.48790407 0.50215214 -0.37787265 0.19437535 -0.106087156 0.22419143 -0.27154925
-0.21054028 -0.2713195 -0.1794473 -0.1443418 -0.04493597 -0.586612 -0.14404653 0.15572031
0.016950486 -0.010407535 -0.17093086 -0.0057356693 0.17992309 0.62925535 -0.075631715 -0.05067897
-0.04741404 0.28780067 -0.3535815 -0.0742804 0.034281492 0.03451035 0.013783789 -0.06398829
0.086701535 0.1053289 -0.30586767 0.033962395 -0.0355459 -0.5142046 -0.11641879 -0.2365015
-0.046840332 0.042889882 4.2261283e-05 -0.28752363 0.030491445 0.065789185 -0.00972614 -0.322463
-0.17243113 -0.1438977 0.052442074 -0.3515743 -0.39127064 -0.09336838 -0.1900334 -0.26103815
-0.088818654 -0.3688631 -0.19630769 -0.25995192 -0.28594738 -0.1035598 -0.07698004 -0.09281587
-0.098043576 -0.44471624 -0.09130247 -0.20380062 -0.10919646 0.13020878 -1.0177294 0.34812874
-0.4721059 -0.44636762 -0.20487717 -0.16048904 -0.26156166 0.05215241 -0.071191065 -0.85537684
0.022977656 0.50581944 -0.54429185 -0.41640243 -0.58414245 -0.60720116 0.003868992 -0.3100647
0.41247103 0.26945978 0.5838622 -0.13984889 -0.4285288 0.038042847 -0.14065363 -0.053784776
-0.21973178 -0.13641724 -0.07394625 0.03187924 0.3388411 -0.2864825 -0.2851193 0.017961565
-0.13787743 0.24097613 -0.54337984 0.53698474 -0.37566042 0.21535668 -0.118062034 0.10890437
-0.08830893 -0.13547207 -0.23142253 -0.061183702 0.08846997 -0.09614649 -0.10037557 -0.2913641
0.09191554 -0.18708698 0.020260928 0.21451099 0.13096862 -0.028838756 0.2536754 0.022648452
-0.18664537 0.0402405 -0.09340747 0.10576294 0.0984007 -0.09421357 -0.002877279 -0.28092843
0.046464447 -0.14513281 -0.14779608 -0.064580105 -0.085250966 0.08402144 0.3278446 -0.14977704
0.019344356 -0.0033803878 0.15252651 0.15007965 0.29161155 -0.019092921 0.005801994 0.14393523
-0.60932934 0.34657538 -0.22508925 -0.20936067 0.12701333 -0.023626944 -0.14091486 -0.14464791
-0.21923071 0.33502355 -0.06768468 -0.2847134 -0.4291467 -0.47040004 -0.11992302 0.24735871
-0.361452 0.15028992 -0.13952792 -0.1284316 -0.42338905 0.48676825 -0.27374503 -0.3310526
0.00083547964 0.17299382 0.031001564 0.033657536 -0.38871542 0.11822108 0.09829364 -0.21984357
-0.15640503 -0.19673686 0.20380531 -0.72979605 0.21135466 -0.5397301 -0.27927965 -0.1824053
-0.5991727 -0.2593338 -0.031533062 0.04348348 0.32890302 -0.32507575 -0.7110683 -0.44368285
-0.20568298 0.039914653 -0.20701092 -0.04349986 0.22189392 -0.87985456 0.5538676 0.3776373
00000000: ef9b d3bd 4637 8cbd 63b6 0fbf 4cd0 11bf
00000010: 3b4f b0be 6fd5 a1be de3c 22be 63ae c1bd
00000020: 64e1 3fbe 6ac2 64be 7ccd b93e 6176 a43e
00000030: d8a4 e5be 306c 8f3d 51af 00be 0f5e 973e
00000040: 4a99 47be 3340 84bd 0b5e ffbd 1f5d de3e
00000050: ec31 96be 5725 0cbd c43d bb3c e1bd c73e
00000060: 52ac 093f 52bf 693d 4fa5 993c efb2 d13e
00000070: f631 8ebf b42e 513e 618f 9e3e 44f5 a4be
00000080: f5ed 02bf a929 0cbf c32e d5be 5f74 3d3d
00000090: c748 9e3d 715d 613e ddf5 67be a97b f93d
000000a0: 8ec9 0fbf af2f f7be 64d3 8dbe ed43 dabe
000000b0: e294 1abe 36c0 aabe aa77 dc3d 8fd0 c83c
000000c0: 43b2 ec3e 90ce f93e 0b8d 003f 8678 c1be
000000d0: 550a 473e 3944 d9bd 7092 653e 8108 8bbe
000000e0: df97 57be 64ea 8abe 08c1 37be 56ce 13be
000000f0: c80e 38bd 342c 16bf ef80 13be 2575 1f3e
00000100: bfdb 8a3c 5e84 2abc 8008 2fbe 48f2 bbbb
00000110: c23d 383e e116 213f cde4 9abd c094 4fbd
00000120: 3935 42bd 9c5a 933e a208 b5be 5320 98bd
00000130: c06a 0c3d ba5a 0d3d 67d5 613c 4b0c 83bd
00000140: 9390 b13d aeb6 d73d b09a 9cbe 271c 0b3d
00000150: 9498 11bd eaa2 03bf f96c eebd 732d 72be
00000160: a6db 3fbd 4dad 2f3d b541 3138 4c36 93be
00000170: 32c9 f93c 7bbc 863d 635a 1fbc df19 a5be
00000180: c991 30be eb59 13be 80cd 563d 8c01 b4be
00000190: a054 c8be ec37 bfbd 1e98 42be cba6 85be
000001a0: 8ee6 b5bd a0db bcbe e204 49be 6b18 85be
000001b0: b267 92be 2917 d4bd b6a7 9dbd 3f16 bebd
000001c0: 12cb c8bd d9b1 e3be cafc babd 1cb1 50be
000001d0: 65a2 dfbd 7355 053e f544 82bf ee3d b23e
000001e0: ddb7 f1be 4c8a e4be 52cb 51be 3d57 24be
000001f0: 69eb 85be c49d 553d 9fcc 91bd faf9 5abf
00000200: a33b bc3c 627d 013f b656 0bbf b332 d5be
00000210: 5c8a 15bf 8971 1bbf ea8e 7d3b cdc0 9ebe
00000220: 672f d33e a2f6 893e fe77 153f 8c34 0fbe
00000230: 2068 dbbe d1d2 1b3d 8107 10be 6d4d 5cbd
00000240: 5e01 61be f6b0 0bbe 2271 97bd ce93 023d
00000250: 957c ad3e d6ad 92be 28fb 91be 2224 933c
00000260: be2f 0dbe 72c2 763e f11a 0bbf d577 093f
00000270: 9056 c0be 7686 5c3e 82ca f1bd 4109 df3d
00000280: 50db b4bd 31b9 0abe 07fa 6cbe c39b 7abd
00000290: be2f b53d 73e8 c4bd b591 cdbd ad2d 95be
000002a0: 373e bc3d bb93 3fbe 3ffa a53c c5a8 5b3e
000002b0: a31c 063e 413f ecbc bee1 813e 3f89 b93c
000002c0: f71f 3fbe 39d3 243d 6a4c bfbd 3e9a d83d
000002d0: 4e86 c93d 0bf3 c0bd bb90 3cbb dad5 8fbe
000002e0: 8151 3e3d b29d 14be db57 17be 9342 84bd
000002f0: 0f98 aebd 6f13 ac3d 3fdb a73e 275f 19be
00000300: 0e78 9e3c 7f89 5dbb e92f 1c3e 7bae 193e
00000310: 1c4e 953e c268 9cbc a71e be3b c263 133e
00000320: 02fd 1bbf 5472 b13e cc7d 66be a562 56be
00000330: c80f 023e 4b8d c1bc fc4b 10be 951e 14be
00000340: 047e 60be 3588 ab3e 449e 8abd f4c5 91be
00000350: 1eb9 dbbe 46d8 f0be 339a f5bd 9a4b 7d3e
00000360: 3d10 b9be 9ae5 193e 68e0 0ebe 9383 03be
00000370: 73c6 d8be b039 f93e 4f28 8cbe ba7f a9be
00000380: 1704 5b3a 4b25 313e fef6 fd3c 7cdc 093d
00000390: b505 c7be e51d f23d 2d4e c93d ac1e 61be
000003a0: a428 20be 6375 49be 57b2 503e ead3 3abf
000003b0: 5b6d 583e c02b 0abf befd 8ebe 74c8 3abe
000003c0: 6263 19bf 66c7 84be d028 01bd bc1b 323d
000003d0: fa65 a83e 5470 a6be 9208 36bf 662a e3be
000003e0: 8f9e 52be 8c7d 233d acfa 53be e92c 32bd
000003f0: 2938 633e 263e 61bf 44ca 0d3f ad59 c13e

layers.0.apply_mod.linear.bias f4 [256]
-0.2593966 -0.12741776 -0.05079666 -0.10712158 0.05485977 -0.0006508939 -0.0058449786 -0.31882012
-0.16176899 -0.0889357 -0.27868867 -0.099739 -0.08228767 -0.21922264 -0.37283716 -0.04712423
-0.09562214 -0.08927078 -0.06862857 0.04663277 -0.102556765 -0.047872633 -0.09583255 -0.12485232
-0.16041908 -0.16335793 -0.019506164 -0.126394 0.12389339 -0.17512053 0.05784276 -0.37382317
-0.22658646 -0.16941196 -0.035968464 -0.106159426 0.0012308559 -0.2268797 -0.23166338 -0.03521679
-0.1984073 -0.27483377 -0.27796695 -0.07688827 0.0029081341 0.05652993 -0.084686756 -0.11684595
-0.38774592 -0.20678903 -0.07987844 -0.12374703 -0.11549152 -0.3351512 -0.07910023 -0.13667916
-0.032840908 -0.090404004 -0.24836545 -0.10367103 -0.13808693 -0.46605736 -0.038655158 -0.21263725
-0.31298494 0.011120282 -0.18432774 -0.18047854 -0.0698495 -0.31178287 -0.1615194 -0.035063777
-0.11826439 -0.32724535 -0.092550814 -0.058714185 0.021154104 -0.07067193 -0.3052818 0.08880186
-0.047003243 -0.18448704 -0.042038325 -0.22267507 -0.17839718 -0.2608496 -0.106350765 -0.09123159
-0.081021994 -0.22051753 0.004043312 -0.2179656 0.13058975 -0.21046484 -0.18741687 -0.1502365
-0.14588857 -0.14270061 -0.011768555 -0.06969479 -0.28402805 -0.16480637 -0.17620899 0.01530244
-0.124557786 -0.1251376 -0.06962667 -0.49352533 -0.18644196 -0.08788178 -0.1627389 -0.08699536
-0.11253345 -0.13695809 -0.024321225 -0.14461488 -0.087819435 -0.1534461 -0.19465463 -0.021208579
-0.12007352 -0.11194018 -0.08481282 -0.37334365 -0.14314401 -0.03124309 -0.32208115 -0.25367463
-0.42848107 -0.006744593 -0.041377265 -0.18956342 -0.05245745 0.043479882 -0.09162159 0.039034296
-0.17316745 0.022440134 -0.19385642 -0.18534857 -0.10233587 -0.2347653 -0.065223336 -0.122616455
-0.1526843 -0.21018144 -0.22157332 -0.19671595 -0.018556854 -0.35186628 -0.21022028 -0.11026589
-0.018447276 -0.20698266 -0.17834412 -0.22905247 -0.010862641 0.08937038 -0.20400903 -0.15214537
-0.08417894 -0.06945427 -0.20312026 -0.08030853 -0.33932975 -0.075768314 -0.3635446 -0.04546861
-0.13147719 -0.1645514 -0.26025572 0.058506336 -0.09436383 0.012459416 -0.003024772 -0.31985766
-0.21555243 -0.15901014 -0.07622918 -0.10834644 -0.28501806 -0.12541434 -0.072988816 -0.086893685
-0.19820492 0.023225259 -0.15383486 -0.029130783 -0.18610984 -0.12542829 -0.18410923 -0.140887
-0.12096903 -0.08272971 -0.17640656 0.06922003 -0.18840443 -0.30782828 -0.017657047 -0.27306688
-0.11442954 -0.19620584 -0.16182771 -0.15536492 -0.33033502 -0.14805566 -0.08113155 -0.3627371
-0.230949 -0.17204256 -0.30057088 -0.2248866 -0.22677709 0.060101036 -0.11377975 -0.2614818
-0.2160944 -0.05336852 -0.24301337 -0.3226027 -0.0459943 -0.256653 -0.07728873 -0.1729746
-0.0953536 -0.094191566 -0.2648239 -0.03626941 -0.3252922 -0.17851475 -0.19436514 -0.06622391
-0.21053052 -0.14719325 -0.31471622 -0.029109787 -0.056963924 -0.081762746 -0.068868324 -0.10275166
-0.014781955 -0.13769367 -0.011256525 -0.11125595 -0.023456577 -0.28356838 -0.14659515 -0.033976585
-0.07288235 -0.09618085 -0.16693744 -0.2195218 -0.0556267 -0.2913683 -0.08350627 -0.2816518
00000000: a2cf 84be cd79 02be 2910 50bd 8f62 dbbd
00000010: a3b4 603d c0a0 2aba 3c87 bfbb 643c a3be
00000020: c5a6 25be ec23 b6bd 48b0 8ebe f643 ccbd
00000030: 7086 a8bd e67b 60be 83e4 bebe 5605 41bd
00000040: 8ad5 c3bd 99d3 b6bd 238d 8cbd 0102 3f3d
00000050: 4809 d2bd 1816 44bd db43 c4bd 93b2 ffbd
00000060: e644 24be 4d47 27be 64cb 9fbc 6e6d 01be
00000070: d1bb fd3d cc52 33be 88ec 6c3d c065 bfbe
00000080: 4806 68be 547a 2dbe ab53 13bd 1d6a d9bd
00000090: ac54 a13a 2753 68be 2a39 6dbe 7b3f 10bd
000000a0: 492b 4bbe 03b7 8cbe af51 8ebe 9977 9dbd
000000b0: 6596 3e3b ee8b 673d 4070 adbd ee4c efbd
000000c0: a286 c6be 81c0 53be 4f97 a3bd 156f fdbd
000000d0: d186 ecbd f098 abbe 4dff a1bd 9ff5 0bbe
000000e0: 3084 06bd bc25 b9bd 8353 7ebe 7a51 d4bd
000000f0: a966 0dbe 129f eebe df54 1ebd 94bd 59be
00000100: 903f a0be d831 363c 69c0 3cbe 5ecf 38be
00000110: 410d 8fbd 01a2 9fbe 5765 25be 099f 0fbd
00000120: 9a34 f2bd b48c a7be 488b bdbd 497e 70bd
00000130: 5f4b ad3c 72bc 90bd e54d 9cbe c0dd b53d
00000140: 7986 40bd 2cea 3cbe 6130 2cbd ef04 64be
00000150: c0ad 36be 148e 85be 6ece d9bd a1d7 babd
00000160: dcee a5bd 59cf 61be c27d 843b 6032 5fbe
00000170: 52b9 053e 1884 57be 35ea 3fbe 99d7 19be
00000180: d063 15be 1c20 12be e6d0 40bc 24bc 8ebd
00000190: 206c 91be 00c3 28be 2170 34be 16b7 7a3c
000001a0: 2718 ffbd 1224 00be 6d98 8ebd 5aaf fcbe
000001b0: a4ea 3ebe 5dfb b3bd 07a5 26be a02a b2bd
000001c0: f077 e6bd be3e 0cbe 4e3d c7bc ec15 14be
000001d0: adda b3bd f920 1dbe 8b53 47be 9dbd adbc
000001e0: 1be9 f5bd e540 e5bd 58b2 adbd e626 bfbe
000001f0: 5894 12be 82f1 ffbc d2e7 a4be a4e1 81be
00000200: df61 dbbe bf01 ddbb 357b 29bd ea1c 42be
00000210: a0dd 56bd f617 323d 1aa4 bbbd 6de2 1f3d
00000220: cf52 31be 5fd4 b73c 4c82 46be 04cc 3dbe
00000230: 7895 d1bd 5166 70be d093 85bd 561e fbbd
00000240: 4659 1cbe ce39 57be 1ee4 62be e86f 49be
00000250: 8b04 98bc d127 b4be fc43 57be 15d3 e1bd
00000260: be1e 97bc 43f3 53be d79f 36be bb8c 6abe
00000270: 38f9 31bc d107 b73d bee7 50be ffcb 1bbe
00000280: 0266 acbd 0a3e 8ebd c2fe 4fbe cc78 a4bd
00000290: a1bc adbe 6b2c 9bbd 8522 babe 4b3d 3abd
000002a0: f5a1 06be 2a80 28be 3d40 85be 57a4 6f3d
000002b0: d341 c1bd 9422 4c3c 413b 46bb 62c4 a3be
000002c0: c7b9 5cbe 8ed3 22be 0b1e 9cbd bde4 ddbd
000002d0: e3ed 91be 9e6c 00be 297b 95bd 51f5 b1bd
000002e0: 3bf6 4abe e642 be3c e386 1dbe aea3 eebc
000002f0: 9493 3ebe 4670 00be 2187 3cbe af44 10be
00000300: 9cbe f7bd 326e a9bd eca3 34be 3bc3 8d3d
00000310: 17ed 40be ab9b 9dbe 83a5 90bc 6ccf 8bbe
00000320: 095a eabd 2fea 48be 2ab6 25be fb17 1fbe
00000330: ac21 a9be e79b 17be 4c28 a6bd adb8 b9be
00000340: e57d 6cbe ed2b 30be 6de4 99be ac48 66be
00000350: 4138 68be 812c 763d 5c05 e9bd f1e0 85be
00000360: da47 5dbe f398 5abd 7fd8 78be 2e2c a5be
00000370: 8564 3cbd 0668 83be 8e49 9ebd 4120 31be
00000380: c048 c3bd 82e7 c0bd 0097 87be 3c8f 14bd
00000390: b38c a6be 92cc 36be a807 47be 67a0 87bd
000003a0: 5095 57be d4b9 16be 7c22 a1be a677 eebc
000003b0: 0153 69bd 3a73 a7bd d60a 8dbd 766f d2bd
000003c0: 0330 72bc 92ff 0cbe 4a6d 38bc 29da e3bd
000003d0: 0228 c0bc e02f 91be 0a1d 16be 082b 0bbd
000003e0: 5743 95bd 77fa c4bd a6f1 2abe 53ca 60be
000003f0: d3d8 63bd 3a2e 95be 5605 abbd aa34 90be

layers.1.apply_mod.linear.weight f4 [256, 256]
0.02007958 0.17255679 -0.20482166 -0.28203833 -0.5493424 -0.16462098 -0.1613811 0.27312404
-0.080742955 -0.15959558 0.12956728 0.25954005 -0.07578501 -0.042302523 0.16474308 -0.0061378004
-0.074921265 0.08110332 -0.39408708 -0.08686911 -0.27460077 0.37476596 0.086450815 -0.45056474
0.01632305 -0.19925424 -0.080257624 -0.09110806 -0.17141537 -0.30746523 -0.2588347 -0.16316395
0.21077457 0.10938632 -0.21839128 0.03395868 0.33775052 0.06094494 0.078117214 -0.49929106
-0.2997789 0.033329073 -0.17347515 0.160384 0.02495253 -0.22366445 -0.28646109 -0.27529097
0.042850904 0.102724195 -0.383774 -0.009735216 -0.5217794 -0.14687116 -0.037850495 -0.005561542
-0.11689399 0.0016548495 0.0049599907 -0.049339145 0.18626025 0.017093604 -0.35458353 -0.15286502
0.082968116 -0.8939545 -0.26618433 0.13102067 -0.10048935 -0.13771428 -0.55107236 0.25034165
-0.18560372 0.39582962 -0.11344107 -0.4722499 -0.16521116 -0.43373635 -0.15382506 0.3150927
0.08338821 -0.05744198 -0.43435857 0.0987503 0.04487826 0.014981506 0.24691822 -0.10440618
-0.094468616 -0.19479747 -0.25220186 0.3840411 -0.0013319534 -0.13732815 -0.07559364 0.045079388
0.07239113 0.18750893 -0.041616496 -0.27258202 -0.40871245 0.012963214 0.13705917 -0.1733778
-0.24397628 -0.2965395 -0.0763934 0.18743734 -0.027445864 -0.120938115 -0.356034 0.19215322
-0.13642775 0.13303547 -0.37353978 -0.08999431 -0.05003227 -0.16077222 0.17370097 0.20758736
-0.20387141 -0.16680795 -0.14387596 -0.07970551 -0.24094516 -0.48881304 -0.11412277 -0.026440987
-0.2535806 -0.09677665 -0.049696248 -0.19810367 -0.11853937 -0.010155868 0.28431 0.14614728
-0.49345636 -0.16463152 -0.184528 -0.019267585 0.12437369 0.15518053 -0.3033142 -0.14623076
-0.62510425 -0.28719613 -0.07157641 -0.2705188 -0.22867434 0.12263424 -0.13596092 -0.03145521
-0.13271162 -0.22917497 0.023891121 -0.009242888 -0.07438282 -0.08507163 -0.28718576 -0.25103098
0.24502803 -0.24889863 0.012518676 -0.118831255 -0.13420017 0.119057514 -0.12695038 0.30543807
0.33468953 -0.28426906 -0.227059 -0.0061839563 -0.118280575 -0.3061973 -0.39534888 0.12158112
-0.088625364 -0.17688374 0.03085866 -0.15254697 -0.31154904 0.2939836 -0.4606196 -0.028897326
0.015221102 0.022391653 0.066534 0.17066045 0.23894583 -0.46940562 0.3131951 -0.2894084
-0.34307414 0.053847916 -0.14814143 -0.1853053 0.04576789 0.053140458 -0.2084282 -0.054698665
-0.37355405 0.2949084 -0.3630317 -0.23292193 0.14975448 -0.2697693 -0.2463644 0.18282625
0.06285206 -0.44987658 -0.22490023 0.29273078 -0.38641417 0.14682226 -0.035039067 0.19204248
0.12134125 -0.5094947 0.37689888 -0.023858476 0.122977965 0.28995088 0.08467128 -0.30416763
-0.3320852 0.4168531 -0.1258577 -0.41262215 -0.24314454 -0.11887363 -0.32664812 -0.15558103
0.16765201 -0.31847396 0.017490853 -0.3795975 -0.12462477 0.2107841 -0.4674081 -0.11296697
-0.15687491 0.095060535 0.059890684 -0.2584849 0.17182006 -0.17101686 0.24112663 -0.13486406
-0.25134563 -0.25213912 0.075064495 -0.072242826 -0.08612939 -0.46110085 0.1573221 -0.22810933
00000000: ee7d a43c bab2 303e c5bc 51be 5467 90be
00000010: b4a1 0cbf 6792 28be 1641 25be ead6 8b3e
00000020: 905c a5bd 066d 23be 49ad 043e 6fe2 843e
00000030: 2c35 9bbd 6945 2dbd 69b2 283e 9a1f c9bb
00000040: 5270 99bd 7f19 a63d c8c5 c9be 6fe8 b1bd
00000050: 7998 8cbe 53e1 bf3e 200d b13d 6cb0 e6be
00000060: ebb7 853c 4e09 4cbe 1c5e a4bd dd96 babd
00000070: 8387 2fbe 156c 9dbe fb85 84be 7314 27be
00000080: 4ad5 573e ef05 e03d f7a1 5fbe 4218 0b3d
00000090: a3ed ac3e 67a1 793d ebfb 9f3d 14a3 ffbe
000000a0: 9f7c 99be 1184 083d 78a3 31be b43b 243e
000000b0: 4069 cc3c 4b08 65be 07ab 92be f0f2 8cbe
000000c0: 6e84 2f3d 1061 d23d 077e c4be 7580 1fbc
000000d0: 5693 05bf 6565 16be 1f09 1bbd 993d b6bb
000000e0: 1e66 efbd 89e7 d83a 6b87 a23b d817 4abd
000000f0: 02bb 3e3e e307 8c3c f98b b5be a688 1cbe
00000100: 30eb a93d 34da 64bf 5049 88be 482a 063e
00000110: 5ccd cdbd f904 0dbe 1413 0dbf c82c 803e
00000120: e70e 3ebe 2eaa ca3e cb53 e8bd bdca f1be
00000130: 1d2d 29be b112 debe 5184 1dbe d553 a13e
00000140: 70c7 aa3d 4848 6bbd 3f64 debe 993d ca3d
00000150: 44d2 373d fe74 753c 21d8 7c3e e8d2 d5bd
00000160: c378 c1bd fd78 47be 9a20 81be 09a1 c43e
00000170: f194 aeba c09f 0cbe d7d0 9abd 2aa5 383d
00000180: cd41 943d 5702 403e 0f76 2abd df8f 8bbe
00000190: c242 d1be a963 543c 3d59 0c3e f389 31be
000001a0: ebd4 79be 06d4 97be 2574 9cbd 93ef 3f3e
000001b0: 26d6 e0bc 67ae f7bd 174a b6be d0c3 443e
000001c0: b7b3 0bbe 733a 083e 9b40 bfbe f04e b8bd
000001d0: a3ee 4cbd 79a1 24be abde 313e c891 543e
000001e0: abc3 50be b4cf 2abe 3854 13be a43c a3bd
000001f0: 54ba 76be b445 fabe 33b9 e9bd c59a d8bc
00000200: 51d5 81be d632 c6bd 4b8e 4bbd b0db 4abe
00000210: c5c4 f2bd cc64 26bc 1591 913e a2a7 153e
00000220: 50a6 fcbe 2a95 28be e8f4 3cbe 0ed7 9dbc
00000230: a2b7 fe3d a5e7 1e3e 004c 9bbe 84bd 15be
00000240: d506 20bf 5f0b 93be a796 92bd 7181 8abe
00000250: 9b29 6abe a927 fb3d 5739 0bbe 2ed7 00bd
00000260: 8ee5 07be d8ac 6abe 50b7 c33c 7b6f 17bc
00000270: 0556 98bd 093a aebd 030a 93be 2287 80be
00000280: a1e8 7a3e 48df 7ebe 221b 4d3c cd5d f3bd
00000290: c56b 09be 6dd4 f33d 48ff 01be 6162 9c3e
000002a0: 6d5c ab3e b78b 91be 2882 68be c9a2 cabb
000002b0: 163d f2bd e4c5 9cbe 2b6b cabe 86ff f83d
000002c0: 3781 b5bd 0321 35be 4dcb fc3c 4635 1cbe
000002d0: 5b83 9fbe 0585 963e 55d6 ebbe 16ba ecbc
000002e0: ee61 793c b36e b73c fa42 883d 9dc1 2e3e
000002f0: 37ae 743e ef55 f0be 1c5b a03e 562d 94be
00000300: 6aa7 afbe a28f 5c3d 63b2 17be acc0 3dbe
00000310: 1c77 3b3d cfa9 593d 346e 55be b50b 60bd
00000320: 7a42 bfbe 3cfe 963e 4adf b9be 1683 6ebe
00000330: 3d59 193e 341f 8abe f346 7cbe ce36 3b3e
00000340: 95b8 803d 3956 e6be 3f4c 66be cfe0 953e
00000350: 14d8 c5be 9358 163e 2085 0fbd c9a6 443e
00000360: c381 f83d 3f6e 02bf e4f8 c03e da72 c3bc
00000370: dfdb fb3d 7174 943e 2368 ad3d dcbb 9bbe
00000380: 1207 aabe c56d d53e d7e0 00be 3643 d3be
00000390: e2fa 78be 0574 f3bd 6c3e a7be a250 1fbe
000003a0: f8ac 2b3e 050f a3be fa48 8f3c 9b5a c2be
000003b0: 453b ffbd cad7 573e 1d50 efbe 3a5b e7bd
000003c0: d1a3 20be 19af c23d ef4f 753d 2258 84be
000003d0: 99f1 2f3e 0b1f 2fbe e6e9 763e ce19 0abe
000003e0: 60b0 80be 6118 81be 6abb 993d 0cf4 93bd
000003f0: 9b64 b0bd 6915 ecbe 0b19 213e 7e95 69be

layers.1.apply_mod.linear.bias f4 [256]
0.028037442 -0.11662191 -0.40540951 -0.23011567 -0.24034323 -0.09397887 -0.36922994 0.192919
-0.30008048 -0.08118345 -0.42308977 -0.062538914 -0.14570709 -0.12444209 -0.037259012 0.0083908
-0.02269323 -0.25622076 -0.024315294 -0.144509 -0.3076919 -0.43173546 0.1506785 -0.287756
-0.19475867 -0.7078175 -0.25716478 -0.2612182 -0.19745016 -0.2558153 -0.024787832 -0.09393493
0.0027769806 -0.18752445 0.047218487 -0.07420462 0.08122272 -0.22867073 -0.2919518 0.1136112
0.002104244 -0.08838917 -0.022981048 -0.20580557 -0.14029297 0.096120454 -0.15184793 0.010156739
-0.33696958 -0.26384515 -0.12245204 -0.2179739 -0.3970463 -0.52376753 0.10468043 -0.24613512
-0.23934597 -0.13704506 -0.069081865 -0.30757108 0.14376721 -0.060392134 0.008824894 -0.0032513582
-0.22922315 0.057138678 -0.27859354 0.29409343 -0.19955543 0.24598105 -0.089680634 0.040930215
-0.23208943 0.0064644804 -0.23111507 -0.113922775 -0.076436155 -0.05732069 -0.23994738 -0.50756145
-0.22867294 -0.21587522 -0.13035682 -0.20811304 -0.30045238 -0.26997024 -0.27019015 0.024669394
-0.57981616 -0.24263015 -0.29629523 -0.29812905 0.06649724 -0.13326657 -0.079377204 -0.47494674
-0.19293484 -0.06678672 -0.29726666 -0.2487314 -0.13074966 0.26160225 -0.091564365 -0.16512984
-0.20365842 0.06610367 0.22599918 -0.15991078 -0.032803494 0.08212514 -0.48744538 -0.14668638
-0.12616216 -0.2877505 -0.008294151 -0.23386876 -0.34431493 -0.077119365 0.07675425 -0.34361875
-0.24607386 -0.33696425 -0.26267418 -0.2409412 -0.20574154 -0.5096879 -0.25815073 0.16500755
-0.24968444 -0.15472776 -0.4197187 -0.3036706 -0.14063716 0.0047916854 -0.4600234 0.022447515
-0.24881548 -0.2417581 -0.08634212 -0.041027106 -0.11960495 -0.4049741 -0.14049646 -0.4955864
0.06265101 -0.0886493 0.13735855 -0.46456903 0.036354795 -0.2358004 -0.22367619 -0.28123036
-0.45440805 -0.16614938 -0.277421 -0.15341075 -0.050860133 -0.0584031 -0.049105044 0.12541407
-0.33627114 -0.2580467 -0.24512412 -0.20231128 -0.10045051 0.094172455 -0.37631264 -0.14732215
-0.504674 0.14108893 0.1911067 -0.041152768 -0.3440269 -0.14948393 -0.07486909 -0.22716486
-0.4048833 -0.20536755 -0.17540202 -0.023881545 -0.037313677 -0.27792066 -0.028120587 -0.18488036
-0.18521021 -0.0030174702 -0.3212255 -0.33440426 -0.15732005 0.051456634 0.11712503 -0.34810197
-0.0068295514 -0.08864709 0.14569348 -0.22293225 -0.13467726 -0.1871797 -0.4866978 -0.02364096
-0.15492152 -0.37413296 0.08852064 -0.43766668 -0.42405635 -0.2840432 -0.29617345 0.041970644
-0.042800162 -0.27466926 -0.2367587 -0.34734336 0.24618912 -0.25645387 -0.30408254 -0.2197414
-0.07572033 0.01355558 -0.49980104 -0.09965518 -0.2607272 -0.5114512 -0.118907474 -0.24802624
-0.0019759547 -0.44243643 -0.27743888 -0.4038316 -0.03169143 -0.07837639 0.13939098 -0.1271961
-0.30716574 -0.24431527 -0.52569866 -0.27379704 -0.2919764 -0.14997342 -0.14081228 0.05469662
0.0071584666 -0.090734325 -0.07637515 -0.3514204 -0.15671837 0.26361418 -0.024989821 0.053955954
-0.21292827 -0.13371351 -0.20555037 0.3040232 -0.0644722 -0.06774015 -0.3768584 -0.019133866
00000000: c7ae e53c 78d7 eebd d691 cfbe 71a3 6bbe
00000010: 891c 76be fe77 c0bd b50b bdbe 8f8c 453e
00000020: 26a4 99be 8243 a6bd 399f d8be 6714 80bd
00000030: 3d34 15be 7fdb febd e89c 18bd 9179 093c
00000040: 27e7 b9bc 5e2f 83be de30 c7bc 2bfa 13be
00000050: cb89 9dbe 6e0c ddbe 774b 1a3e c154 93be
00000060: d16e 47be 8733 35bf 1aab 83be 64be 85be
00000070: 6030 4abe 39fa 82be da0f cbbc f560 c0bd
00000080: 01fe 353b 6906 40be 2c68 413d 98f8 97bd
00000090: 1958 a63d a928 6abe b57a 95be fdac e83d
000000a0: 5be7 093b 6205 b5bd c042 bcbc b2be 52be
000000b0: f6a8 0fbe cdda c43d 067e 1bbe 7368 263c
000000c0: 4787 acbe b616 87be 23c8 fabd 8d34 5fbe
000000d0: a749 cbbe a115 06bf b162 d63d d80a 7cbe
000000e0: 1c17 75be 8a55 0cbe cb7a 8dbd f579 9dbe
000000f0: b637 133e be5d 77bd 4a96 103c bd14 55bb
00000100: 79b9 6abe 3f0a 6a3d d0a3 8ebe 6a93 963e
00000110: 4258 4cbe 75e2 7b3e 7baa b7bd 71a6 273d
00000120: daa8 6dbe fed3 d33b 6ea9 6cbe 5850 e9bd
00000130: 8f8a 9cbd 1ac9 6abd c4b4 75be 8cef 01bf
00000140: 3d29 6abe 650e 5dbe 427c 05be 961b 55be
00000150: e5d4 99be 8a39 8abe 5d56 8abe 7817 ca3c
00000160: d56e 14bf 0a74 78be 02b4 97be 5fa4 98be
00000170: b42f 883d 0877 08be 8490 a2bd 382c f3be
00000180: b690 45be 7ac7 88bd 5633 98be 72b3 7ebe
00000190: 3de3 05be bbf0 853e 1986 bbbd cc17 29be
000001a0: d58b 50be 5c61 873d 546c 673e a7bf 23be
000001b0: f55c 06bd 3a31 a83d 7192 f9be f434 16be
000001c0: a730 01be 0954 93be 31e4 07bc 4b7b 6fbe
000001d0: 0c4a b0be c2f0 9dbd 5531 9d3d ccee afbe
000001e0: c9fa 7bbe 9486 acbe 3b7d 86be 4ab9 76be
000001f0: e9ad 52be e87a 02bf 552c 84be bdf7 283e
00000200: 47ad 7fbe f470 1ebe 5fe5 d6be b67a 9bbe
00000210: 3003 10be 9203 9d3b 3088 ebbe dae3 b73c
00000220: 7cc9 7ebe 6f8f 77be 23d4 b0bd 0a0c 28bd
00000230: 71f3 f4bd c458 cfbe 4ede 0fbe 80bd fdbe
00000240: 2c4f 803d c48d b5bd b8a7 0c3e fedb edbe
00000250: c4e8 143d a975 71be 5f0b 65be 6dfd 8fbe
00000260: 2ca8 e8be 1023 2abe 200a 8ebe b517 1dbe
00000270: b752 50bd 1738 6fbd 5f22 49bd 8c6c 003e
00000280: bb2b acbe b21e 84be d101 7bbe b02a 4fbe
00000290: ffb8 cdbd 7ddd c03d 0dac c0be 9edb 16be
000002a0: 5132 01bf 9e79 103e 7ab1 433e ce8f 28bd
000002b0: 4b24 b0be 5112 19be f754 99bd e89d 68be
000002c0: dd4c cfbe df4b 52be 969c 33be 3ba3 c3bc
000002d0: 3ad6 18bd 9e4b 8ebe 255d e6bc 4751 3dbe
000002e0: bfa7 3dbe c0c0 45bb ab77 a4be 0937 abbe
000002f0: 8218 21be 31c4 523d 3fdf ef3d 6c3a b2be
00000300: 6eca dfbb 9b8c b5bd ac30 153e 5a48 64be
00000310: d6e8 09be 09ac 3fbe 7430 f9be b0aa c1bc
00000320: bfa3 1ebe 5b8e bfbe 4f4a b53d d915 e0be
00000330: ea1d d9be 1c6e 91be 0ca4 97be 69e9 2b3d
00000340: 394f 2fbd 73a1 8cbe df70 72be fdd6 b1be
00000350: 0019 7c3e ec4d 83be b5b0 9bbe e403 61be
00000360: 4313 9bbd 3918 5e3c ece5 ffbe 0418 ccbd
00000370: 097e 85be 77ee 02bf c385 f3bd 97fa 7dbe
00000380: 057f 01bb 0787 e2be 780c 8ebe 04c3 cebe
00000390: dfce 01bd cd83 a0bd 82bc 0e3e b23f 02be
000003a0: d444 9dbe c82d 7abe 3094 06bf 202f 8cbe
000003b0: ee7d 95be a292 19be 1831 10be 9009 603d
000003c0: 9291 ea3b ebd2 b9bd 936a 9cbd 60ed b3be
000003d0: c87a 20be 70f8 863e 74b7 ccbc eb00 5d3d
000003e0: de09 5abe 32ec 08be cc7b 52be eea8 9b3e
000003f0: 000a 84bd 59bb 8abd 96f3 c0be a0be 9cbc

classify.weight f4 [208, 256]
-0.08240052 -0.49082947 0.20518349 -1.1937081 -0.16559623 -1.0043392 -0.5062975 -0.009368989
-0.20599593 -0.124262534 -0.23910524 -0.32837752 -0.49325183 -0.5464707 -0.31688413 -0.8497367
-0.65039545 -0.21052536 -0.2711926 -0.008499433 -0.21222155 0.024480462 -0.3947325 0.014053203
0.24876374 -0.26191974 0.048193194 -0.20158766 -0.2709612 -0.15135166 -0.98774195 0.39068484
-0.14122468 0.20015445 -0.70430034 -0.29782093 -0.12452196 -0.12645608 -0.23874025 0.085530594
-0.14494307 -0.36281297 -0.19036306 -0.34173602 -0.8023067 0.01313911 -0.347964 -0.3808357
-0.542752 -0.1284142 -0.6886018 0.0035198312 -0.19240838 0.08222661 -0.7440111 -0.21212447
-0.27388847 0.4158194 -0.29080886 -0.62425053 -0.046121594 -0.54574674 0.051904604 -0.2277781
-0.04501354 -0.6158222 -0.42641744 -0.6095746 0.07450716 -0.17551386 -0.49588606 -0.4742213
-0.40782824 -0.30387136 -0.25603542 -0.46109223 -0.13225126 0.10920361 -0.5007074 -0.10948885
-0.094611265 -0.21489795 -0.10270952 -0.3029499 0.21644402 -0.43710592 -0.14667918 -0.030393517
-0.6001338 0.19105665 -0.11305893 -0.122101 -0.048569124 -0.25731644 -0.09710494 -0.228102
-0.6340483 -0.33137605 0.03257746 -0.6057623 -0.022483123 -0.4613588 -0.12183452 -0.35397726
-0.31252483 -0.53598356 -0.29888222 -0.32784176 0.12242735 -0.42973736 0.18923727 -0.41845292
-0.52882206 0.18584341 -0.43568578 0.07484373 -0.2071523 -0.5001462 0.036791805 -0.70301884
-0.18206936 0.27595013 -0.20719576 -0.06332378 -0.29194224 -0.12525703 -0.37425014 -0.58993685
-0.49872258 -0.48182178 -0.21371749 0.123235665 -0.32722348 -0.35467365 0.0277453 -0.36848447
-0.3385763 -0.36048442 -0.44148684 -0.4611918 -0.34078184 -0.34857425 -0.12468289 -0.33881265
0.25703898 0.16624515 -0.28217784 -0.39021108 -0.1141483 -0.1206869 -0.57276934 -0.12333886
-0.17717366 -0.04914957 -0.14847866 -0.1425862 -0.43486038 -0.09737756 -0.5498692 -0.19312716
-0.114958405 -0.34475458 -0.139401 -0.6305645 -0.275438 -0.32827085 -0.2989661 -0.037130293
-0.34440958 -0.48310924 -0.44807747 -0.054085217 0.25342086 -0.5146874 -0.51535827 -0.27893355
-0.16506882 -0.337123 -0.39076206 0.11039662 -0.55337125 -0.49673983 -0.3331541 -0.15599403
-0.4785307 -0.603229 -0.40386325 0.068387546 -0.61183107 -0.7638723 -0.72160864 -0.3598362
-0.52040076 0.04053409 -0.43561962 -0.047040615 0.17934456 -0.37371984 0.14589268 -0.31549498
-0.50762874 -0.04981243 0.018293288 0.17462493 -0.0113797225 -0.20406194 -0.021672837 0.094871886
-0.40778592 -0.013689516 -0.2521181 -0.27225 -0.42295796 -0.22504431 -0.2901674 -0.07252168
-0.018222755 -0.538972 -0.102594286 -0.46210787 -0.20541696 0.093505874 -0.22351532 0.031903103
-0.2228197 -0.3312557 -0.061254695 0.07570075 -0.44433314 -0.40821558 0.020926561 -0.14532542
-0.4938269 -0.35411617 -0.3980645 -0.32642153 -0.3055921 -0.23132764 -0.15862244 -0.6409473
-0.4773101 -0.7464542 0.18704565 0.08957843 -0.4674924 -1.0095208 0.041830793 -0.4135223
0.12927876 -0.28776464 -0.18998563 0.20493697 0.07071019 -0.38106468 -0.08970309 -0.13241845
00000000: 9bc1 a8bd 004e fbbe 9f1b 523e 6dcb 98bf
00000010: 0f92 29be 308e 80bf b79c 01bf 6380 19bc
00000020: 99f0 52be 5b7d febd 01d8 74be 1921 a8be
00000030: 818b fcbe 81e5 0bbf a33e a2be 5888 59bf
00000040: 5180 26bf f693 57be c2d9 8abe 3541 0bbc
00000050: 9b50 59be 408b c83c 611a cabe 683f 663c
00000060: ecbb 7e3e 581a 86be 3a66 453d ff6c 4ebe
00000070: 6dbb 8abe eefb 1abe a8dc 7cbf d807 c83e
00000080: 349d 10be 4af5 4c3e 074d 34bf fc7b 98be
00000090: 5f05 ffbd b47d 01be 5378 74be aa2a af3d
000000a0: f56b 14be 9fc2 b9be 89ee 42be 06f8 aebe
000000b0: f963 4dbf 6c45 573c 5628 b2be e6fc c2be
000000c0: ccf1 0abf 037f 03be 3548 30bf f8ac 663b
000000d0: b406 45be 6d66 a83d 8377 3ebf 2837 59be
000000e0: 1c3b 8cbe 48e6 d43e e6e4 94be e2ce 1fbf
000000f0: ffe9 3cbd 0fb6 0bbf ec99 543d aa3e 69be
00000100: 1e60 38bd 86a6 1dbf 6353 dabe 150d 1cbf
00000110: 3697 983d e8b9 33be c7e4 fdbe 22cd f2be
00000120: ddce d0be 0795 9bbe 1317 83be 4814 ecbe
00000130: e06c 07be 24a6 df3d 5c2e 00bf b13b e0bd
00000140: 8dc3 c1bd 350e 5cbe 5e59 d2bd 401c 9bbe
00000150: 80a3 5d3e 59cc dfbe 1133 16be d3fb f8bc
00000160: 5ea2 19bf 5ba4 433e 718b e7bd 1710 fabd
00000170: 6bf0 46bd fbbe 83be f4de c6bd 9293 69be
00000180: fd50 22bf 1faa a9be f16f 053d 3d13 1bbf
00000190: 872e b8bc 3837 ecbe 6084 f9bd 823c b5be
000001a0: 4103 a0be 3836 09bf 1707 99be e0da a7be
000001b0: 31bb fa3d 8906 dcbe 6ac7 413e 763f d6be
000001c0: e260 07bf bc4d 3e3e 3512 dfbe ab47 993d
000001d0: bc1f 54be 9509 00bf 01b3 163d 0bf9 33bf
000001e0: 6470 3abe 5649 8d3e 202b 54be e6af 81bd
000001f0: 7479 95be 6143 00be b79d bfbe 1a06 17bf
00000200: 9158 ffbe 58b1 f6be c2d8 5abe fb62 fc3d
00000210: d689 a7be c997 b5be 1d4a e33c ffa9 bcbe
00000220: df59 adbe 6a91 b8be 900a e2be 5521 ecbe
00000230: f57a aebe 5378 b2be be59 ffbd da78 adbe
00000240: 9d9a 833e 2b3c 2a3e 9d79 90be bfc9 c7be
00000250: 95c6 e9bd b22a f7bd 03a1 12bf 1699 fcbd
00000260: 036d 35be 0f51 49bd ca0a 18be 1e02 12be
00000270: 05a6 debe e36d c7bd 3ac4 0cbf 20c3 45be
00000280: 506f ebbd ac83 b0be 23bf 0ebe ad6c 21bf
00000290: 3606 8dbe 1e13 a8be 1612 99be ef15 18bd
000002a0: 7456 b0be 185a f7be 696a e5be 7688 5dbd
000002b0: 61c0 813e 8ec2 03bf 85ee 03bf 61d0 8ebe
000002c0: cd07 29be 639b acbe f711 c8be a017 e23d
000002d0: bda9 0dbf af54 febe 2d93 aabe e6bc 1fbe
000002e0: fa01 f5be 376d 1abf 2ac7 cebe c50e 8c3d
000002f0: f6a0 1cbf 238d 43bf 58bb 38bf 733c b8be
00000300: fc38 05bf 1307 263d 8909 dfbe a9ad 40bd
00000310: 1aa6 373e 3558 bfbe e464 153e 8f88 a1be
00000320: f5f3 01bf 1e08 4cbd cedb 953c e1d0 323e
00000330: 0472 3abc 9df5 50be 3c8b b1bc 314c c23d
00000340: 51c9 d0be fe49 60bc a015 81be 5a64 8bbe
00000350: f28d d8be 0472 66be d290 94be 3f86 94bd
00000360: e347 95bc 12fa 09bf f41c d2bd 6799 ecbe
00000370: d358 52be 0280 bf3d 33e1 64be d4ac 023d
00000380: d92a 64be 599a a9be 34e6 7abd ff08 9b3d
00000390: a27f e3be a201 d1be 2e6e ab3c 30d0 14be
000003a0: e1d6 fcbe b74e b5be 1ccf cbbe b920 a7be
000003b0: 9176 9cbe 27e1 6cbe ec6d 22be 1f15 24bf
000003c0: fd61 f4be 9f17 3fbf e588 3f3e e574 b73d
000003d0: 2a5b efbe fa37 81bf c456 2b3d 32b9 d3be
000003e0: a761 043e e355 93be 988b 42be ffda 513e
000003f0: 81d0 903d e91a c3be 41b6 b7bd b498 07be

classify.bias f4 [208]
-0.051783632 -0.03876913 -0.016870188 -0.018551724 -0.005234967 -0.50907683 -0.46421188 -0.4656196
-0.3109007 0.09711607 -0.3676152 -0.4134815 -0.09601058 -0.3888956 -0.36891553 -0.023985192
0.017995462 -0.48843217 -0.35190663 -0.090461016 0.023656214 -0.37259158 -0.071707435 0.024544073
-0.13708034 -0.5287183 -0.36096045 -0.36763743 -0.02222517 -0.4691842 -0.5833597 -0.45392457
-0.026717266 -0.0058670663 0.06392934 0.1776919 -0.013859826 -0.037599873 -0.18804747 -0.15488534
0.010627175 -0.5065688 -0.3899245 -0.13781168 0.11842609 0.17733906 0.036440622 0.24899746
-0.121768944 0.028958596 -0.4333657 -0.0119623365 -0.079673044 0.04631873 -0.35569862 -0.48765302
-0.57336724 -0.08836945 -0.17725752 -0.36938772 -0.10241001 0.010853895 -0.09368617 -0.37326953
-0.42140013 -0.42270833 -0.0813291 -0.45999417 -0.43660444 -0.405705 -0.39580345 -0.3951752
-0.3514571 -0.5370206 -0.1836687 -0.43640926 -0.5253247 -0.34419897 0.18268813 0.12531781
-0.077100374 -0.39090994 -0.4515979 -0.403592 -0.4549191 -0.46206748 -0.39370483 0.05104808
0.09184204 -0.0414222 0.03816675 -0.44689283 -0.41975683 0.094486505 -0.12302412 -0.40692386
-0.4209417 -0.37284476 0.1649202 -0.35397467 -0.4491062 -0.41642115 -0.51498264 -0.3953765
-0.21985751 -0.017756173 -0.10361473 -0.37224442 -0.39215407 -0.46036744 -0.17225502 -0.23906264
0.19882178 -0.018708447 -0.008360538 -0.35696524 -0.4019604 -0.35291484 -0.50138944 0.20440227
-0.11996497 0.0059725884 0.030183783 -0.37369385 -0.41584864 0.24463545 0.031123394 -0.41831422
-0.42444193 0.023264136 0.043125264 -0.4868006 -0.4324863 -0.38394085 -0.55776995 -0.49924755
-0.1082019 -0.4082791 -0.024253836 -0.3173921 -0.159276 0.020405358 0.014592072 -0.1018817
-0.07415594 0.028362814 0.01931973 -0.14838518 -0.06391768 -0.33350623 -0.15473612 0.042365473
-0.22239313 -0.3310677 -0.35407665 0.10303261 -0.18565297 -0.358892 -0.3387699 -0.4407812
0.15412916 -0.0630833 0.06720298 -0.016732723 0.09208455 -0.41380057 -0.53897065 0.48970696
-0.32566646 -0.45121726 -0.3487991 -0.5748652 -0.016664987 0.06030169 0.11504528 -0.39848483
-0.19660352 -0.07058315 -0.10866583 0.0011857563 0.042937767 0.022994734 -0.11855351 -0.039789494
-0.38549414 -0.40983742 -0.210057 -0.025657179 0.10447075 -0.4140237 -0.5339465 -0.7240646
-0.6629797 -0.48598692 0.07230003 -0.47411814 0.14519946 0.07503389 0.14273278 -0.41416612
0.03765402 0.14566934 -0.08497019 -0.43596348 -0.41576263 0.060803752 0.2941399 -0.07154269
00000000: 131b 54bd 61cc 1ebd 5933 8abc c9f9 97bc
00000010: 168a abbb dc52 02bf 2ead edbe b165 eebe
00000020: 602e 9fbe cae4 c63d 0f38 bcbe d9b3 d3be
00000030: 32a1 c4bd 531d c7be 7fe2 bcbe 987c c4bc
00000040: 386b 933c c813 fabe 1b2d b4be a043 b9bd
00000050: adca c13c 53c4 bebe 59db 92bd a710 c93c
00000060: ca5e 0cbe 155a 07bf cfcf b8be f93a bcbe
00000070: 8f11 b6bc e938 f0be 1057 15bf cd68 e8be
00000080: 2bde dabc 8540 c0bb 63ed 823d def4 353e
00000090: 5314 63bc 5302 1abd 848f 40be 439a 1ebe
000000a0: 9a1d 2e3c 7eae 01bf 2fa4 c7be 811e 0dbe
000000b0: 6189 f23d 5f98 353e c342 153d 31f9 7e3e
000000c0: ff61 f9bd 943a ed3c 1ce2 ddbe adfd 43bc
000000d0: 9f2b a3bd b5b8 3d3d 211e b6be a8ad f9be
000000e0: 32c8 12bf 0bfb b4bd ff82 35be 6320 bdbe
000000f0: 57bc d1bd 89d4 313c 89de bfbd 2f1d bfbe
00000100: c2c1 d7be 3a6d d8be df8f a6bd 5b84 ebbe
00000110: 9e8a dfbe 91b8 cfbe c0a6 cabe 6754 cabe
00000120: 2ff2 b3be 2f7a 09bf a613 3cbe 0971 dfbe
00000130: ae7b 06bf d93a b0be 9912 3b3e 5053 003e
00000140: cde6 9dbd 5925 c8be d737 e7be 9ca3 cebe
00000150: 28eb e8be 1c94 ecbe ae93 c9be cb17 513d
00000160: ae17 bc3d 53aa 29bd bd54 1c3d 23cf e4be
00000170: 5eea d6be 2482 c13d 12f4 fbbd 5358 d0be
00000180: ac85 d7be 82e5 bebe d7e0 283e 2b3c b5be
00000190: 3ff1 e5be 2735 d5be e7d5 03bf ca6e cabe
000001a0: 5422 61be 6575 91bc f633 d4bd d296 bebe
000001b0: 6bc8 c8be 48b5 ebbe 9f63 30be d6cc 74be
000001c0: f097 4b3e 7542 99bc a3fa 08bc 26c4 b6be
000001d0: c1cd cdbe 41b1 b4be 0f5b 00bf d44e 513e
000001e0: 32b0 f5bd b4b5 c33b fb43 f73c cd54 bfbe
000001f0: 1dea d4be b781 7a3e 7df6 fe3c 482d d6be
00000200: 7450 d9be 6e94 be3c 1ea4 303d ee3d f9be
00000210: d86e ddbe e593 c4be 03ca 0ebf 609d ffbe
00000220: f598 ddbd f509 d1be fbaf c6bc 3881 a2be
00000230: 3f19 23be 2329 a73c 9613 6f3c 5aa7 d0bd
00000240: 12df 97bd 2259 e83c 6944 9e3c 49f2 17be
00000250: 46e7 82bd 54c1 aabe 2573 1ebe 6b87 2d3d
00000260: 06bb 63be b581 a9be 8949 b5be c302 d33d
00000270: d01b 3ebe b1c0 b7be 4073 adbe 13ae e1be
00000280: 09d4 1d3e d131 81bd b7a1 893d 1013 89bc
00000290: d396 bc3d abdd d3be fbf9 09bf dfba fa3e
000002a0: c1bd a6be f305 e7be cc95 b2be 5e2a 13bf
000002b0: 0385 88bc e8fe 763d dc9c eb3d 3406 ccbe
000002c0: 6f52 49be e68d 90bd 318c debd 616b 9b3a
000002d0: 83df 2f3d 745f bc3c 2fcc f2bd 4ffa 22bd
000002e0: 7d5f c5be 36d6 d1be 2f19 57be 012f d2bc
000002f0: c3f4 d53d eafa d3be b8b0 08bf 4c5c 39bf
00000300: 0ab9 29bf 47d3 f8be 0a12 943d 9dbf f2be
00000310: 2baf 143e 5eab 993d 8b28 123e 950d d4be
00000320: 1a3b 1a3d 582a 153e da04 aebd 9b36 dfbe
00000330: d7de d4be 5b0d 793d 8199 963e f984 92bd
