nnql/scripts/data/r9t12/model347_26_e50.pth (torch, 403607 bytes, 6 tensors)

layers.0.apply_mod.linear.weight f4 [256, 108]
0	0xbe9ad87b	-0.30243286
1	0x3e27fbee	0.16404697
2	0x3e08cb6d	0.13358851
3	0x3e4ab822	0.19796804
4	0x3dd9d89e	0.106370196
5	0xbe873437	-0.26407024
6	0xbe85026a	-0.25978404
7	0xbefda7c1	-0.4954205
8	0xbd8c23b9	-0.06842751
9	0x3cd6cbbe	0.026220199
10	0xbe6e93e8	-0.2329861
11	0xbe9d2a34	-0.3069626
12	0x3e79d868	0.24398959
13	0xbd08c6f9	-0.03339288
14	0xbdd6419a	-0.10461731
15	0xbe8edc5b	-0.27902493
16	0xbec08a9a	-0.37605745
17	0xbcd2d440	-0.025735974
18	0xbed9487f	-0.42438123
19	0xbdeac55e	-0.11463426
20	0xbec5654b	-0.38553843
21	0xbe9a3767	-0.30120394
22	0xbdda1121	-0.10647798
23	0x3e2fc5aa	0.17165247
24	0x3e8e6746	0.27813166
25	0x3d9062bb	0.07050081
26	0xbd575f82	-0.052581318
27	0xbea95989	-0.33076122
28	0xbea6eb4b	-0.3260139
29	0xbe2b048e	-0.16700956
30	0x3e6bc87d	0.23025699
31	0xbeb98a70	-0.36238432
32	0xbd9b9f69	-0.075987644
33	0xbe210a15	-0.15726502
34	0xbd939ff9	-0.07208247
35	0x3d0dd060	0.03462255
36	0x3cbd7bc3	0.023130303
37	0x3eb00e89	0.3438609
38	0xbe875c2c	-0.2643751
39	0xbe51f5f1	-0.20503975
40	0x3d99ee09	0.07516105
41	0xbe45927b	-0.19294159
42	0x3e53d91f	0.20688294
43	0xbe7ab56e	-0.24483272
44	0x3c905948	0.017620698
45	0xbf1eaf7b	-0.6198651
46	0xbde77de8	-0.113033116
47	0xbe92ba0f	-0.28657576
48	0xbe0efd76	-0.13963875
49	0x3e9b8eb6	0.30382317
50	0xbf110783	-0.56652087
51	0x3e8c32ac	0.2738241
52	0xbdbf671c	-0.093458384
53	0xbe82a9a5	-0.25520054
54	0xbec5586b	-0.3854402
55	0xbea2eeae	-0.31822723
56	0xbed6dd9d	-0.41965953
57	0xbe886978	-0.26642966
58	0xbd9958d9	-0.074876495
59	0xbf01409e	-0.50489223
60	0xbedda2d7	-0.432883
61	0xbe824ad8	-0.25447726
62	0xbe370d42	-0.17876151
63	0x3dccfae3	0.1000879
64	0xbe80ca06	-0.25154132
65	0xbdb9cce5	-0.09072284
66	0x3d1b3e0a	0.037900962
67	0x3e17b588	0.14815342
68	0xbe609c1b	-0.2193455
69	0xbe5bcf41	-0.2146578
70	0xbdc48e0b	-0.09597405
71	0xbd7223ba	-0.059116103
72	0xbe45b79e	-0.19308326
73	0xbd290514	-0.04126461
74	0xbee268d8	-0.44220614
75	0xbea7d5c6	-0.32780284
76	0x3d457697	0.0482088
77	0x3d767016	0.060165487
78	0x3d08f86e	0.033440046
79	0x3c4e22c6	0.012581533
80	0xbd5ddf49	-0.05416802
81	0x3e6f155c	0.23347992
82	0xbd90495b	-0.070452414
83	0xbcc9201e	-0.024551447
84	0x3d33aad5	0.04386409
85	0x3e0f68ba	0.14004794
86	0x3e283a68	0.1642853
87	0xbdaa0277	-0.083012514
88	0x3d01dc01	0.031703953
89	0x3d3a5d7c	0.04549931
90	0xbda3b8ca	-0.0799423
91	0xbe2662ec	-0.16248673
92	0x3ec3dcba	0.38254339
93	0xbe9063b5	-0.2820107
94	0xbcec1f1d	-0.02882343
95	0x3e84fc80	0.25973892
96	0x3d9598cb	0.073045336
97	0xbd55264d	-0.05203848
98	0xbe53a3b2	-0.20667914
99	0xbe377d4c	-0.1791889
100	0x3e0cf5c8	0.13765633
101	0xbe7e328b	-0.24823968
102	0x3dae65f0	0.08515537
103	0xbb6a19da	-0.0035720975
104	0x3e10336e	0.14082119
105	0x3ecdaf4e	0.4017281
106	0x3e5af5a8	0.21382773
107	0xbe9d6d0f	-0.30747268
108	0xbea5df9c	-0.32397163
109	0x3d372fa1	0.044723157
110	0xbe5cc127	-0.21558057
111	0xbf9fbf6f	-1.2480296
112	0xbd9cebf7	-0.07662194
113	0xbe0a4932	-0.13504484
114	0xbeb8a0a3	-0.36060056
115	0x3e28e42a	0.16493288
116	0xbd9d5fcb	-0.07684287
117	0xbe02d679	-0.12777127
118	0xbf4b470e	-0.79405296
119	0x3e3bcb0e	0.18339178
120	0x3f06460d	0.5245064
121	0x3cb2413c	0.021759622
122	0x3ecc0075	0.398441
123	0xbe00374f	-0.12521099
124	0x3ea3c93e	0.31989473
125	0x3d00bc49	0.031429563
126	0x3de93749	0.11387498
127	0x3eff4099	0.49853972
128	0xbe239505	-0.15974815
129	0xbeae6726	-0.3406307
130	0xbe58cd88	-0.21172154
131	0xbd76b23d	-0.060228575
132	0x3dc05dda	0.09392901
133	0xbdbf6d76	-0.0934705
134	0xbd03e71a	-0.032202817
135	0x3dfc66eb	0.123243175
136	0xbd8ed7f2	-0.06974782
137	0x3e951007	0.2911379
138	0xbe0dbe6d	-0.13842173
139	0xbed5be42	-0.41746718
140	0xbdad35ae	-0.08457504
141	0x3e61ffd8	0.22070253
142	0xbb8d6be7	-0.0043158415
143	0x3a826350	0.000994781
144	0x3ec410e0	0.38294125
145	0xbea8bde8	-0.32957387
146	0xbee16569	-0.44022682
147	0xbf2bb7d9	-0.67077404
148	0xb9fe77d9	-0.0004853595
149	0xbd970232	-0.073734656
150	0xbdeb0a0e	-0.11476527
151	0xbeae666c	-0.34062517
152	0xbdc4c1e8	-0.09607297
153	0xbe9f2d81	-0.31089404
154	0xbda9d583	-0.08292677
155	0x3f11c210	0.5693674
156	0x3ea09a81	0.31367877
157	0x3e2b1f85	0.16711242
158	0x3e0cf92f	0.13766931
159	0x3dfc5625	0.12321118
160	0xbe9209de	-0.28523153
161	0xbcc4ae52	-0.024008904
162	0xbd507eb8	-0.0509021
163	0x3dc5e4ab	0.096627556
164	0xbdbd7aab	-0.09251913
165	0x3e8f2a2c	0.27961862
166	0x3edd244c	0.43191755
167	0x3ea61bfd	0.32443228
168	0xbf01e106	-0.50733984
169	0xbe892734	-0.26787722
170	0xbb0ebc96	-0.0021779886
171	0xbe000904	-0.12503439
172	0xbede3517	-0.4339988
173	0xbb9f2cfa	-0.0048576565
174	0x3e0e22f5	0.13880523
175	0x3e499e2d	0.19689246
176	0xbd08ff06	-0.033446334
177	0x3e90bb18	0.2826774
178	0x3e102e08	0.1408006
179	0xbe91d7c6	-0.28484935
180	0x3eb4b4f7	0.35294315
181	0x3ec5554a	0.38541633
182	0xbe4161e3	-0.18884997
183	0xbe3a3030	-0.18182445
184	0xbd484a39	-0.04889891
185	0x3d51d8aa	0.051232018
186	0xbe468799	-0.19387664
187	0xbd1e8d61	-0.03870905
188	0x3da96079	0.08270354
189	0xbe3cea4b	-0.1844875
190	0x3e1b5ec5	0.1517287
191	0xbe17c97f	-0.14822958
192	0xbe2294c4	-0.15877062
193	0xbe1dbfc3	-0.15405183
194	0xbe6bf49d	-0.23042531
195	0xbdffe6a0	-0.1249516
196	0xbc175117	-0.009235642
197	0xbb729210	-0.003701333
198	0xbe242d21	-0.1603284
199	0xbf711878	-0.9417796
200	0xbf703d1b	-0.9384324
201	0x3cb749a6	0.022373985
202	0x3ea9dd65	0.33176723
203	0x3e43da07	0.1912614
204	0x3d2fb362	0.042895682
205	0xbd3b5bd3	-0.045741867
206	0xbd059617	-0.03261384
207	0x3e2a3b03	0.16624074
208	0xbd8cdbb5	-0.06877843
209	0xbdb3f50b	-0.087869726
210	0xbe2f78fb	-0.17135994
211	0x3cfb22e0	0.030656278
212	0xbea1ea89	-0.3162425
213	0xbea97a3a	-0.33101064
214	0xbe204072	-0.15649584
215	0xbd965a78	-0.07341474
216	0xbe7734e7	-0.24141274
217	0x3e46d46f	0.19416974
218	0xbe9ed77d	-0.3102378
219	0xbf083e19	-0.53219754
220	0xbe688f9f	-0.22711037
221	0xbe89fa31	-0.26948693
222	0xbdd45f00	-0.10369682
223	0xbe2955a6	-0.16536579
224	0xbaed6469	-0.001811159
225	0xbe87584c	-0.26434553
226	0xbdc8ad4b	-0.09798678
227	0xbd9bdf83	-0.07610991
228	0x3eb4090b	0.3516315
229	0xbe4a0cda	-0.19731465
230	0xbe86fd68	-0.2636521
231	0xbc9e3e4f	-0.01931682
232	0xbdc11e28	-0.0942958
233	0x3db641d8	0.088992774
234	0xbeb5dbb2	-0.35519177
235	0x3eb8d106	0.36096972
236	0xbe58a54a	-0.21156803
237	0x3d9b0ff6	0.07571404
238	0x3d933ca5	0.071893014
239	0x3f0eda40	0.55801773
240	0x3f5bc55d	0.8584803
241	0xbde7fc1a	-0.113273814
242	0x3cab153d	0.02088415
243	0x3d911f2e	0.07086025
244	0xbe41610b	-0.18884675
245	0xbeefc878	-0.46832633
246	0xbe3c249d	-0.18373342
247	0xbe9dfa02	-0.30854803
248	0xbe299aaf	-0.16562913
249	0xbd0090c5	-0.031388063
250	0xbe348e80	-0.17632484
251	0xbd064be3	-0.032787215
252	0x3e4d1184	0.20026213
253	0xbea1d134	-0.31604922
254	0xbd7deee2	-0.061995395
255	0xbf12c303	-0.57328814

layers.0.apply_mod.linear.bias f4 [256]
0	0xbe2202c6	-0.1582137
1	0xbe2da5d7	-0.16957794
2	0xbe01a550	-0.12660718
3	0xbe249046	-0.16070661
4	0xbe10c005	-0.1413575
5	0xbe22333f	-0.15839861
6	0xbe9b4aff	-0.30330655
7	0xbd45bc19	-0.048275087
8	0xbe81903b	-0.25305352
9	0xbdfee1cf	-0.12445413
10	0xbe21d996	-0.15805659
11	0xbe617709	-0.22018065
12	0x3d4273e4	0.047473803
13	0x3c723b15	0.014784594
14	0xbdcdad32	-0.100428
15	0xbc3ed343	-0.011647048
16	0xbd158cda	-0.03651128
17	0xbd5899e3	-0.052881133
18	0xbe3b8b71	-0.18314911
19	0xbe56a9b0	-0.20963168
20	0xbea917c9	-0.3302596
21	0xbe4c46c4	-0.1994887
22	0xbe164280	-0.14673805
23	0x3dde7dbe	0.10863827
24	0xbeb4ce4a	-0.35313636
25	0xbe97a7e5	-0.2962028
26	0xbe41e3eb	-0.189346
27	0xbd58f18d	-0.052964736
28	0xbe900527	-0.2812893
29	0xbda9c9ab	-0.08290418
30	0xbe618823	-0.22024588
31	0xbe74de1e	-0.23912856
32	0x3d6f7d3e	0.05846905
33	0xbe4d358a	-0.20039955
34	0xbe0173ba	-0.12641802
35	0xbcd70d25	-0.026251385
36	0xbca0217a	-0.019547213
37	0xbea092a8	-0.3136189
38	0xbe185fb2	-0.14880255
39	0xbe823aa4	-0.25435364
40	0x3e4dc999	0.20096435
41	0xbd3f014c	-0.046632096
42	0xbe706703	-0.23476796
43	0xbe7d89b2	-0.24759558
44	0xbddaec3a	-0.10689588
45	0xbe47bafc	-0.19504923
46	0xbe531c79	-0.2061633
47	0xbe14fcf9	-0.14549626
48	0xbdc554f4	-0.09635344
49	0xbd760a9d	-0.060068715
50	0xbe53d4b6	-0.20686612
51	0xbe86670e	-0.262505
52	0xbe0d385f	-0.13791035
53	0xbe136940	-0.14395618
54	0xbd525b3a	-0.05135653
55	0xbe2e80fb	-0.1704139
56	0xbe9dff2f	-0.30858752
57	0xbcbd15a5	-0.02308161
58	0xbe0db877	-0.13839899
59	0xbe1309c8	-0.143592
60	0xbeaaf537	-0.3339021
61	0xbe4b9d3f	-0.19884203
62	0x3d391fa0	0.045196176
63	0xbca28914	-0.019840755
64	0xbe185920	-0.14877748
65	0xbea29bd6	-0.31759518
66	0xbd79085a	-0.06079898
67	0xbc30d4b5	-0.010792901
68	0xbde75bf4	-0.112968355
69	0xbe128775	-0.14309485
70	0x3dad7ae6	0.08470707
71	0xbdecf5bc	-0.115703076
72	0xbe47c2d1	-0.1950791
73	0xbdfff841	-0.124985225
74	0xbe016a73	-0.12638263
75	0xbe20597e	-0.15659139
76	0xbdf2f0ea	-0.11862357
77	0xbd3a36d0	-0.04546243
78	0xbd6892c1	-0.05678058
79	0xbdc3a844	-0.095535785
80	0xbe0c76f7	-0.13717256
81	0xbe4973a5	-0.19673021
82	0xbe3f012b	-0.1865279
83	0xbe216529	-0.15761246
84	0xbe4e6ff7	-0.20159899
85	0xbdfeda9b	-0.124440394
86	0xbb3e746b	-0.002906109
87	0x3c232c96	0.009959361
88	0xbe9896c9	-0.2980254
89	0xbe3cad41	-0.18425466
90	0xbe82e019	-0.25561598
91	0xbe068eb2	-0.13140371
92	0xbe2ace65	-0.16680296
93	0xbd964ef5	-0.073392786
94	0x3c4dbca6	0.012557184
95	0xbd895bf0	-0.06706989
96	0xbe00b0ae	-0.12567398
97	0xbdaabbcc	-0.08336601
98	0xbd5b0415	-0.05347069
99	0xbe0984a8	-0.1342951
100	0xbcc88101	-0.024475576
101	0xbda86e5b	-0.08224174
102	0xbe721537	-0.23640905
103	0xbe287033	-0.1644905
104	0xbe19f0a3	-0.15033202
105	0xbe806f11	-0.25084737
106	0xbe0e0141	-0.13867666
107	0xbe73272a	-0.23745409
108	0xbd5c0ad3	-0.05372126
109	0xbe494eda	-0.19658986
110	0xbd0f5c01	-0.03499985
111	0xbd97e692	-0.07417025
112	0xbdad0467	-0.08448105
113	0xbe0758e7	-0.13217507
114	0xbe880b5e	-0.26571172
115	0xbcc3c3a2	-0.023896996
116	0x3d48d5db	0.049032073
117	0xbe1248fa	-0.14285651
118	0xbd238a6a	-0.039926924
119	0xbcf3cc37	-0.029760463
120	0x3c207b6e	0.009795053
121	0xbe31c127	-0.17358838
122	0xbe14aa24	-0.14518028
123	0xbe31c748	-0.17361176
124	0x3e194f38	0.14971626
125	0xbd9e3fdd	-0.07727025
126	0x3d3e000f	0.046386775
127	0x3d161cf4	0.036648706
128	0x3cacba65	0.021084974
129	0xbe6c4e7d	-0.23076816
130	0xbe3f64b1	-0.18690754
131	0xbe1210e7	-0.1426426
132	0x3dd7dd80	0.10540295
133	0xbe40b40e	-0.18818685
134	0xbd931922	-0.07182528
135	0xbe217ec9	-0.15771021
136	0xbda9ca09	-0.08290488
137	0xbe0307e9	-0.12795986
138	0xbd8a31c9	-0.06747777
139	0xbd8b6167	-0.068056874
140	0xbdf5fcbb	-0.12011095
141	0xbc16b375	-0.009198059
142	0xbb88393f	-0.004157215
143	0xbdda2058	-0.106507
144	0xbed25013	-0.41076717
145	0xbef8f36e	-0.48623222
146	0xbd8b7d7e	-0.06811045
147	0xbd0d1159	-0.034440372
148	0xbe4f2ec4	-0.20232683
149	0xbe4d9b80	-0.2007885
150	0xbded990d	-0.11601458
151	0xbe197483	-0.14985852
152	0xbc2a90d9	-0.010410511
153	0xbe4a6ca2	-0.19768003
154	0x3c9b9840	0.018993497
155	0xbda96848	-0.08271843
156	0x3aa3e5a0	0.0012504347
157	0xbe847c4f	-0.2587609
158	0xbe003a16	-0.12522158
159	0xbea07574	-0.3133961
160	0x3c245e5d	0.010032264
161	0xbdcca68a	-0.09992702
162	0xbc82e2bd	-0.015977258
163	0xbe4c447d	-0.19948001
164	0xbddc9cd2	-0.107720986
165	0xbd807316	-0.06271951
166	0xbd9ee1dc	-0.07757923
167	0xbe1b599d	-0.15170904
168	0xbe3d372b	-0.18478076
169	0xbd87734c	-0.06613788
170	0x3baa5d52	0.005199113
171	0xbe3a2f7d	-0.18182178
172	0x3d80e336	0.06293337
173	0xbe46a0c8	-0.1939727
174	0xbd8164ef	-0.0631808
175	0x3d18ebbc	0.03733419
176	0xbd8a86d8	-0.06764001
177	0xbe3f7bcd	-0.1869957
178	0xbe2f540e	-0.17121908
179	0xbdb8b75e	-0.090193495
180	0xbe46a6cb	-0.19399564
181	0xbe8850a3	-0.2662402
182	0xbe095670	-0.1341188
183	0xbe24af0d	-0.16082402
184	0xbe24ab1a	-0.16080895
185	0xbe176393	-0.14784078
186	0xbde67723	-0.11253192
187	0xbe505f2d	-0.20348807
188	0xbd23a64a	-0.039953507
189	0x3d07b880	0.033134937
190	0xbc7514f0	-0.014958605
191	0xbd49fce1	-0.04931343
192	0xbe2d4b9f	-0.16923378
193	0xbe8b8358	-0.27248645
194	0xbc57641e	-0.013146428
195	0xbdd55f98	-0.10418624
196	0xbe20e455	-0.15712102
197	0xbe050022	-0.12988332
198	0xbe1da418	-0.15394628
199	0xbd654e0c	-0.055982634
200	0xbe41bf05	-0.18920524
201	0xb996bd5c	-0.00028751313
202	0xbd790d09	-0.060803447
203	0xbdfb0922	-0.12257601
204	0xbe2bd98a	-0.16782203
205	0xbe77e0b1	-0.24206807
206	0xbeaa1109	-0.33216122
207	0x3a814dcf	0.0009865108
208	0x3c737dd5	0.014861544
209	0xbe26d7e3	-0.16293292
210	0x3a86be2a	0.0010280062
211	0xbe0596bb	-0.1304578
212	0x3d735bee	0.059413843
213	0xbe74fb13	-0.23923902
214	0xbd94a74b	-0.07258471
215	0xbd9fa5b1	-0.07795275
216	0xbd97f263	-0.074192785
217	0x3dac77da	0.08421297
218	0xbe050e29	-0.12993683
219	0xbe2ef580	-0.17085838
220	0xbd4f5574	-0.050618604
221	0xbe3fe134	-0.18738252
222	0xbdae5119	-0.08511562
223	0xbdf28435	-0.11841623
224	0xbe7e7487	-0.24849139
225	0xbe05bee8	-0.13061106
226	0xbe6ea6c0	-0.23305798
227	0xbe4077ce	-0.18795702
228	0xbd9327b7	-0.071853094
229	0xbe2d1610	-0.16902947
230	0xbe5132b6	-0.20429501
231	0xbe593c3f	-0.21214388
232	0xbe166a81	-0.14689066
233	0xbe032c9b	-0.12809984
234	0xbdeb5929	-0.11491615
235	0xbd68d9f1	-0.05684847
236	0xbc049fd8	-0.00809475
237	0xbdd3fc7b	-0.10350891
238	0xbe825451	-0.25454953
239	0x3d7571fc	0.059923157
240	0xbcfb220c	-0.030655883
241	0xbd9fc36a	-0.07800944
242	0xbc57e1d8	-0.013176404
243	0xbe05d080	-0.13067818
244	0x3d2b4cfe	0.041821472
245	0xbea8d765	-0.32976833
246	0xbd6529eb	-0.05594818
247	0x3d9f98e5	0.07792834
248	0x3da3593e	0.07976006
249	0xbe54910d	-0.20758457
250	0xbdbb06ab	-0.09132131
251	0xbe417253	-0.18891267
252	0xbe2a531b	-0.16633265
253	0xbeb230ac	-0.3480276
254	0xbe57e93d	-0.21085067
255	0xbe84edaf	-0.25962588

layers.1.apply_mod.linear.weight f4 [256, 256]
0	0xbe415111	-0.1887858
1	0xbe7740fd	-0.24145885
2	0xbdee2eea	-0.11630042
3	0xbd4ec72f	-0.050482925
4	0x3ec5d78d	0.38641015
5	0xbea42d57	-0.32065842
6	0xbeafaaea	-0.34310085
7	0xbe14bb63	-0.14524607
8	0x3e51043c	0.20411772
9	0xbe9256f8	-0.28581977
10	0x3cd7475c	0.026279144
11	0xbe9b3c30	-0.30319357
12	0x3e6af748	0.22945893
13	0xbebe287a	-0.37140256
14	0x3ca599ef	0.020215003
15	0xbe1cc5dd	-0.15309854
16	0x3e40b5b7	0.18819319
17	0xbe24be8d	-0.16088314
18	0x3d8bddd4	0.0682942
19	0x3e1ed9c2	0.15512756
20	0xbdded009	-0.10879523
21	0x3e379eb1	0.1793163
22	0xbdca64e8	-0.098825276
23	0x3bc10900	0.0058909655
24	0x3c5003f3	0.012696254
25	0x3db32176	0.087466165
26	0xbe7532fd	-0.23945232
27	0xbe3de5c1	-0.18544675
28	0xbdcd4b56	-0.10024135
29	0xbe9d0d28	-0.306741
30	0xbe77d987	-0.24204074
31	0xbc28e0d1	-0.010307507
32	0x3ba5ef54	0.0050639305
33	0x3c703434	0.014660884
34	0xbe2044fe	-0.15651318
35	0xbe24ac4e	-0.16081354
36	0x3d317476	0.043323956
37	0x3e69b328	0.22822249
38	0x3e526f33	0.20550232
39	0xbf09c4a0	-0.5381565
40	0x3e8b2dfc	0.2718352
41	0x3e635582	0.22200587
42	0x3d94dfa5	0.07269219
43	0x3c99ca4d	0.018773222
44	0xbe6a5fdd	-0.22888131
45	0x3d4b4114	0.04962261
46	0x3e043945	0.12912472
47	0xbe9d4f96	-0.30724782
48	0x3e4057c6	0.18783483
49	0xbdd536f3	-0.10410871
50	0xbe29a0eb	-0.16565292
51	0xbd923102	-0.07138254
52	0xbd1d704e	-0.03843718
53	0xbe0c560c	-0.137047
54	0xbd6cbc01	-0.057796482
55	0x3cc659f5	0.024212817
56	0x3e6a272d	0.22866507
57	0x3e4a6c8a	0.19767967
58	0x3d0fbeba	0.035094
59	0xbf132c8f	-0.57489866
60	0x3ea9f910	0.33197832
61	0x3d35e7bf	0.044410463
62	0xbddbd5fe	-0.10734175
63	0x3d7ff7af	0.06249207
64	0xbe15a169	-0.14612354
65	0x3e938b00	0.28816986
66	0xbc2feb8b	-0.01073731
67	0xbeb5e93e	-0.35529512
68	0xbedcd983	-0.43134698
69	0xbcca58eb	-0.024700603
70	0xbe92a065	-0.28637996
71	0xbd8380c1	-0.06421042
72	0x3e9ca499	0.30594328
73	0x3e84418b	0.25831255
74	0x3cf9fd88	0.030516401
75	0xbdc38883	-0.09547522
76	0xbd3e463c	-0.0464537
77	0x3e87e4a1	0.26541618
78	0x3e26bfdc	0.16284126
79	0x3dcf9e77	0.10137647
80	0xbe343c64	-0.17601162
81	0x3cfd316d	0.030907357
82	0xbe19f761	-0.15035774
83	0xbe1f2e78	-0.1554507
84	0x3e0911e8	0.13385737
85	0xbe857473	-0.26065406
86	0xbea887c7	-0.3291609
87	0x3dd11298	0.102086246
88	0xbe7e61a3	-0.24841933
89	0xbd395c82	-0.045254238
90	0xbed4abe8	-0.41537404
91	0xbee11fdd	-0.43969622
92	0xbef50d4b	-0.47861704
93	0x3e8e569c	0.27800453
94	0x3e4eab0c	0.20182437
95	0xbea3d647	-0.31999418
96	0xbbbe47b8	-0.0058068894
97	0xbe500837	-0.20315634
98	0xbd0e6103	-0.034760486
99	0xbe550c74	-0.20805532
100	0x3dd58f0e	0.10427676
101	0x3ddce066	0.10784988
102	0xbda38f44	-0.0798631
103	0xbecab60e	-0.39592022
104	0xbded1fd4	-0.11578336
105	0xbca8c65a	-0.020602394
106	0x3d89175e	0.0669391
107	0x3bac06a0	0.005249813
108	0xbe8d193d	-0.27558318
109	0x3c953fb7	0.018218858
110	0xbe0d2cac	-0.13786572
111	0x3dc32b0f	0.09529697
112	0xbe9b6758	-0.30352283
113	0x3d18c9ad	0.037301708
114	0x3c9fe40a	0.019517917
115	0x3eba01d4	0.3632952
116	0xbdfbe923	-0.12300327
117	0xbe2e22c9	-0.17005457
118	0xbdd42281	-0.103581436
119	0x3dc0905c	0.09402534
120	0xbdac856c	-0.08423886
121	0x3dc58d47	0.09646087
122	0x3e412506	0.1886178
123	0xbe1197be	-0.14218041
124	0xbef4e839	-0.47833422
125	0xbe99a67e	-0.30009836
126	0x3d905e83	0.07049277
127	0xbef229e7	-0.47297594
128	0xbec0e216	-0.3767249
129	0x3f0f32cd	0.5593689
130	0xbeb4268d	-0.35185662
131	0x3eb11abb	0.34590706
132	0xbdb1d846	-0.08683829
133	0x3e09b79c	0.13448948
134	0xbea1c195	-0.31593004
135	0x3ea0eb27	0.31429407
136	0xbe7f28be	-0.24917886
137	0x3d8dbf19	0.069212146
138	0x3e5a6380	0.21327019
139	0x3c31a5f2	0.010842787
140	0x3c370e9d	0.011172918
141	0xbdab93c0	-0.083777905
142	0xbd20c11e	-0.03924667
143	0xbedeb6eb	-0.4349893
144	0x3d4d4879	0.050117943
145	0xbdd0539b	-0.101721965
146	0xbeda330e	-0.42617077
147	0xbd6b4df4	-0.05744739
148	0xbe0b6f79	-0.13616742
149	0x3d7b266a	0.06131593
150	0xbeef0109	-0.46680477
151	0x3dcb43a2	0.09925009
152	0xbdb638d2	-0.08897556
153	0x3e8b6021	0.27221778
154	0xbdb9575f	-0.09049868
155	0x3e5b76d1	0.21432044
156	0x3ea1528f	0.315083
157	0xbda7967d	-0.08183
158	0x3e1029eb	0.1407849
159	0xbee9c4be	-0.45657915
160	0xbed55ec8	-0.41673875
161	0xbd609072	-0.054825254
162	0x3d91b93b	0.07115408
163	0x3d947d0a	0.07250412
164	0xbee4c8cd	-0.4468445
165	0xbe7891fd	-0.2427444
166	0x3d8c079a	0.068373874
167	0x3d8beb7d	0.06832025
168	0x3d0a959c	0.033834085
169	0xbee0bfe2	-0.43896395
170	0x3dd7fdca	0.10546453
171	0xbe582c0d	-0.21110554
172	0xbe214d87	-0.1575223
173	0xbcbb6d20	-0.022879183
174	0x3c968856	0.018375557
175	0x3d150f1c	0.036391363
176	0xbdb8dd24	-0.09026554
177	0xbe325049	-0.17413439
178	0xbd9a0c78	-0.075219095
179	0xbddb9f0b	-0.107236944
180	0x3e35a2b9	0.17737855
181	0xbe423376	-0.18964943
182	0x3e3e31e1	0.18573715
183	0xbe0fea8b	-0.14054315
184	0xbe348175	-0.17627509
185	0xbf0cee43	-0.5505106
186	0xbded4e69	-0.11587221
187	0xbea6cfa2	-0.32580286
188	0x3eb7f672	0.3593021
189	0x3da679fa	0.08128734
190	0xbea4d0f1	-0.3219066
191	0xbcfc9986	-0.030834924
192	0xbd55e666	-0.05222168
193	0x3bfa2a68	0.0076344498
194	0x3e02fd8a	0.1279203
195	0x3d99e8f8	0.075151384
196	0xbe2a834e	-0.16651651
197	0x3e261c14	0.16221648
198	0xbedac2d7	-0.42726776
199	0x3de7f797	0.11326521
200	0xbdc2c738	-0.09510654
201	0xbe0f3504	-0.13985068
202	0xbe9b22fa	-0.30300122
203	0xbe30024a	-0.17188373
204	0x3d3c44a2	0.04596389
205	0xbe5627c8	-0.20913613
206	0x3e5407db	0.20706122
207	0x3e92ff45	0.2871038
208	0xbeb71ddf	-0.35764977
209	0xbea0d79d	-0.314145
210	0x3e165596	0.14681086
211	0xbe91a5ac	-0.2844671
212	0xbd53e452	-0.051731415
213	0xbdb27184	-0.08713058
214	0x3cd8a681	0.026446583
215	0x3e201c1e	0.15635726
216	0xbd86654e	-0.06562291
217	0x3e590aa9	0.21195473
218	0x3e988cbf	0.2979488
219	0x3dd0d323	0.10196521
220	0xbd8ffe8b	-0.07030972
221	0xbe92144d	-0.28531113
222	0xbe2b1197	-0.16705929
223	0xbf107a65	-0.5643676
224	0xbe3aef45	-0.18255337
225	0x3dd20dfc	0.102565736
226	0xbe3fa3c8	-0.18714821
227	0x3dab74d8	0.083718956
228	0x3e858148	0.26075196
229	0xbe1f4db8	-0.15556991
230	0x3df147d3	0.117812775
231	0xbeb6f448	-0.35733247
232	0xbe83dcd7	-0.25754425
233	0xbebb0596	-0.365277
234	0x3d9920b3	0.0747694
235	0xbeb44c87	-0.35214636
236	0x3cf81122	0.030281607
237	0x3da8f8c2	0.08250572
238	0x3e4e5e71	0.20153214
239	0xbe6237cd	-0.22091599
240	0xbe39510d	-0.18097325
241	0x3e5e6d9f	0.21721505
242	0xbe072427	-0.13197385
243	0x3df0e5d3	0.117625855
244	0xbe4f15e2	-0.20223191
245	0xbed49475	-0.41519514
246	0xbe579843	-0.21054177
247	0x3d5f5745	0.054526586
248	0xbe865ce2	-0.2624274
249	0xbd817a3f	-0.06322145
250	0xbc8022af	-0.015641538
251	0xbe2940fa	-0.16528693
252	0xbea89909	-0.32929257
253	0xbe56bcdb	-0.2097048
254	0x3d9a2eae	0.07528435
255	0x3e5f5823	0.21810965

layers.1.apply_mod.linear.bias f4 [256]
0	0xbda00739	-0.078138776
1	0xbee09739	-0.43865374
2	0xbe75ed83	-0.24016385
3	0x3e2b6ba7	0.16740285
4	0xbd38f625	-0.045156617
5	0xbf246c3e	-0.64227664
6	0xbe8b1eaa	-0.27171832
7	0xbe9b6604	-0.3035127
8	0xbd92877d	-0.071547486
9	0x3c8063ed	0.015672648
10	0xbe318634	-0.1733635
11	0xbeb78ec3	-0.35851106
12	0xbe93d9a2	-0.28876978
13	0x3e0347fe	0.12820432
14	0xbd646b73	-0.055766534
15	0xbd2dfeca	-0.042479314
16	0xbdb14bce	-0.08657037
17	0xbed23081	-0.4105263
18	0xbef20a2c	-0.47273386
19	0xbebc63b8	-0.3679483
20	0xbf10815c	-0.56447387
21	0xbf074efd	-0.528549
22	0xbe6c1063	-0.23053126
23	0xbeaa91f6	-0.33314484
24	0xbe302811	-0.17202784
25	0x3de6676a	0.112501934
26	0xbe40693c	-0.18790144
27	0xbeb29d2d	-0.3488554
28	0xbe33085d	-0.17483659
29	0xbd7492da	-0.05971036
30	0x3d57fda0	0.05273211
31	0xbe7d454e	-0.24733469
32	0xbe0c05b2	-0.13674048
33	0xbe231174	-0.15924627
34	0xbe3b5838	-0.18295372
35	0xbea40dbb	-0.32041726
36	0x3d3db58a	0.046315707
37	0x3e2e1a9f	0.17002343
38	0x3e6cf3b0	0.23139834
39	0xbe1c9d9d	-0.152945
40	0xbea7adb9	-0.32749727
41	0xbeb5b7a8	-0.3549168
42	0xbec1cf98	-0.37853694
43	0xbe47a547	-0.19496642
44	0xbeafc4e7	-0.34329912
45	0xbef2d97f	-0.4743156
46	0xbecb9bb6	-0.39767236
47	0x3db137aa	0.08653195
48	0xbeace2ed	-0.3376688
49	0xbd423d8f	-0.047421988
50	0xbd60ed67	-0.054913905
51	0xbe83603d	-0.2565936
52	0xbe03c95c	-0.12869781
53	0xbe9b686f	-0.30353114
54	0xbec841a5	-0.39112583
55	0xbd6e0208	-0.058107406
56	0xbe3ab1b5	-0.18231852
57	0xbe1c1c3c	-0.15245146
58	0xbeb455a6	-0.35221595
59	0xbf107ce4	-0.5644057
60	0x3e2f1cf6	0.17100891
61	0xbe9f5ffc	-0.31127918
62	0xbec525c0	-0.38505363
63	0x3da8014c	0.08203372
64	0xbea56316	-0.3230216
65	0xbe44a1bf	-0.19202326
66	0xbe9ab766	-0.30218047
67	0xbeb6ec41	-0.35727122
68	0xbe0e664e	-0.13906214
69	0xbe4cdc46	-0.20005903
70	0x3dbe8e4a	0.09304483
71	0xbe146774	-0.14492589
72	0x3da8417c	0.08215615
73	0xbe567ab6	-0.20945248
74	0xbe3cdea9	-0.18444313
75	0xbea0a8b7	-0.3137872
76	0x3db28da8	0.08718425
77	0xbeb6e66f	-0.35722682
78	0xbe7e7b88	-0.24851811
79	0xbd6609bb	-0.056161623
80	0xbeb0d187	-0.34534857
81	0xbe05b431	-0.13057019
82	0xbec9bb44	-0.39400685
83	0x3e91aeb1	0.2845359
84	0xbe7c0a84	-0.24613386
85	0xbd7841a4	-0.060609475
86	0xbe048840	-0.129426
87	0xbd8b8f0e	-0.06814395
88	0x3d34fb80	0.04418516
89	0xbd8d2060	-0.06890941
90	0xbee1c590	-0.4409604
91	0xbdb59b2e	-0.08867489
92	0xbeae5361	-0.34047988
93	0xbe872b34	-0.2640015
94	0x3bd49166	0.0064870594
95	0xbe9c2a8a	-0.30501205
96	0xbdf2646c	-0.1183556
97	0x3c6f4f01	0.014606238
98	0x3c8a2bf3	0.01686666
99	0xbe97ea07	-0.29670736
100	0x3bcae801	0.006192208
101	0xbe45dc73	-0.19322376
102	0xbe000fa7	-0.12505971
103	0x3d73cfcf	0.059524354
104	0xbe188f86	-0.148985
105	0x3e131184	0.1436215
106	0xbf03785f	-0.51355547
107	0x3e8a4a56	0.2700984
108	0xbe2e0855	-0.16995366
109	0x3dcf970c	0.10136232
110	0x3e3a678a	0.1820356
111	0xbe98aef0	-0.29820967
112	0xbe1d3f6e	-0.15356228
113	0xbdba2600	-0.09089279
114	0xbef25a9f	-0.47334763
115	0xbe8f7641	-0.28019908
116	0xbe558983	-0.20853238
117	0xbe70a8da	-0.23501912
118	0xbf1a4741	-0.60264975
119	0x3e37d8c6	0.17953786
120	0xbed04e0d	-0.40684548
121	0xbe4278ea	-0.18991438
122	0xbb14bac0	-0.002269432
123	0xbe91737d	-0.28408423
124	0x3e2b757f	0.1674404
125	0xbdadb0c5	-0.08480982
126	0xbea386d3	-0.319388
127	0xbeb7f366	-0.35927886
128	0xbe3c689e	-0.18399283
129	0xbf1fd9a6	-0.6244148
130	0xbf059756	-0.52184045
131	0xbebcb83b	-0.36859307
132	0xbe66857a	-0.22511855
133	0xbdf8ad9a	-0.12142487
134	0xbed2f010	-0.41198778
135	0x3df4c756	0.11952083
136	0xbb6649dc	-0.0035139238
137	0xbecb2f0d	-0.39684334
138	0xbd5ab453	-0.053394627
139	0x3dce2064	0.10064772
140	0x3e4376dd	0.19088311
141	0xbe880f19	-0.2657402
142	0xbf064866	-0.5245422
143	0xbf1c2fe4	-0.61010575
144	0xbe06cc31	-0.1316383
145	0xbea60a47	-0.32429716
146	0xbd844659	-0.0645873
147	0xbd9aca6b	-0.075581394
148	0xbe9200e6	-0.2851631
149	0xbeb9c0d7	-0.36279938
150	0xbe48dd6f	-0.1961572
151	0xbebf3f0e	-0.37352794
152	0x3dd85fef	0.10565173
153	0xbd610cb4	-0.054943755
154	0xbeac2960	-0.33625317
155	0xbedccb9c	-0.43124092
156	0x3edd9a64	0.43281853
157	0xbe46ce57	-0.1941465
158	0xbe4d184e	-0.20028803
159	0xbe909633	-0.28239593
160	0xbf06cc2e	-0.52655303
161	0xbe76580f	-0.24057029
162	0xbe109369	-0.14118733
163	0xbd27b8d8	-0.040947765
164	0xbdf90c67	-0.12160569
165	0xbea55084	-0.3228799
166	0xbe819327	-0.2530758
167	0xbef6ad4b	-0.48179087
168	0xbe6594e3	-0.22420077
169	0xbe9e6156	-0.30933636
170	0x3e02982f	0.12753366
171	0xbc1f8117	-0.009735367
172	0xbe852615	-0.26005617
173	0xbf17c2b7	-0.59281486
174	0x3e0b10b7	0.13580595
175	0xbef72752	-0.48272187
176	0xbe3e68bc	-0.1859464
177	0xbe897f7f	-0.26855084
178	0x3c02cd93	0.007983583
179	0x3d9a1943	0.075243495
180	0xbe2db7cd	-0.16964646
181	0xbf0acf59	-0.5422264
182	0xbd877124	-0.06613377
183	0xbea708ed	-0.32623997
184	0x3d5c4c18	0.053783506
185	0xbe5b3792	-0.21407917
186	0xbcb6871d	-0.022281224
187	0x3e92eced	0.28696385
188	0x3d1decca	0.038555898
189	0xbe41cbd1	-0.18925406
190	0xbea65f07	-0.32494375
191	0xbe43ca65	-0.19120176
192	0xbe8089af	-0.25105044
193	0xbf2a1432	-0.66437066
194	0xbde6dbdd	-0.11272404
195	0xbef3fae2	-0.47652346
196	0xbecaa2dc	-0.39577377
197	0xbeddcbba	-0.43319494
198	0xbdbda16c	-0.092593044
199	0xbe0fc518	-0.14040029
200	0xbe7a7284	-0.24457747
201	0xbec2fde6	-0.38084334
202	0xbdb28bfa	-0.08718105
203	0xbe6aa527	-0.22914563
204	0xbd2a4e2c	-0.041578457
205	0xbe05bf18	-0.13061178
206	0xbe01f276	-0.12690148
207	0xbeffa985	-0.4993402
208	0xbe83bc83	-0.2572976
209	0x3e97df02	0.2966233
210	0x3d9fc8f2	0.07801999
211	0xbec41629	-0.38298157
212	0x3e883f10	0.26610613
213	0xbe86e973	-0.26349983
214	0xbeda69ba	-0.42658788
215	0xbf1ca1e7	-0.61184543
216	0x3e8872db	0.26650128
217	0xbe524918	-0.20535696
218	0xbe1d57de	-0.1536555
219	0x3e6374f2	0.2221258
220	0xbebd0ebf	-0.36925313
221	0xbe82bd8a	-0.25535232
222	0xbea76799	-0.32696226
223	0xbef624bd	-0.48074904
224	0xbe4ff6ea	-0.20309034
225	0xbe534f5e	-0.20635745
226	0xbe4a4982	-0.19754604
227	0xbe1fecc1	-0.15617658
228	0xbf2b3d01	-0.6688996
229	0xbec7beea	-0.39012843
230	0xbe94b2ec	-0.29042757
231	0xbdb2646d	-0.08710561
232	0xbe60513a	-0.21905985
233	0xbd40904f	-0.047012623
234	0xbe8871af	-0.26649234
235	0xbe60429e	-0.21900412
236	0xbef96651	-0.48710874
237	0xbe936559	-0.2878826
238	0xbe87e37e	-0.2654075
239	0xbeedf852	-0.46478516
240	0xbf0ad539	-0.542316
241	0xbe8407b5	-0.2578713
242	0xbe1d6bde	-0.1537318
243	0xbe9af974	-0.30268443
244	0x3dc95623	0.098308824
245	0xbe6fe32c	-0.23426503
246	0xbd8fe38c	-0.07025823
247	0x3ea7d1d7	0.32777283
248	0xbdb952f6	-0.09049027
249	0xbe81124b	-0.2520927
250	0xbf039786	-0.5140308
251	0xbe796cd0	-0.24357915
252	0xbea8fe79	-0.33006647
253	0xbed5390b	-0.41645083
254	0xbec66112	-0.38745934
255	0xbd8685ac	-0.06568465

classify.weight f4 [26, 256]
0	0x3e9bb20e	0.30409282
1	0xbb69fec0	-0.0035704821
2	0xbecf023d	-0.40431395
3	0xbe2132ce	-0.15742037
4	0xbd9dc408	-0.077034056
5	0xbdd36fdf	-0.10324072
6	0xbdd2c49c	-0.102914065
7	0x3b6608ec	0.0035100533
8	0xbe9796f1	-0.29607347
9	0xbe168947	-0.14700805
10	0x3e91926f	0.28432032
11	0x3d06c7aa	0.03290526
12	0x3eb53dd3	0.3539873
13	0x3e3bfb9e	0.18357703
14	0xbd968557	-0.07349651
15	0xbe401655	-0.18758519
16	0x3e3638ac	0.17795056
17	0x3d59ed42	0.053204782
18	0xbeb216a2	-0.34782892
19	0xbe2ebb5a	-0.17063656
20	0xbe8221b1	-0.2541633
21	0xbeb71739	-0.35759905
22	0xbe60d446	-0.21955976
23	0xbd28027f	-0.041018005
24	0x3e638950	0.2222035
25	0x3c74b30a	0.014935264
26	0x3dc1322c	0.09433398
27	0xbe314889	-0.17312826
28	0x3e6b0ed1	0.22954871
29	0x3e200f29	0.15630783
30	0x3ee25cde	0.44211477
31	0x3cc22aae	0.023701992
32	0xbc95a4d3	-0.01826707
33	0xbeb82233	-0.35963592
34	0xbefb7079	-0.49109247
35	0xbe7a771b	-0.24459498
36	0xbd4a1890	-0.04933983
37	0x3e0ba8da	0.1363863
38	0xbe64c46a	-0.22340551
39	0x3caede42	0.021346215
40	0xbd6978ad	-0.05699985
41	0xbeb328c9	-0.34992054
42	0xbf3648fb	-0.7120511
43	0x3e22ffae	0.15917847
44	0xbda761d7	-0.08172958
45	0xbeb966df	-0.36211297
46	0x3e29ca54	0.16581088
47	0x3dc2c727	0.095106415
48	0x3e62d527	0.22151624
49	0xbe632147	-0.22180663
50	0x3e9ebb42	0.3100224
51	0xbe4452a0	-0.19172144
52	0xbe75c06b	-0.23999183
53	0x3e6f053e	0.23341843
54	0x3e4bbab3	0.19895439
55	0xbd77c003	-0.06048585
56	0x3cafbc29	0.021452026
57	0xbde7aebf	-0.11312627
58	0xbe51b5ad	-0.2047946
59	0xbd6ed7f3	-0.058311414
60	0xbf1ef273	-0.620887
61	0xbeb33e6c	-0.35008562
62	0xbe25b876	-0.16183648
63	0xbe6ad419	-0.22932471
64	0xbd4a60dd	-0.049408782
65	0x3c010a52	0.007875996
66	0x3e7c5d31	0.24644925
67	0xbe94e710	-0.29082537
68	0xbeb8d730	-0.36101675
69	0x3eef7d7e	0.4677543
70	0xbe95abad	-0.2923254
71	0xbead87fd	-0.33892813
72	0xbe25367b	-0.16134064
73	0x3d29dd93	0.041471075
74	0xbe150506	-0.14552698
75	0xbe3f06de	-0.18654963
76	0x3eacb5d5	0.33732477
77	0xbe7a6126	-0.24451122
78	0xbe0fcbca	-0.14042583
79	0xbedf71e6	-0.43641585
80	0x3e03fd45	0.12889583
81	0xbee2bcbc	-0.44284618
82	0xbe5c9706	-0.21541986
83	0x3de7a0f2	0.11309995
84	0x3e11efd3	0.14251642
85	0xbe62e307	-0.22156917
86	0x3df9ed93	0.12203517
87	0xbe8962f2	-0.26833302
88	0x3d92fefe	0.07177542
89	0x3e55da5d	0.2088408
90	0xbe828293	-0.25490245
91	0x3e94e426	0.29080313
92	0xbea94462	-0.33059984
93	0xbe64a23c	-0.22327513
94	0x3d5d4751	0.05402309
95	0xbef1c83c	-0.4722308
96	0xbe93b7bc	-0.28851116
97	0x3d6bff6a	0.05761663
98	0xbe76306c	-0.24041909
99	0x3e211ff0	0.1573484
100	0x3e8d7a7a	0.27632505
101	0xbbe85e40	-0.0070913136
102	0xbe319934	-0.17343599
103	0x3ed37801	0.41302493
104	0xbe8a9a3a	-0.2707079
105	0xbe678165	-0.22607954
106	0xbea1d469	-0.3160737
107	0x3ea46d21	0.3211451
108	0xbe4a8872	-0.19778612
109	0xbe1aedca	-0.15129772
110	0xbd8425bd	-0.064525105
111	0xbe9a6ca1	-0.30161002
112	0xbef7024b	-0.48243937
113	0x3e771f09	0.24132933
114	0xbcace38b	-0.021104595
115	0x3dd040a3	0.101685785
116	0xbdb3aa9c	-0.087727755
117	0xbec6e365	-0.38845363
118	0xbeb44217	-0.35206673
119	0x3e4b26b0	0.19838977
120	0xbdea7826	-0.11448698
121	0xbed4a6cb	-0.41533503
122	0x3ec7f44a	0.39053565
123	0xbea3adb2	-0.31968457
124	0x3e43b72c	0.19112843
125	0x3e93438e	0.28762478
126	0xbd0c0801	-0.03418732
127	0xbd45c039	-0.04827902
128	0x3e8eda35	0.27900854
129	0xbe6a93f8	-0.22908008
130	0x3e295f39	0.16540231
131	0x3c2918d0	0.010320857
132	0xbe9cda3f	-0.3063526
133	0xbd9fc640	-0.07801485
134	0xbe4a947e	-0.19783208
135	0x3d92de71	0.071713336
136	0xbca9ad76	-0.020712595
137	0xbefd3cdf	-0.49460503
138	0x3e1842d4	0.14869243
139	0x3d9614c5	0.0732818
140	0xbf31577d	-0.6927412
141	0x3e79e871	0.24405076
142	0xbf067e91	-0.52536875
143	0xbe4983ce	-0.19679186
144	0x3d7af098	0.061264604
145	0xbf312d34	-0.692096
146	0x3d897bc9	0.06713063
147	0xbd97812c	-0.073976845
148	0xbe4d1003	-0.20025639
149	0xbf1db43b	-0.61603135
150	0xbed40b97	-0.41415092
151	0xbdcd5e4b	-0.100277506
152	0xbeace137	-0.33765575
153	0x3eb860ea	0.3601144
154	0xbdfa5537	-0.12223285
155	0x3e16c428	0.14723265
156	0x3c0997c0	0.008397996
157	0x3d7a6faf	0.061141666
158	0xbec6f221	-0.38856605
159	0xbe8ee040	-0.27905464
160	0x3c6e91b6	0.014561107
161	0xbed405f6	-0.41410798
162	0xbe8db784	-0.27679074
163	0xbeffe79f	-0.499814
164	0xbe3dc590	-0.18532395
165	0x3bc1babd	0.0059121535
166	0xbed33281	-0.4124947
167	0x3cfdfb5c	0.031003647
168	0xbeb1fc68	-0.34762883
169	0xbed177ab	-0.40911612
170	0x3ed086f9	0.40727976
171	0xbe970f4d	-0.2950386
172	0xbed20998	-0.41022944
173	0x3e65b909	0.22433867
174	0xbe909ec9	-0.28246143
175	0xbe53547c	-0.20637697
176	0xbe7ef0d2	-0.24896553
177	0xbebf5657	-0.3737056
178	0xbe26ad82	-0.16277125
179	0x3cdf6722	0.027270857
180	0xbe71bd2a	-0.23607317
181	0xbe9f1939	-0.3107393
182	0xbd70cf84	-0.058791652
183	0xbdcdd118	-0.10049647
184	0x3d1edcd1	0.038784806
185	0xbe0594ea	-0.13045087
186	0xbbef1444	-0.007296117
187	0xbe3ddadf	-0.18540524
188	0x3e8ed12c	0.2789396
189	0x3e0b1938	0.13583839
190	0x3e37356c	0.17891473
191	0xbe865099	-0.26233366
192	0xbeb2e40f	-0.3493962
193	0xbd5fff1e	-0.054686658
194	0x3c6bbcea	0.014388302
195	0xbe4076cc	-0.18795317
196	0xbd338634	-0.043829158
197	0xbe17dcd4	-0.14830333
198	0xbe647197	-0.22308956
199	0xbce76be1	-0.028249683
200	0x3c603246	0.013683861
201	0xbc12d2e2	-0.008961411
202	0x3e009540	0.12556934
203	0xbdf067ee	-0.11738573
204	0x3ea01ce8	0.31272054
205	0x3dc97b3a	0.09837957
206	0xbe370ef8	-0.17876804
207	0x3cccaf5c	0.024985962
208	0xbcef0ec3	-0.029181844
209	0x3df75066	0.12075882
210	0xbe09e4c7	-0.13466178
211	0xbe6e67ac	-0.23281735
212	0x3d8606b0	0.06544244
213	0x3e23c91b	0.15994684
214	0x3d16372e	0.036673717
215	0xbdd2094b	-0.10255679
216	0xbd075221	-0.03303731
217	0x3ed879e2	0.4228049
218	0xbe2444fb	-0.16041939
219	0x3e81d2ca	0.25356132
220	0x3db5183b	0.08842512
221	0x3e05593f	0.13022326
222	0xbf0833d1	-0.53204066
223	0xbf2291f9	-0.63503987
224	0xbe368c4c	-0.17826957
225	0xbe91bd4a	-0.2846473
226	0xbed5ab4e	-0.41732258
227	0x3d44162d	0.04787271
228	0x3c792bff	0.015208243
229	0x3e2689a9	0.1626345
230	0x3e9fc0ea	0.3120187
231	0xbe4d6cd3	-0.20061044
232	0xbe83cc12	-0.2574163
233	0xbea29fbe	-0.317625
234	0x3e76d1f3	0.24103527
235	0xbe920305	-0.2851793
236	0xbdaee24b	-0.08539256
237	0xbea86520	-0.32889652
238	0xbd244642	-0.040106066
239	0xbe5bfd2d	-0.21483298
240	0xbe772ab6	-0.24137387
241	0xbe0eaaf9	-0.13932408
242	0xbda65c6e	-0.08123098
243	0xbe5cddbd	-0.21568961
244	0xbe0aa81b	-0.1354069
245	0xbf0f5394	-0.55986905
246	0x3b6b1b05	0.003587426
247	0xbef8eee8	-0.4861977
248	0x3e8ded64	0.27720177
249	0xbd72134a	-0.059100427
250	0xbcfa4efa	-0.030555237
251	0x3dc1d985	0.09465317
252	0xbf03d4e0	-0.51496696
253	0x3dc41f1c	0.09576246
254	0x3db71e60	0.089413404
255	0xbdbc0b13	-0.091818

classify.bias f4 [26]
0	0xbd9bda46	-0.07609992
1	0xbe2a5ea0	-0.16637659
2	0xbd9f44b6	-0.077767774
3	0xbcd69bc7	-0.026197327
4	0xbe0217b7	-0.12704359
5	0xbe2cd007	-0.16876231
6	0x3eaa9db7	0.33323452
7	0xbd721f94	-0.059112146
8	0x3e01daf5	0.12681182
9	0x3e3ca5fb	0.18422692
10	0xbe5d6f3f	-0.21624468
11	0x3cc00198	0.02343826
12	0x3e02c552	0.12770584
13	0xbd3d8741	-0.046271566
14	0xbc8237f6	-0.015895825
15	0xbe16a1a8	-0.14710104
16	0x3e2dcd4d	0.16972847
17	0xbeae5768	-0.3405106
18	0xbe9b86c6	-0.3037626
19	0x3c82b35f	0.015954671
20	0x3f0d6175	0.5522683
21	0x3e1d34b7	0.1535214
22	0xbe3bd789	-0.18343939
23	0xbe4a3915	-0.19748338
24	0x3e3a8598	0.18215024
25	0xbd313753	-0.043265652
